Lectures/06-Deployment/05-Organizing/saved/cnn1_normalized_42.pt (torch, 121077 bytes, 14 tensors)

layer1.0.weight f4 [16, 1, 5, 5]
0	0x3d84609d	0.0646374
1	0xbdb9e37b	-0.090765916
2	0xbe242513	-0.16029768
3	0x3cafca14	0.021458663
4	0x3e333881	0.17502023
5	0x3e22e666	0.15908203
6	0x3d36a535	0.044591147
7	0xbe3665e1	-0.17812301
8	0xbe2dcea8	-0.16973364
9	0x3d7d52ba	0.061846472
10	0x3ddb38dc	0.107042044
11	0xbdd0f4bb	-0.10202929
12	0x3d28d183	0.04121543
13	0xbdf42429	-0.119209595
14	0x3e036fae	0.12835571
15	0xbdafb914	-0.08580223
16	0x3dd553a2	0.10416342
17	0x3d926f18	0.07150096
18	0xbdd129b4	-0.10213032
19	0x3d5fbf6c	0.054625914
20	0x3ceaeec4	0.028678305
21	0xbc71674c	-0.014734101
22	0xbe1a2e7f	-0.150568
23	0xbd593217	-0.053026285
24	0x3c8829a4	0.016621418
25	0xbd919928	-0.0710929
26	0xbcb9eb30	-0.022695154
27	0xbe16c61a	-0.14724007
28	0x3e1e10bc	0.15436071
29	0x3e2a1451	0.16609313
30	0x3d85837e	0.06519221
31	0x3dfa6e71	0.12228096
32	0xbe1e856f	-0.15480588
33	0xba2fac33	-0.000670138
34	0xbcfb2c8b	-0.030660888
35	0xbd94c237	-0.07263606
36	0xbd574c57	-0.052563038
37	0xbdf32827	-0.11872893
38	0xbe13b779	-0.14425458
39	0xbc883b23	-0.016629761
40	0xbd55e335	-0.052218635
41	0xbceffcef	-0.029295413
42	0xbe1d35b9	-0.15352525
43	0xbc96690d	-0.018360639
44	0xbe480e37	-0.19536673
45	0x3e132ba2	0.14372113
46	0x3e4129c3	0.18863587
47	0x3d989ee8	0.07452184
48	0x3e0bae7b	0.13640778
49	0x3b59bc50	0.0033223815
50	0xbde2618f	-0.11053764
51	0xbb9f21b8	-0.0048563145
52	0x3d41497e	0.04718923
53	0x3e074a57	0.13211952
54	0xbd1665f6	-0.03671833
55	0x3e683c6b	0.22679298
56	0x3e07e762	0.1327186
57	0xbe149b8a	-0.14512458
58	0x3cd0cf1b	0.02548938
59	0x3e5f1292	0.21784428
60	0xbdec7c4b	-0.115471445
61	0x3dd54f8a	0.104155615
62	0x3d46226f	0.048372682
63	0xbe2f2450	-0.17103696
64	0xbd8cdb96	-0.0687782
65	0xbd3a2497	-0.04544505
66	0xbe582e52	-0.2111142
67	0x3dc0e908	0.09419447
68	0x3d85890d	0.06520281
69	0xbc047c4f	-0.008086278
70	0xbe261ab5	-0.16221125
71	0x3d47af46	0.04875114
72	0xbe1774ca	-0.14790645
73	0xbc726aeb	-0.014795999
74	0xbdbf6981	-0.09346295
75	0xbe0be2d9	-0.13660754
76	0xbe05ad97	-0.130545
77	0xbd29c953	-0.041451763
78	0x3df58591	0.119883664
79	0x3b3e3f4c	0.0029029427
80	0xbd5bb45a	-0.053638794
81	0xbe6a6540	-0.22890186
82	0x3dd40210	0.10351956
83	0xbdcbd7ba	-0.09953256
84	0x3e014661	0.12624504
85	0xbe5cd2fd	-0.2156486
86	0xbd8762ce	-0.066106424
87	0x3da343ab	0.07971891
88	0x3e1f95cb	0.15584485
89	0x3e098942	0.13431266
90	0xbe51d146	-0.20489988
91	0x3cbdbeb8	0.02316223
92	0x3cd91144	0.02649749
93	0x3dd075e0	0.10178733
94	0x3d79c6fe	0.06098079
95	0xbdfdb518	-0.123880565
96	0x3e17073c	0.14748853
97	0x3e28ed2a	0.16496721
98	0x3dad284a	0.0845495
99	0xbdb52e0a	-0.08846672
100	0xbbcc0391	-0.006226011
101	0x3d2950c1	0.04133678
102	0x3dafaa51	0.08577407
103	0x3dce3335	0.10068361
104	0x3db77d09	0.089593954
105	0xbd36560e	-0.044515662
106	0xbdea9754	-0.11454645
107	0xbdc64f64	-0.09683111
108	0x3b6f6156	0.0036526523
109	0x3e0d1874	0.1377886
110	0xbe15fd7a	-0.14647475
111	0xbd80adec	-0.06283173
112	0xbe072b3b	-0.13200085
113	0xbe4fb83a	-0.2028512
114	0xbdb71fbb	-0.08941599
115	0x3d511663	0.05104674
116	0xbd611f8e	-0.054961734
117	0xbdfc86a9	-0.12330372
118	0x3cce1ea5	0.025161097
119	0xbddb6061	-0.10711742
120	0x3e30c644	0.17263132
121	0x3d909abf	0.070607655
122	0x3e4c4a2c	0.1995017
123	0xbd291191	-0.04127652
124	0x3c960465	0.018312642
125	0x3d3cd71f	0.046103593
126	0xbdaa7d1f	-0.08324646
127	0xbc09f0c5	-0.00841922
128	0xbe2a4f59	-0.16631831
129	0xbd644650	-0.055731118
130	0x3df26686	0.11835961
131	0xbe3cc353	-0.18433885
132	0xbd916068	-0.07098466
133	0xbe049ea3	-0.1295114
134	0x3e448678	0.19191921
135	0xbcdda575	-0.027056435
136	0xbd1df5ee	-0.038564615
137	0xbe19f300	-0.15034103
138	0x3c6a56e6	0.014302945
139	0x3e35b0ec	0.17743272
140	0x3c664f42	0.0140569825
141	0xbe218036	-0.15771565
142	0x3dac6aad	0.08418784
143	0x3c6aa57d	0.014321682
144	0xbd238776	-0.039924107
145	0xbd19dd16	-0.03756436
146	0xbd96bb8c	-0.073599905
147	0xbe307041	-0.17230321
148	0x3d4d477e	0.05011701
149	0x3da0beca	0.0784889
150	0x3e4fb26a	0.20282903
151	0xbced1631	-0.028941246
152	0xbdb92494	-0.0904018
153	0x3da7ecbc	0.081994504
154	0x3e02e8f6	0.1278418
155	0x3dbe9fbd	0.093078114
156	0xbe2c5337	-0.16828619
157	0x3dcaa7ac	0.09895262
158	0x3db5a9de	0.0887029
159	0xbe227f21	-0.15868808
160	0xbc73c2f9	-0.014878028
161	0x3e1eb5b5	0.15499003
162	0xbe070fa2	-0.13189557
163	0x3cb9ee8b	0.022696754
164	0xbcdfedb7	-0.027335031
165	0xbccf8d56	-0.025335949
166	0xbe0bc5ea	-0.13649717
167	0xbcd15520	-0.025553286
168	0xbe342248	-0.17591202
169	0xbe39b0df	-0.18133877
170	0x3ca98f35	0.02069817
171	0xbe3eabb9	-0.18620194
172	0xbe032982	-0.12808803
173	0xbdb9a43b	-0.090645276
174	0x3e3c909b	0.18414538
175	0x3dc7c44b	0.09754237
176	0x3e26c84e	0.16287348
177	0xbe377b89	-0.17918219
178	0xbe19559e	-0.14974067
179	0xbd3d94e8	-0.046284586
180	0x3e526efc	0.2055015
181	0x3b1009b4	0.002197844
182	0x3e282634	0.16420823
183	0xbdc1a8cc	-0.094560236
184	0x3d8346d9	0.064099975
185	0xbe151f84	-0.14562804
186	0xbe42f19c	-0.19037479
187	0x3de53c08	0.11193091
188	0xbe54da43	-0.20786385
189	0x3d52c867	0.05146065
190	0x3e3e5a05	0.18589027
191	0xbe1c03dd	-0.15235849
192	0x3e2af032	0.1669319
193	0xbe00df76	-0.12585244
194	0xbe42609b	-0.18982165
195	0xbdc8c631	-0.09803427
196	0xbe065644	-0.13118845
197	0xbdd8216b	-0.10553249
198	0xbe41f469	-0.18940891
199	0xbd41d89f	-0.047325727
200	0x3daf57dc	0.0856168
201	0xbca04454	-0.019563831
202	0x3e0651f6	0.13117203
203	0x3e41533e	0.1887941
204	0x3c6856c1	0.01418084
205	0x3db50c93	0.08840289
206	0x3e3a56b2	0.18197134
207	0x3e2310ef	0.15924428
208	0x3e3756ee	0.17904255
209	0xbe333de5	-0.1750408
210	0xbe3cf10d	-0.18451329
211	0xbd281762	-0.041037925
212	0x3d461b77	0.048366036
213	0xbde7b54c	-0.113138765
214	0xbe2a7ac0	-0.16648388
215	0x3d581592	0.052754946
216	0x3bd902b0	0.006622635
217	0x3ba5b4b7	0.0050569433
218	0x3d96ebfa	0.07369228
219	0xbda7fee8	-0.082029164
220	0x3d215f94	0.03939779
221	0xbdcc19f3	-0.09965887
222	0xbe1313dc	-0.14363045
223	0xbc34d5a4	-0.011037264
224	0x3e437846	0.1908885
225	0x3e3c5f92	0.18395832
226	0x3dc5f118	0.096651256
227	0xbe2ec83d	-0.17068572
228	0x3dbb32e6	0.091405675
229	0xbe324632	-0.1740959
230	0x3cec36d4	0.028834738
231	0xbd3ab22f	-0.045580085
232	0xbd63c524	-0.05560793
233	0xbe3ba154	-0.1832326
234	0x3d878231	0.06616629
235	0x3d683fc6	0.056701444
236	0xbdefe15b	-0.11712905
237	0x3dadf76c	0.084944576
238	0x3d618dd4	0.0550669
239	0xbd2280ba	-0.039673544
240	0xbe27ff54	-0.16405994
241	0xbd44e263	-0.04806746
242	0xbd2d47bb	-0.042304736
243	0xbcdf401e	-0.027252253
244	0x3e500f2e	0.2031829
245	0x3ddd7312	0.108129635
246	0xbc77bfd2	-0.015121417
247	0xbde04553	-0.109507225
248	0x3dbbce01	0.091701515
249	0xbdb77f11	-0.08959783
250	0xbe5a1d2a	-0.21300188
251	0x3e18e430	0.14930797
252	0xbe17b141	-0.14813711
253	0xbe247ff9	-0.16064443
254	0x3e1fefab	0.1561877
255	0xbe292760	-0.16518927

layer1.0.bias f4 [16]
0	0x3d2bf49d	0.04198133
1	0x3e2d1a1b	0.1690449
2	0x3e0fab01	0.14030077
3	0xbd522556	-0.051305138
4	0x3deebef4	0.11657515
5	0xbc008c7e	-0.007845996
6	0xbdec079e	-0.1152489
7	0xbe1b26cd	-0.1515152
8	0x3e291359	0.16511287
9	0x3dbe7393	0.09299388
10	0x3e3fc977	0.18729196
11	0xbe2bdf2b	-0.1678435
12	0x3d966ac9	0.073445864
13	0xbd131c84	-0.035915866
14	0xbd97c871	-0.07411278
15	0xbe2b5e40	-0.16735172

layer1.1.weight f4 [16]
0	0x3f80eb38	1.0071783
1	0x3f82518f	1.018114
2	0x3f85f98c	1.0466781
3	0x3f7dc757	0.99132293
4	0x3f87cc74	1.0609269
5	0x3f8096b8	1.0045996
6	0x3f805f30	1.0029049
7	0x3f7ca423	0.9868795
8	0x3f721aea	0.9457232
9	0x3f7dce17	0.99142593
10	0x3f76a27e	0.96341693
11	0x3f83645d	1.0265003
12	0x3f7ccbf3	0.987487
13	0x3f753750	0.95787525
14	0x3f80728e	1.0034959
15	0x3f7c1f06	0.9848484

layer1.1.bias f4 [16]
0	0xbd3c187e	-0.045921795
1	0xbcf85cbd	-0.030317659
2	0xbd535f62	-0.051604636
3	0xbd788952	-0.060677834
4	0xbd599fc7	-0.05313089
5	0xbd1477af	-0.03624695
6	0xbcee4d63	-0.029089635
7	0xbd15058f	-0.036382254
8	0xbcdc5c59	-0.026899504
9	0xbd2bde45	-0.04196002
10	0xbcd3bc19	-0.025846528
11	0xbd20b617	-0.039236154
12	0xbd01d693	-0.031698775
13	0xbd833b0d	-0.064077474
14	0xbd0bf982	-0.034173496
15	0xbd2b7d4f	-0.04186755

layer1.1.running_mean f4 [16]
0	0x3d4844f9	0.048893902
1	0x3e391a11	0.1807635
2	0x3e03446f	0.12819074
3	0xbd8796ff	-0.06620597
4	0x3e03c4c5	0.1286803
5	0xbcd88718	-0.026431605
6	0xbe02a54e	-0.12758371
7	0xbe442923	-0.19156317
8	0x3e4111fe	0.1885452
9	0x3dba8582	0.09107496
10	0x3e4b9c5c	0.19883865
11	0xbe3d3e67	-0.18480836
12	0x3d56c8c0	0.052437544
13	0x3abcfd19	0.0014418691
14	0xbdbb783d	-0.09153793
15	0xbe379ad8	-0.17930162

layer1.1.running_var f4 [16]
0	0x3e235aeb	0.15952651
1	0x3e70c80a	0.23513809
2	0x3e34f1e4	0.17670399
3	0x3f52ce84	0.8234637
4	0x3e8cf3e9	0.2752984
5	0x3eea28ae	0.4573416
6	0x3ee6a813	0.45050105
7	0x3f2a1937	0.66444725
8	0x3ebf90ec	0.37415254
9	0x3e206fd2	0.15667656
10	0x3eb8f36f	0.36123225
11	0x3f02db20	0.5111561
12	0x3ee4dc31	0.44699243
13	0x3e99a574	0.30009043
14	0x3f1683f9	0.58795124
15	0x3e46f532	0.19429472

layer2.0.weight f4 [32, 16, 5, 5]
0	0x3cfb002c	0.03063973
1	0x3c44f266	0.012020683
2	0xbcf673d2	-0.030084524
3	0x3b5691c9	0.0032740703
4	0xbc984964	-0.018589683
5	0xbcb2ab4f	-0.021810202
6	0x3d5c092b	0.05371968
7	0x3d02e0bd	0.03195261
8	0x3d1b5825	0.037925858
9	0x3cd377fe	0.025814053
10	0x3b161cf4	0.002290544
11	0x3d3d55e3	0.046224486
12	0x3c54490e	0.012956871
13	0x3d29eca0	0.04148543
14	0xbc8432eb	-0.01613756
15	0xbd20c50c	-0.03925042
16	0x3bc233e9	0.0059265983
17	0xbcde159c	-0.027109914
18	0x3add412f	0.0016880388
19	0x3ce6eef5	0.028190115
20	0x3bcfdb19	0.006343257
21	0xbd2f4b87	-0.042796638
22	0xbd0ac361	-0.033877734
23	0x3d2cd98d	0.04219966
24	0x3d57e229	0.052705918
25	0xbd932d2c	-0.0718635
26	0x3bf59c58	0.0074954443
27	0x3c56a54a	0.013100931
28	0xbc89cb4a	-0.016820569
29	0x3c157c23	0.009123835
30	0x3ca8b4e0	0.02059406
31	0x3d24568e	0.040121607
32	0x3cb1963c	0.021678083
33	0xbb6b3922	-0.0035892208
34	0x3d5e4735	0.054267127
35	0x3d0c3bdb	0.03423677
36	0x3b00959c	0.0019620424
37	0x3bf3884c	0.0074320193
38	0xbc2f340c	-0.010693561
39	0xbc7588a5	-0.014986192
40	0xbd093bd8	-0.033504337
41	0xbbae0b5a	-0.005311412
42	0x3bacea71	0.005276971
43	0x3c946bc7	0.018117798
44	0xbd40c8a9	-0.047066364
45	0x3a8b5af8	0.0010631969
46	0xbd40b253	-0.047045063
47	0xbd0a8415	-0.03381737
48	0x3c24440d	0.01002599
49	0xbd1e81de	-0.03869807
50	0xbc74823e	-0.01492363
51	0x3bd0965d	0.006365581
52	0x3c0a8699	0.008454942
53	0xbce6af1e	-0.028159674
54	0x3be9d37b	0.007135806
55	0xbca0d090	-0.0196307
56	0xbcdaa2b0	-0.026688904
57	0xbcc165d9	-0.023608135
58	0x3bfdb7c1	0.0077428524
59	0x3cb29244	0.02179826
60	0x3c0179b0	0.007902548
61	0xbd1135eb	-0.03545181
62	0x3c1e8080	0.0096741915
63	0xbd5e62a5	-0.054293294
64	0xbca514ce	-0.020151522
65	0xbd1f70a7	-0.038925793
66	0x3bf8fb89	0.0075983447
67	0x3b087fbd	0.002082809
68	0xbd6b4859	-0.057442043
69	0xbd0fcc26	-0.0351068
70	0xbd44b8bf	-0.04802775
71	0x3b30042f	0.0026857962
72	0xbcff0e8e	-0.03113487
73	0xbc067d96	-0.008208653
74	0x3c7108c6	0.014711564
75	0x3cb79cb6	0.022413593
76	0x3d692330	0.056918323
77	0xbcd8580a	-0.026409168
78	0xbc95f835	-0.01830683
79	0x3cdb3b4f	0.026761679
80	0x3cd0af21	0.025474133
81	0x3d1822e9	0.037142668
82	0x3d459fc0	0.048248053
83	0xbc0623d2	-0.008187251
84	0x3c972614	0.018450774
85	0x3d3d2f25	0.04618754
86	0x3c82d4e7	0.01597066
87	0xbc7cb30d	-0.015423548
88	0xbd2b53d6	-0.041828
89	0x3bfb3843	0.007666619
90	0xbd6a69de	-0.05722987
91	0xbd32a8f0	-0.043618143
92	0x3d78640a	0.06064228
93	0x3d5ed859	0.054405544
94	0x3d02e4d6	0.031956516
95	0x3cf579cf	0.02996531
96	0x3d644552	0.05573017
97	0x3d6fa85b	0.058510166
98	0x3ba87d35	0.005141879
99	0x3d100a71	0.035166208
100	0x3c9a548f	0.018839149
101	0xbce85389	-0.028360145
102	0xbc6242a1	-0.013809831
103	0xbc64bd4e	-0.013961149
104	0xbc04e5b3	-0.008111405
105	0xbc12fa6c	-0.008970838
106	0xbd19e61f	-0.037572976
107	0xbca995eb	-0.02070137
108	0x3ba433f5	0.0050110766
109	0x3d670cdb	0.056408744
110	0xbc33e02a	-0.010978738
111	0x3d1473f4	0.036243394
112	0xbd3a2c6f	-0.04545253
113	0x3b00fc3a	0.0019681589
114	0x3d191f57	0.037383404
115	0x3bfa363e	0.0076358607
116	0x3bd1e182	0.0064050565
117	0x3c35f230	0.011105105
118	0xbcb3d19f	-0.021950541
119	0xbd85918f	-0.06521904
120	0x3d484c83	0.048901092
121	0xbcecd32b	-0.028909286
122	0xbd48d87c	-0.04903458
123	0xbd11420a	-0.03546337
124	0xbd3813c9	-0.044940744
125	0x3c30478a	0.010759244
126	0x3cee670c	0.029101871
127	0xb90585a8	-0.00012733659
128	0x3c09edd3	0.008418518
129	0xbce4a407	-0.027910246
130	0xbb7a13ad	-0.00381587
131	0x3afba4a5	0.0019198848
132	0x3cc49f18	0.024001643
133	0xbb9232be	-0.0044616153
134	0xbd19bae2	-0.03753174
135	0x3d2ff086	0.04295399
136	0xbd0a5f16	-0.033782087
137	0x3d1b73a2	0.037952073
138	0xbd3f0731	-0.046637718
139	0xbd0a3f05	-0.033751506
140	0xbd0d2c91	-0.03446633
141	0x3b194b79	0.0023390932
142	0xbd353bab	-0.044246357
143	0xbb8b9784	-0.0042600054
144	0xbc0cffbb	-0.008605893
145	0xbd42b6fc	-0.04753779
146	0x3bf4161d	0.007448925
147	0xbd0c4789	-0.03424791
148	0xbc24c203	-0.010056022
149	0x3ce1bc22	0.027555529
150	0xbd48863a	-0.048956133
151	0xbb86a325	-0.004108804
152	0xbd2e118d	-0.042497206
153	0x3c024981	0.007952095
154	0x3d433855	0.047661144
155	0x3ae9f9b9	0.0017850912
156	0xbc54e836	-0.0129948165
157	0xbd635ef4	-0.055510476
158	0xbce867bd	-0.028369779
159	0xbc81400d	-0.015777612
160	0x3b8bebcc	0.0042700525
161	0xbd2e4b58	-0.042552322
162	0x3c22cd00	0.009936571
163	0x3cb4ba52	0.0220615
164	0xbd30fcaa	-0.04320971
165	0x3cf1773f	0.029475806
166	0xbcccb7b5	-0.024989942
167	0x3d120c2d	0.035656143
168	0x3cd12cf8	0.025534138
169	0x3cb39516	0.021921676
170	0x3d3cc578	0.04608676
171	0x3905261b	0.00012698064
172	0xbd3a0dcf	-0.045423325
173	0x3b765e7d	0.003759294
174	0x3d3f903b	0.04676841
175	0x3d377541	0.044789556
176	0x3cd64b84	0.026159056
177	0xbd42632b	-0.047457855
178	0x3bb0285c	0.005375905
179	0x3b96dcbb	0.00460395
180	0x3d366432	0.044529147
181	0xbcdff5bc	-0.027338855
182	0xbd22edaa	-0.039777435
183	0xbcaaf0b6	-0.020866733
184	0xbd0f4dcb	-0.0349863
185	0xbb529649	-0.0032133034
186	0x3b67d798	0.0035376307
187	0xbc805c8e	-0.015669134
188	0x3cc49182	0.023995165
189	0xbc8464a7	-0.016161276
190	0x3ca8a4b2	0.020586345
191	0x3bb57ee0	0.0055388063
192	0xbd493f90	-0.049132884
193	0x3ca56f08	0.020194545
194	0x3cf32a91	0.029683383
195	0xbc63ada5	-0.013896381
196	0x3bc5322b	0.0060179434
197	0x3bf16b20	0.0073675066
198	0xbcc224d7	-0.023699207
199	0x3cb0998f	0.021557597
200	0x3b54e00e	0.003248218
201	0xbca1267a	-0.019671667
202	0x3d24ab3a	0.040202357
203	0xbc849fea	-0.016189534
204	0xbd58228e	-0.05276733
205	0x3a3d03ff	0.00072103733
206	0xba260da7	-0.0006334432
207	0xbc0a5166	-0.008442258
208	0x3c72c2ed	0.014816982
209	0x3ba7227f	0.005100548
210	0xbd527437	-0.051380362
211	0xbc2e6720	-0.010644704
212	0x3d127953	0.035760235
213	0xbd19c87a	-0.037544705
214	0xbc83a741	-0.016070964
215	0x3c507db6	0.012725284
216	0xbce0ed95	-0.027457038
217	0x3cec1c9d	0.028822238
218	0xbb54099e	-0.0032354365
219	0xbb199e11	-0.0023440162
220	0x3c8bf2b3	0.017083501
221	0xbc218fda	-0.009860957
222	0xbcb65ec7	-0.02226199
223	0x3c1de625	0.00963739
224	0xbc0feb4a	-0.008784125
225	0x3d38e2be	0.045138113
226	0xbd08be69	-0.033384714
227	0x3d060cad	0.032726932
228	0x3ccb6801	0.024829866
229	0x3d60055c	0.05469261
230	0xbd2638b1	-0.04058141
231	0x3d160eb1	0.036635105
232	0xbc31af6c	-0.0108450465
233	0x3d6d265c	0.05789791
234	0xbc8fe1d4	-0.017563738
235	0x3d030473	0.031986665
236	0xbc11f836	-0.008909276
237	0x3c854615	0.01626877
238	0xbb272c09	-0.0025508425
239	0xbc903304	-0.017602451
240	0xbd2f0c10	-0.042736113
241	0x3d013d9e	0.031552903
242	0xbd375c02	-0.04476548
243	0x3cfa7e9b	0.030577948
244	0x3c9be1bc	0.019028537
245	0x3cb50743	0.02209819
246	0xbd64aafb	-0.055827122
247	0xbc31194b	-0.010809253
248	0xbcd8c9d1	-0.026463421
249	0x3c196d8d	0.009364498
250	0x3d19c235	0.037538726
251	0x3c5b1d15	0.013373633
252	0x3bb56958	0.0055362396
253	0xbce4d5c6	-0.027933966
254	0xbd05b4f7	-0.032643285
255	0x3caeaa59	0.021321462

layer2.0.bias f4 [32]
0	0x3d3b3e63	0.045713793
1	0x3bf3d068	0.0074406154
2	0x3cf89266	0.030343246
3	0x3c5d7afc	0.013518091
4	0x3cffb09e	0.031212147
5	0x3c49588c	0.012289178
6	0x3cef3522	0.02920014
7	0xbd0f6e63	-0.035017382
8	0xbd1893c5	-0.0372503
9	0xbba17cd8	-0.0049282126
10	0xbcc6bc23	-0.024259632
11	0x3c98f3a2	0.01867086
12	0x3d48e7f1	0.04904932
13	0x3c1dbde0	0.009627789
14	0x3c2bb448	0.010479994
15	0x3c420b4c	0.011843514
16	0xbc55e374	-0.013054717
17	0xbbdb5500	-0.0066934824
18	0x3d3f5ded	0.046720434
19	0x3c2149e8	0.009844281
20	0x3d3cd2ab	0.046099346
21	0x3c0df014	0.008663196
22	0x3d2d06d5	0.042242844
23	0x3d482c51	0.04887039
24	0xbba8d48e	-0.0051522916
25	0xbd38f05f	-0.04515111
26	0x3d31b4dd	0.043385375
27	0x3d112af7	0.035441365
28	0xbc83edbc	-0.016104572
29	0x3d0e4249	0.034731183
30	0x3d277dfb	0.04089163
31	0xbd35ce68	-0.044386297

layer2.1.weight f4 [32]
0	0x3f84b9e0	1.0369225
1	0x3f8708bc	1.054954
2	0x3f860d72	1.0472853
3	0x3f85ddb1	1.045828
4	0x3f8ad4fb	1.0846246
5	0x3f8b64b3	1.0890106
6	0x3f85e01b	1.0459017
7	0x3f858b3b	1.0433115
8	0x3f892c23	1.0716594
9	0x3f870ce6	1.0550811
10	0x3f89b13a	1.075721
11	0x3f84db75	1.0379473
12	0x3f88fa52	1.0701392
13	0x3f858e68	1.0434084
14	0x3f84a7f4	1.0363755
15	0x3f8b6318	1.0889616
16	0x3f878fd7	1.0590771
17	0x3f873140	1.0561905
18	0x3f8810f7	1.0630177
19	0x3f853cc4	1.0409169
20	0x3f850e94	1.0395074
21	0x3f83931d	1.027927
22	0x3f865318	1.0494108
23	0x3f895508	1.0729074
24	0x3f83a089	1.0283366
25	0x3f859f70	1.0439281
26	0x3f8632f1	1.0484296
27	0x3f84030c	1.031343
28	0x3f86d572	1.0533888
29	0x3f866a52	1.0501196
30	0x3f866cd4	1.0501962
31	0x3f87ce23	1.0609783

layer2.1.bias f4 [32]
0	0xbb6dcdb9	-0.003628595
1	0xb8dc014e	-0.000104906605
2	0xbac22eef	-0.0014815013
3	0xbb613a50	-0.0034367032
4	0x39c5d80c	0.00037735736
5	0x3c13864b	0.009004186
6	0xbb3c5ba8	-0.0028741155
7	0x3b994ffd	0.004678725
8	0x3b9a203f	0.004703551
9	0xbbf190b7	-0.0073719877
10	0x3afc145c	0.0019232142
11	0xbb99daa4	-0.0046952534
12	0x3b412c4c	0.0029475866
13	0xbb085313	-0.002080147
14	0xbb2ca576	-0.002634374
15	0x3c40f342	0.011776747
16	0x3b7a5050	0.0038194843
17	0x3b75014b	0.0037384804
18	0xbb076ca7	-0.0020664127
19	0x3a27f1c8	0.00064065726
20	0xbb3605e6	-0.0027774512
21	0xbaf252a6	-0.0018487766
22	0xbbf2ca49	-0.007409368
23	0x3c089385	0.008335953
24	0x3b923fd4	0.0044631753
25	0xbc4dfa5d	-0.012571898
26	0x3b9b4611	0.004738577
27	0xbb89ff24	-0.0042113233
28	0x3bddf97c	0.0067741256
29	0x3b04c794	0.002026056
30	0xba627b13	-0.00086395553
31	0x3be394d0	0.00694523

layer2.1.running_mean f4 [32]
0	0x3d37a507	0.044835117
1	0x3ea834ad	0.32852688
2	0x3eaf1088	0.341923
3	0x3e046da0	0.12932444
4	0xbe76a50f	-0.24086402
5	0x3e1b638c	0.15174693
6	0x3d676b3e	0.05649876
7	0x3d8416e1	0.06449676
8	0xbe533475	-0.2062548
9	0xbbc7dafe	-0.006099104
10	0xbe3c231a	-0.18372765
11	0xbdd6ec37	-0.10494273
12	0x3e9b5a60	0.30342388
13	0x3de0e31e	0.10980819
14	0x3dee34da	0.116311744
15	0x3db78165	0.08960227
16	0x3c76d88a	0.015066275
17	0xbc0ffb55	-0.00878795
18	0x3de43178	0.11142248
19	0xbe676337	-0.22596441
20	0x3bd32123	0.006443159
21	0xbc101f8a	-0.008796582
22	0xba8c4608	-0.0010702023
23	0x3da2e00f	0.07952892
24	0xbdfc514a	-0.12320192
25	0x3e165c6e	0.14683697
26	0x3d3a0e64	0.04542388
27	0x3de35d6f	0.111018054
28	0x3d9e1b67	0.0772007
29	0xbd1f8df3	-0.038953733
30	0xbcee249e	-0.029070195
31	0xbe3638d5	-0.17795117

layer2.1.running_var f4 [32]
0	0x3e8919ca	0.26777488
1	0x3e9a65a7	0.3015568
2	0x3eae7e18	0.34080577
3	0x3e8b9203	0.27259836
4	0x3eba80cc	0.3642639
5	0x3ecb3798	0.39690852
6	0x3e93f860	0.28900433
7	0x3eb0224e	0.34401172
8	0x3edac900	0.42731476
9	0x3e9ae827	0.30255243
10	0x3ee26f03	0.4422532
11	0x3e883fe0	0.26611233
12	0x3e9d3ad8	0.30708957
13	0x3efd8530	0.49515676
14	0x3e808aaf	0.25105807
15	0x3e9f0d61	0.31064895
16	0x3eb09f0c	0.34496343
17	0x3ea16e24	0.31529343
18	0x3ec1f2f0	0.3788066
19	0x3e686584	0.22694975
20	0x3e976c68	0.29574895
21	0x3ebf037a	0.3730734
22	0x3e99253d	0.29911223
23	0x3e97c3de	0.29641622
24	0x3e8ac934	0.2710663
25	0x3ef253b4	0.47329485
26	0x3eaf6c72	0.34262425
27	0x3e8d1486	0.2755472
28	0x3ef25df4	0.47337306
29	0x3eb26d6a	0.348491
30	0x3e9f054f	0.31058738
31	0x3eaf4d1a	0.3423851

fc.weight f4 [10, 1568]
0	0x3cafcd2c	0.021460138
1	0xbca4ab73	-0.020101285
2	0xbbb2c15d	-0.0054551796
3	0xbcb6a097	-0.022293372
4	0x3c921fd5	0.017837444
5	0xbc821a32	-0.015881632
6	0x3bdb243c	0.006687669
7	0xbc62128b	-0.013798366
8	0x3ca520c9	0.020157235
9	0xbc5367b1	-0.01290314
10	0x3c951348	0.01819767
11	0xbcd382c4	-0.02581919
12	0xbc2ba89f	-0.010477214
13	0x3beef9b7	0.007292952
14	0x3bee20f1	0.0072671105
15	0x3c06e0b2	0.0082322825
16	0x3bcfb798	0.0063390248
17	0xbcc29eb5	-0.023757318
18	0xbb92fbac	-0.004485568
19	0x3c8dc469	0.01730557
20	0xbc4101ed	-0.011780244
21	0x3cb800e3	0.02246136
22	0x3d3d0d5e	0.046155326
23	0x3d064923	0.032784592
24	0xbd3df52a	-0.046376385
25	0xbcfc81db	-0.030823639
26	0x3d0060dc	0.031342372
27	0xbb3cc77a	-0.002880542
28	0xbcd13bb1	-0.025541158
29	0x3ca6b2f7	0.020349009
30	0x3d04f50e	0.032460265
31	0xbadac5f2	-0.0016691072
32	0xbcdff5ed	-0.027338946
33	0x3d06c102	0.03289891
34	0x3d1199e8	0.035547167
35	0xbc05f474	-0.008175958
36	0xbc88b059	-0.016685652
37	0x3d0fb514	0.0350848
38	0xbca6cf54	-0.020362534
39	0x3c3eeab1	0.0116526345
40	0xbc64ab27	-0.0139568215
41	0x3c37f244	0.011227194
42	0x3c7a3c60	0.015273184
43	0xbccb8535	-0.024843791
44	0x3caa3bae	0.02078041
45	0xbc0eb1eb	-0.008709411
46	0xbb80d430	-0.0039315447
47	0x3c1da617	0.009622118
48	0x3bd0ac52	0.0063681984
49	0xbc05aa0f	-0.008158221
50	0xbcbaf72e	-0.022822943
51	0xbc977b47	-0.0184914
52	0xbb02279c	-0.0019860035
53	0x3c96a76e	0.018390384
54	0x3ca5aec8	0.020224944
55	0xbcbf0f39	-0.023322688
56	0xbcdd2415	-0.026994744
57	0xbb7f7e81	-0.0038985314
58	0x3ab5780a	0.0013844979
59	0x3c01af66	0.007915353
60	0xbbc6f874	-0.0060720984
61	0xbd1a02ff	-0.037600514
62	0xbc7fa8b2	-0.015604185
63	0x3c9a4030	0.018829435
64	0xbbd5fdc3	-0.006530495
65	0x3c73c4cb	0.014878462
66	0x3c914e97	0.01773767
67	0xbc99c74f	-0.018771796
68	0x3c2a3cd5	0.01039048
69	0x3bdf6041	0.0068168943
70	0x3c564aa3	0.013079318
71	0xbcabbc4d	-0.020963812
72	0x3c8bb446	0.017053735
73	0x3cda1ea0	0.026625931
74	0x3d485d4b	0.048917096
75	0x3ccef61a	0.025263835
76	0x3b867837	0.004103686
77	0x3cfe7e5f	0.031066118
78	0x3c7afd9e	0.015319256
79	0x3c459cb7	0.0120612895
80	0xbcee9f19	-0.029128598
81	0x3d379769	0.04482213
82	0x3d1627bb	0.036658984
83	0x3bc3de63	0.0059774383
84	0x3ca2f92f	0.01989421
85	0x3cfffb90	0.031247884
86	0x3cbf8df8	0.023383126
87	0xbd9b8466	-0.075936124
88	0xbb9f4c3f	-0.004861384
89	0x3c3d69cb	0.011560868
90	0x3ccdaef4	0.025107838
91	0x3c353b5e	0.0110615175
92	0xbca8cdf5	-0.02060602
93	0x3c0b6e80	0.008510232
94	0xbb8ced5a	-0.0043007554
95	0xbb4572d5	-0.003012826
96	0xbb2a1f66	-0.0025958656
97	0x3b1a7ac3	0.0023571707
98	0x3c9d23fd	0.0191822
99	0xbcc6fe0e	-0.024291065
100	0x3b490aba	0.003067656
101	0xbad1d3f7	-0.0016008605
102	0xbc9681c6	-0.018372428
103	0x3ccce085	0.025009403
104	0x3c6c44e8	0.014420725
105	0x3b5ebf4a	0.003398853
106	0xbcbfccaa	-0.023413021
107	0x39c36778	0.0003727039
108	0xbb1d5817	-0.0024008804
109	0xbc442e92	-0.011973994
110	0xbcb44604	-0.022006042
111	0xbc6db0a3	-0.0145074455
112	0x3d06e792	0.032935686
113	0x3bd02beb	0.0063528917
114	0x39ac7b46	0.00032898242
115	0xbd1bfd6c	-0.03808348
116	0x3c580a1c	0.013186004
117	0x3ccad4c3	0.024759656
118	0xbce82a97	-0.02834062
119	0x3b835022	0.0040073553
120	0x3b219c92	0.0024659974
121	0xbd0ca78b	-0.03433947
122	0x3b84064d	0.0040290714
123	0x3ce24ae1	0.027623596
124	0xbcaadaf9	-0.020856367
125	0x3b4ea700	0.0031532645
126	0x3c9d65b9	0.019213544
127	0x3bc843bd	0.0061115907
128	0xbc30a7c6	-0.010782188
129	0x3c30e5ef	0.010797008
130	0xbc6adc94	-0.0143348165
131	0x3a91a91a	0.0011113018
132	0x3d0024a7	0.031284954
133	0x3c4c7a58	0.012480341
134	0xba95d2b3	-0.0011430591
135	0x3c835fb0	0.016036838
136	0x3cbe5eaf	0.023238508
137	0x3cb992da	0.022653032
138	0x3c8e49c0	0.017369151
139	0x3ce530d5	0.027977386
140	0xbbbc3571	-0.0057436754
141	0xbc38ad6a	-0.011271814
142	0x3c63ddc5	0.013907854
143	0xbc21ac20	-0.009867698
144	0x3c4e32ac	0.012585323
145	0x3c2fd5f0	0.010732159
146	0x3c284c1a	0.01027205
147	0x3acb23eb	0.0015498375
148	0x3b5d1256	0.0033732853
149	0xbc95ad18	-0.018271014
150	0xbc20297e	-0.0097755175
151	0xbb283835	-0.0025668268
152	0x3c12bfb4	0.008956838
153	0x3c8f173b	0.017467132
154	0xbb3e159d	-0.0029004582
155	0xbcdb24be	-0.026750918
156	0xbc7b9960	-0.015356392
157	0xbc149bf6	-0.009070387
158	0xbc2d7b18	-0.01058843
159	0xbc5f9893	-0.013647216
160	0xbb223226	-0.002474913
161	0xbcccc89a	-0.024997998
162	0xbcb2b382	-0.021814112
163	0xbcdf5168	-0.027260497
164	0xbb2e2c7c	-0.0026576808
165	0x3b55adab	0.0032604735
166	0xbc9df643	-0.019282466
167	0xbb6b2b13	-0.0035883829
168	0xbbd19519	-0.0063959477
169	0xbd434c3d	-0.04768013
170	0xbd5967d3	-0.05307753
171	0x3c2cc3fe	0.010544775
172	0x3d19eca3	0.03757919
173	0x3d078d7b	0.03309391
174	0xbbee92e4	-0.0072806943
175	0x3c8bbfb4	0.017059185
176	0x3d02c663	0.031927478
177	0xbb349025	-0.0027551737
178	0xbc1becb5	-0.009516885
179	0x3cd97d34	0.02654896
180	0x3d4a8b97	0.04944953
181	0x3c94e790	0.018176824
182	0x3bd9a0c6	0.00664148
183	0x3ce86a15	0.028370896
184	0x3ba0a64e	0.0049026376
185	0xbcb1333d	-0.021630878
186	0xbcf27bff	-0.029600142
187	0x3c9f0a13	0.019413983
188	0x3b7102e3	0.0036775402
189	0xbc69a758	-0.014261089
190	0x3c9114df	0.017710147
191	0x3cb334d1	0.02187577
192	0xbc690fd8	-0.014224969
193	0xbca7a8e1	-0.02046627
194	0xbc75d38c	-0.01500405
195	0xbcae897c	-0.021305792
196	0xbc4a4323	-0.012345108
197	0xbca54793	-0.02017573
198	0xbc0b9a95	-0.008520742
199	0xbc7ba69b	-0.015359546
200	0xbc1fb264	-0.0097471215
201	0xbb7bcf86	-0.0038423254
202	0x3b46ff46	0.0030364557
203	0xbc55d371	-0.0130509
204	0xbccf314b	-0.02529206
205	0xbbe45b73	-0.0069689094
206	0x3c2e1b1f	0.010626583
207	0xbc84d037	-0.016212566
208	0xbca85b21	-0.020551266
209	0x3cb638aa	0.022243816
210	0xbc606d54	-0.013697941
211	0x3bb2939e	0.0054497262
212	0x3c96f30d	0.018426443
213	0xbcc62804	-0.024189003
214	0x3d6ef67c	0.058340535
215	0x3d25d695	0.040487844
216	0xbd02549e	-0.03181898
217	0xbc828547	-0.015932692
218	0x3c9da1a0	0.019242108
219	0x3c549ae2	0.01297638
220	0xbd0c446c	-0.03424494
221	0x3d3aa709	0.045569453
222	0x3d96631c	0.07343122
223	0xbcc3ad14	-0.023886241
224	0x3b7be19e	0.003843404
225	0x3d1e267a	0.038610913
226	0x3ca7a134	0.02046261
227	0xbd559584	-0.052144542
228	0xbcd29491	-0.025705608
229	0x3d0b8718	0.034064382
230	0x3be32d72	0.0069329077
231	0xbca0ec2d	-0.019643867
232	0x3ca0cb58	0.019628212
233	0x3ce36bc2	0.027761344
234	0xbc3f8f24	-0.011691842
235	0xbd7622fb	-0.060091954
236	0xbce60b4c	-0.028081559
237	0xbb4c472c	-0.0031170351
238	0x3bc098ba	0.0058775814
239	0xbbd24e26	-0.0064180074
240	0x3cdd6f59	0.027030634
241	0xbc7f59c5	-0.015585368
242	0xbbfd2d5c	-0.0077263545
243	0x3bc7d844	0.006098779
244	0x3cb78b70	0.022405356
245	0x3c67d05c	0.014148798
246	0x3c0ad66b	0.008473973
247	0x3a8d00d7	0.0010757697
248	0x3cb6a250	0.022294194
249	0x3cc0d9de	0.023541387
250	0x3b0c00ba	0.0021362738
251	0xbc7c5e06	-0.015403276
252	0xbc6f8b99	-0.014620685
253	0xbb96621e	-0.004589333
254	0xbcf621ea	-0.030045468
255	0xbd06a00a	-0.03286747

fc.bias f4 [10]
0	0xbc1d3210	-0.009594455
1	0x3cb3aaed	0.02193209
2	0x3c420b7d	0.011843559
3	0xbc63a555	-0.013894399
4	0x3c957caf	0.01824793
5	0x3c21bb9f	0.0098713925
6	0x3ab6567b	0.0013911271
7	0x3a0d9dbd	0.0005402228
8	0xbb6408a4	-0.003479519
9	0x3bbc91e0	0.0057546943
