Lectures/04-PyTorch/02-ANN-Artificial-Neural-Networks/CensusIncomeModel.pt (torch_old, 9498 bytes, 17 tensors)

embeds.0.weight f4 [2, 1]
1.1103268 -0.3992271
00000000: 301f 8e3f 7f67 ccbe

embeds.1.weight f4 [14, 7]
0.9558767 -0.0336696 1.1931691 0.26762858 0.74216205 0.7756262 -1.1283405 0.30486837
0.20661482 -1.7448248 0.33214092 0.750695 1.8239019 -0.82522357 -0.1147907 2.2760699
0.20963763 1.2738439 -0.47520286 0.67745525 -1.0527176 1.2556493 -2.5689394 -1.3148715
-0.13670935 -0.7295757 -1.2885695 -1.3026814 0.6642431 1.2104603 0.15022881 0.0569632
-1.331859 0.01179268 -1.4578015 1.7025725 -1.191663 -0.7293921 0.41871065 -0.08390355
0.92436904 -0.076834686 0.054276966 -0.22032401 -0.09880564 -0.27664116 -0.82158434 -0.29611188
-0.21393727 -1.3808179 -0.162754 1.0632964 0.88893324 1.1685514 0.13694204 0.11139529
0.0009720915 -0.37861612 0.543165 -2.5780716 0.25722876 -0.39485747 -0.13201903 0.6701674
-1.3641169 1.1343951 0.009370713 0.7621375 0.009321869 -0.4351059 0.14935346 0.82479393
-0.67951745 -0.51817507 0.70646626 0.075786084 -0.6189066 -0.91312927 0.9523422 -1.269499
1.79945 -0.36302897 -0.72173744 0.34503588 -0.74252915 0.119785756 0.3708378 -2.6548378
-0.7607286 0.3279132 1.4678689 -0.07985075 -0.57405084 -0.642469 0.19345546 0.10890803
-0.0073751584 -0.7509788
00000000: 56b4 743f 22e9 09bd c4b9 983f 9d06 893e
00000010: 55fe 3d3f 708f 463f 766d 90bf b517 9c3e
00000020: d692 533e 6b56 dfbf 600e aa3e 8c2d 403f
00000030: 9e75 e93f da41 53bf 6317 ebbd 21ab 1140
00000040: 3fab 563e 510d a33f ca4d f3be b56d 2d3f
00000050: 73bf 86bf 1eb9 a03f 8169 24c0 b64d a8bf
00000060: 89fd 0bbe 79c5 3abf d8ef a4bf 44be a6bf
00000070: d60b 2a3f 5df0 9a3f 95d5 193e 3f52 693d
00000080: 5b7a aabf 1636 413c 3d99 babf e5ed d93f
00000090: 6a88 98bf 71b9 3abf 3e61 d63e a0d5 abbd
000000a0: 73a3 6c3f 815b 9dbd 8651 5e3d 9e9c 61be
000000b0: 9d5a cabd e9a3 8dbe 5a53 52bf fa9b 97be
000000c0: 5f12 5bbe a4be b0bf fca8 26be 191a 883f
000000d0: 2191 633f 1893 953f 893a 0c3e 3723 e43d
000000e0: f5d3 7e3a f9d9 c1be dd0c 0b3f 20ff 24c0
000000f0: 7db3 833e c22a cabe ff2f 07be 1790 2b3f
00000100: 629b aebf dc33 913f 9e87 193c 711b 433f
00000110: c1ba 183c 33c6 debe 1df0 183e b225 533f
00000120: dbf4 2dbf 1fa7 04bf f9da 343f bc35 9b3d
00000130: aa70 1ebf d7c2 69bf b3cc 733f f17e a2bf
00000140: 6154 e63f efde b9be c9c3 38bf 8ba8 b03e
00000150: 6416 3ebf 3c52 f53d 74de bd3e dde8 29c0
00000160: 1cbf 42bf 3de4 a73e 21e3 bb3f ca88 a3bd
00000170: fff4 12bf d978 24bf 3019 463e 2c0b df3d
00000180: 50ab f1bb 2640 40bf

embeds.2.weight f4 [6, 3]
-1.2519248 0.033994872 -0.41008523 0.3665522 0.4496305 0.6171095 1.1793299 -1.540976
-0.9099843 2.5291579 -0.7856326 0.4438084 -0.9960798 -1.2978022 -1.6042541 -0.40963715
-0.81352454 -0.76501465
00000000: 123f a0bf 353e 0b3d b1f6 d1be bbac bb3e
00000010: f835 e63e e3fa 1d3f 48f4 963f b43e c5bf
00000020: bbf4 68bf b9dd 2140 381f 49bf db3a e33e
00000030: 16ff 7ebf 621e a6bf 3358 cdbf f6bb d1be
00000040: 2543 50bf 00d8 43bf

embeds.3.weight f4 [5, 3]
0.22223504 0.72730345 1.7311943 -0.8983638 -0.03402486 0.5441272 -0.67432016 -0.5789951
-0.6571337 -1.1353635 0.40027416 -0.14697793 -0.31347138 -0.7446166 -0.4119784
00000000: 9591 633e 8f30 3a3f c697 dd3f 2cfb 65bf
00000010: a75d 0bbd ec4b 0b3f 3fa0 2cbf 0639 14bf
00000020: ea39 28bf 9753 91bf bcf0 cc3e 6281 16be
00000030: 527f a0be 329f 3ebf d5ee d2be

embeds.4.weight f4 [12, 6]
-0.15546142 -0.055805728 -0.39914706 -0.2564161 -0.6568566 1.2574877 0.278191 1.4001725
-0.80792415 -0.5083504 2.5622048 -1.327001 -0.26450005 -0.85011536 -1.9105898 -0.661483
0.5154868 -0.88823265 0.7340017 -1.100688 -0.89604115 0.22931154 0.34668297 -1.2703234
-0.8602439 1.0671777 -1.2289642 0.17498006 -0.65684813 1.8669249 1.9662315 -1.4835322
-1.4976281 1.768627 1.148379 -1.4306129 1.1275649 0.8220904 -0.790968 -1.7893786
-0.5708288 0.5831829 -0.5678178 -0.057424095 -0.33223003 1.2066087 0.46180376 -2.278626
0.51887727 -0.59459585 -0.572957 -0.92767286 -0.66704065 1.8932436 -0.75032336 0.61187357
-0.550764 -2.126257 0.83518434 0.9887848 0.77073425 -0.80364186 -0.19823478 -0.060133
-0.01941849 -0.21269833 0.1554138 -0.33285746 -0.24499376 -1.43099 -0.81534773 1.6845194
00000000: 4731 1fbe 8c94 64bd 015d ccbe f948 83be
00000010: c127 28bf 5bf5 a03f 0d6f 8e3e da38 b33f
00000020: 1ed4 4ebf 4023 02bf 2afb 2340 2bdb a9bf
00000030: 8d6c 87be 29a1 59bf 358e f4bf f356 29bf
00000040: f1f6 033f 3763 63bf 89e7 3b3f 58e3 8cbf
00000050: f462 65bf a5d0 6a3e 6e80 b13e f599 a2bf
00000060: f238 5cbf 4799 883f b34e 9dbf f92d 333e
00000070: 3327 28bf 65f7 ee3f 79ad fb3f 62e4 bdbf
00000080: 47b2 bfbf 5f62 e23f 15fe 923f 531e b7bf
00000090: 0c54 903f 8474 523f e17c 4abf 5c0a e5bf
000000a0: d621 12bf 794b 153f 825c 11bf 8735 6bbd
000000b0: 0e1a aabe 2772 9a3f 8b71 ec3e 02d5 11c0
000000c0: 24d5 043f 6f37 18bf 4fad 12bf f87b 6dbf
000000d0: 2dc3 2abf ce55 f23f 3115 40bf bfa3 1c3f
000000e0: dffe 0cbf 9814 08c0 a4ce 553f 0021 7d3f
000000f0: d74e 453f 79bb 4dbf 0ffe 4abe 054e 76bd
00000100: 8613 9fbc 97cd 59be cc24 1f3e 4b6c aabe
00000110: a5df 7abe ae2a b7bf a1ba 50bf 559e d73f

bn_cont.weight f4 [2]
0.7015281 0.9333723
00000000: 5897 333f 7df1 6e3f

bn_cont.bias f4 [2]
0.2362332 0.19487883
00000000: 1ee7 713e 518e 473e

bn_cont.running_mean f4 [2]
37.123085 41.372852
00000000: 0a7e 1442 cd7d 2542

bn_cont.running_var f4 [2]
165.0647 93.52694
00000000: 9010 2543 cb0d bb42

layers.0.weight f4 [50, 22]
0.011078823 -0.11989686 -0.121152945 0.008797898 0.19395436 -0.13511853 -0.16718584 0.1931421
-0.08956904 0.018795334 0.15920457 -0.034158535 -0.18660259 0.11116315 -0.14556506 -0.04452633
-0.25125918 0.12800601 0.065161996 0.041722465 0.20916404 0.20423232 -0.01057225 -0.105125576
-0.020971702 0.00533156 -0.0238456 -0.0366311 -0.04284611 0.05608856 0.03139849 0.14247957
0.022603368 0.060000468 -0.031162037 0.018949412 -0.06941538 -0.030774822 -0.0011839727 -0.0050583337
-0.0056738583 -0.017775657 0.26039994 0.04255354 0.14962962 -0.044357426 0.053273905 -0.000375303
0.066328816 0.21179178 0.15137504 -0.022650203 0.19419907 -0.17535819 -0.35974956 0.048954982
-0.0050676395 -0.023099106 0.03575029 0.05350336 0.013327467 -0.06203728 0.012157442 0.029628465
-0.08386888 -0.21267313 -0.019814165 0.14306872 -0.02943217 -0.06574111 0.02355718 -0.13269792
-0.13635541 0.026644578 0.25696066 -0.19151118 0.004011123 0.11179902 -0.12757595 0.033394277
0.042305786 0.04915856 0.0058390107 -0.024454553 -0.06369877 -0.009908228 0.04087789 -0.17123319
0.05847385 0.040081285 0.013401498 -0.028160743 0.008891294 0.05615489 0.05086541 -0.05711399
-0.24061914 -0.2549603 -0.035910968 -0.00916362 -0.011578396 -0.0023612194 0.007108643 0.0036792394
-0.003940223 0.017093867 0.013956349 0.025655009 -0.36641335 -0.055012133 -0.06535649 -0.011872185
-0.12938653 0.14632578 -0.16029887 0.1711305 -0.0018620888 -0.09337076 -0.02414758 -0.12740143
0.19342563 0.1629451 -0.21824086 0.051854253 0.07562381 -0.012743679 -0.011174596 0.030166944
0.009481502 -0.002506428 0.16860181 -0.12607764 0.029185923 0.22615214 -0.0007704026 -0.078782424
-0.0081398245 -0.15449414 -0.0058073835 -0.033131886 -0.23585628 -0.11947902 -0.11080703 0.020162955
-0.06399466 0.035188694 0.013435569 0.13530894 0.021474773 -0.0016630174 -0.24330193 0.028682979
0.29110494 -0.32016256 -0.030372519 0.25903955 -0.010017192 -0.0748956 -0.00373708 -0.030470232
-0.0931836 -0.011874187 0.14968288 0.19008832 0.042454347 0.019566122 -0.01917495 0.003481295
0.033400726 0.033947986 -0.008812103 0.010978443 0.0019942948 0.01413668 -0.23286393 -0.024626374
0.08288136 -0.05903215 -0.04565459 0.10683213 -0.016537989 -0.037497368 -0.15963586 0.20776674
0.015754143 0.24945825 -0.007996846 -0.058255404 -0.17570904 -0.19282 -0.059689987 0.061744582
-0.10262673 0.029206023 -0.051832836 -0.10316286 0.067101054 0.193184 -0.06344 0.0324417
0.024917934 -0.010242382 0.007399833 0.030205963 0.1717112 -0.017873757 -0.19768739 -0.070441216
0.055609044 -0.010310093 -0.014586903 -0.008872656 -0.0026438027 -0.0037218553 -0.014872423 0.005248318
0.0046704584 0.007155673 -0.33360323 -0.19147615 0.20996836 -0.14778633 -0.08891675 0.025474947
0.0073415777 0.10624577 -0.019292485 -0.027076738 -0.1488274 -0.075414 -0.30947113 0.046871994
-0.09131491 0.089668535 0.18276206 -0.25815132 0.05238293 0.029378235 0.0147788655 -0.08765024
0.12912764 -0.2600356 -0.066267245 0.0017384291 0.046467934 -0.0018327514 -0.009705793 0.07498216
0.11351111 -0.08199331 0.19122073 -0.18035527 0.014031443 0.10424808 0.08153742 -0.09664135
00000000: f483 353c 7c8c f5bd 091f f8bd 0f25 103c
00000010: f99b 463e 835c 0abe c432 2bbe 0bc7 453e
00000020: f96f b7bd acf8 993c 8606 233e d2e9 0bbd
00000030: c014 3fbe 81a9 e33d 020f 15be 3e61 36bd
00000040: 0ba5 80be 0214 033e a773 853d 2de5 2a3d
00000050: 192f 563e 4722 513e 3b37 2dbc 144c d7bd
00000060: d9cc abbc 5eb4 ae3b d957 c3bc 7e0a 16bd
00000070: 677f 2fbd 1ebd 653d b49b 003d 2ae6 113e
00000080: b32a b93c 0dc3 753d 8747 ffbc cc3b 9b3c
00000090: a729 8ebd 7b1b fcbc 882f 9bba 61c0 a5bb
000000a0: c6eb b9bb 419e 91bc 2453 853e 9f4c 2e3d
000000b0: 8238 193e 22b0 35bd bd35 5a3d 51c4 c4b9
000000c0: 67d7 873d f2df 583e 0f02 1b3e eb8c b9bc
000000d0: 1fdc 463e 1991 33be 1831 b8be 0585 483d
000000e0: 710e a6bb 563a bdbc e56e 123d 5726 5b3d
000000f0: 735b 5a3c ce1a 7ebd 0230 473c 65b7 f23c
00000100: 73c3 abbd fcc6 59be 5151 a2bc 9b80 123e
00000110: bc1b f1bc 46a3 86bd fdfa c03c f7e1 07be
00000120: c1a0 0bbe bb45 da3c 5990 833e 821b 44be
00000130: bd6f 833b e2f6 e43d 45a3 02be 70c8 083d
00000140: d548 2d3d 7c5a 493d 2c55 bf3b ea54 c8bc
00000150: 8074 82bd 1f56 22bc 936f 273d c157 2fbe
00000160: 4782 6f3d 462c 243d f591 5b3c 5cb1 e6bc
00000170: caac 113c ac02 663d 4058 503d 5cf0 69bd
00000180: dd64 76be 288a 82be 6117 13bd 0223 16bc
00000190: 50b3 3dbc b0be 1abb 9fef e83b 651f 713b
000001a0: fc1c 81bb 7008 8c3c 2ca9 643c 742a d23c
000001b0: 889a bbbe 6754 61bd a0d9 85bd 8e83 42bc
000001c0: e77d 04be 6dd6 153e 6325 24be d53c 2f3e
000001d0: 5511 f4ba 2b39 bfbd 25d1 c5bc 8575 02be
000001e0: 5e11 463e 15db 263e 887a 5fbe 2065 543d
000001f0: a8e0 9a3d ddca 50bc a715 37bc ab20 f73c
00000200: 4d58 1b3c e242 24bb f4a5 2c3e 7f1a 01be
00000210: 5117 ef3c 6d94 673e d8f4 49ba ae58 a1bd
00000220: e65c 05bc b633 1ebe dd4b bebb 4db5 07bd
00000230: 4f84 71be 6bb1 f4bd ccee e2bd c82c a53c
00000240: a20f 83bd 0522 103d dc20 5c3c 6d8e 0a3e
00000250: ddeb af3c 9bf9 d9ba 2424 79be 91f8 ea3c
00000260: b50b 953e 59ec a3be cacf f8bc d5a0 843e
00000270: 261f 24bc dd62 99bd cce9 74bb b59c f9bc
00000280: 0bd7 bebd f38b 42bc 7846 193e 83a6 423e
00000290: 9ce4 2d3d 2249 a03c c914 9dbc 7026 643b
000002a0: 33cf 083d 0b0d 0b3d a460 10bc edde 333c
000002b0: b7b2 023b 899d 673c e273 6ebe 40bd c9bc
000002c0: b4bd a93d b2cb 71bd 4f00 3bbd ceca da3d
000002d0: ad7a 87bc d796 19bd 9577 23be cec0 543e
000002e0: d50e 813c fc71 7f3e 3405 03bc 389d 6ebd
000002f0: 12ed 33be 9b72 45be 7d7d 74bd e3e7 7c3d
00000300: f72d d2bd 7841 ef3c ab4e 54bd 0d47 d3bd
00000310: 476c 893d 07d2 453e d5ec 81bd 97e1 043d
00000320: b220 cc3c aacf 27bc 4c7a f23b 7f72 f73c
00000330: 10d5 2f3e fc6b 92bc 906e 4abe 7c43 90bd
00000340: 4fc6 633d aaeb 28bc e8fd 6ebc 9e5e 11bc
00000350: a643 2dbb 5fea 73bb 77ab 73bc 15fa ab3b
00000360: a50a 993b 237a ea3b 0bce aabe 5312 44be
00000370: f201 573e 4d55 17be fc19 b6bd d6b0 d03c
00000380: 9e91 f03b 6297 d93d 460b 9ebc 09d0 ddbc
00000390: 3666 18be a872 9abd 0073 9ebe d9fc 3f3d
000003a0: 5003 bbbd 23a4 b73d fa25 3b3e 692c 84be
000003b0: 7c8f 563d a0aa f03c 0e23 723c f881 b3bd
000003c0: 093a 043e 6323 85be 1fb7 87bd 00dc e33a
000003d0: 2955 3e3d ef38 f0ba 0c05 1fbc 3f90 993d
000003e0: 8378 e83d 1cec a7bd 5ecf 433e 0daf 38be
000003f0: 23e4 653c 0480 d53d 17fd a63d e6eb c5bd

layers.0.bias f4 [50]
0.111908525 0.36847332 0.06322485 -0.07923719 0.20850347 0.06360955 -0.28950438 -0.2608242
0.0774556 0.08904527 0.049122605 -0.07350756 -0.14137991 -0.09416877 -0.15406433 -0.2692033
0.29190162 -0.09262115 -0.1340708 0.10925826 0.06269192 0.1799541 0.05424971 -0.019813018
0.13289471 -0.013184253 -0.4125389 0.13366963 0.168509 0.084083684 0.21026874 -0.3255415
-0.081402145 -0.07567809 -0.1839596 -0.06976099 -0.13486433 0.14741755 0.029415015 0.2469659
0.17865697 0.13092403 0.19889684 -0.13489091 -0.113741376 0.051462587 0.043952726 -0.048108436
0.0273834 0.18616231
00000000: 4c30 e53d 89a8 bc3e 087c 813d 1c47 a2bd
00000010: ef81 553e b945 823d eb39 94be c08a 85be
00000020: 0ba1 9e3d 5e5d b63d c934 493d 228b 96bd
00000030: e5c5 10be 8edb c0bd 0ac3 1dbe 04d5 89be
00000040: 2174 953e 28b0 bdbd db49 09be cbc2 df3d
00000050: 9f64 803d e345 383e f234 5e3d e94e a2bc
00000060: 8d15 083e c402 58bc 4c38 d3be b1e0 083e
00000070: a08d 2c3e 1134 ac3d b050 573e 60ad a6be
00000080: 2bb6 a6bd 1dfd 9abd e85f 3cbe dade 8ebd
00000090: e019 0abe a0f4 163e c2f7 f03c a1e4 7c3e
000000a0: daf1 363e f310 063e 9dab 4b3e d820 0abe
000000b0: 3df1 e8bd 6fca 523d c607 343d 5a0d 45bd
000000c0: 2753 e03c 55a1 3e3e

layers.2.weight f4 [50]
0.89434904 0.58641666 0.5162266 0.8773877 0.7523048 0.25676775 0.7145051 0.37550083
0.46179533 0.36679417 0.5176822 0.858533 0.40585074 0.4571242 0.4672537 0.34670803
0.39914772 0.2510647 0.5949111 0.06887073 0.94817823 0.8403944 0.68334955 0.9650537
0.11393693 0.65135646 0.78693885 0.6559706 0.15557174 0.65805024 0.8256803 0.19245498
0.81596166 0.5321099 0.8066829 0.37878048 0.38964662 0.6041392 0.56001484 0.8518797
0.9115365 0.5145872 0.3029613 0.42490312 0.36135542 0.34193993 0.8477302 0.688672
0.2216883 0.6219688
00000000: 0ff4 643f 671f 163f 6d27 043f 7b9c 603f
00000010: 0c97 403f 1077 833e cee9 363f a541 c03e
00000020: 7070 ec3e 72cc bb3e d286 043f d2c8 5b3f
00000030: abcb cf3e 2f0c ea3e e13b ef3e b783 b13e
00000040: 175d cc3e 8d8b 803e 184c 183f 190c 8d3d
00000050: cfbb 723f 1624 573f ffef 2e3f c20d 773f
00000060: c457 e93d 4cbf 263f d374 493f b0ed 273f
00000070: 334e 1f3e fb75 283f c95f 533f eb12 453e
00000080: dde2 503f 5b38 083f c582 4e3f 84ef c13e
00000090: c37f c73e dea8 1a3f 225d 0f3f ca14 5a3f
000000a0: 755a 693f fdbb 033f be1d 9b3e e78c d93e
000000b0: 9403 b93e c012 af3e d904 593f cf4c 303f
000000c0: 4202 633e 5939 1f3f

layers.2.bias f4 [50]
-0.10451961 -0.1906457 0.17723082 0.12762867 0.15838857 -0.09818397 0.22276829 0.16636214
-0.15210016 0.15024254 0.12071238 0.16856204 -0.13450307 -0.091664344 0.17765476 0.1948699
-0.15208149 -0.18004058 0.13537876 -0.13374934 0.05934485 0.18218647 0.05297451 0.27924612
-0.14203246 0.15807924 0.25407445 0.14877765 -0.15215579 -0.101062834 -0.07955207 0.13778928
-0.043405216 0.1714639 -0.114384696 -0.12483594 0.19606738 0.17453544 0.17448522 -0.16003513
0.08311104 0.19866948 -0.15098312 0.12976071 0.17623045 0.110464424 -0.17978741 0.18100794
0.18681832 0.19911993
00000000: 610e d6bd a038 43be ff7b 353e 17b1 023e
00000010: 9d30 223e ad14 c9bd 5f1d 643e d65a 2a3e
00000020: 25c0 1bbe 2ed9 193e 0d38 f73d 879b 2c3e
00000030: 2cbb 09be 84ba bbbd 21eb 353e fa8b 473e
00000040: 40bb 1bbe 8f5c 38be bba0 0a3e 96f5 08be
00000050: 9613 733d 178f 3a3e cdfb 583d 59f9 8e3e
00000060: f570 11be 86df 213e 0c16 823e 2b59 183e
00000070: bace 1bbe 08fa cebd 32ec a2bd a218 0d3e
00000080: abc9 31bd 3c94 2f3e 8642 eabd fca9 ffbd
00000090: e3c5 483e 6bb9 323e 41ac 323e 40e0 23be
000000a0: 1f36 aa3d 0370 4b3e 529b 1abe fedf 043e
000000b0: c175 343e 2c3b e23d 311a 38be 255a 393e
000000c0: 4d4d 3f3e 18e6 4b3e

layers.2.running_mean f4 [50]
0.34392253 0.39031905 0.39739755 0.2908165 0.2171778 0.29162648 0.10161968 0.095924936
0.35111406 0.11954866 0.2033981 0.2660758 0.061737657 0.39010045 0.22484207 0.12693396
0.4344718 0.09529208 0.19945495 0.25805297 0.38090634 0.28735292 0.17010134 0.038841933
0.25030944 0.17666772 0.14187327 0.23212314 0.30526847 0.34451762 0.2255323 0.13652468
0.34318152 0.4063613 0.19430384 0.09661392 0.085988395 0.23854923 0.2013093 0.18774243
0.41042307 0.27957895 0.17448483 0.3699327 0.05633261 0.4532405 0.38381168 0.1619425
0.3863 0.19028379
00000000: 9d16 b03e e6d7 c73e b177 cb3e e6e5 943e
00000010: db63 5e3e 1150 953e fb1d d03d 4b74 c43d
00000020: 39c5 b33e eed5 f43d 9747 503e 163b 883e
00000030: a0e0 7c3d 3fbb c73e 003d 663e fafa 013e
00000040: 1673 de3e 7e28 c33d eb3d 4c3e 851f 843e
00000050: 2806 c33e ec1f 933e 0c2f 2e3e b818 1f3d
00000060: 8f28 803e 62e8 343e 3a47 113e b0b1 6d3e
00000070: 264c 9c3e 9d64 b03e f0f1 663e 20cd 0b3e
00000080: 7db5 af3e 970e d03e 96f7 463e 85dd c53d
00000090: af1a b03d 4046 743e 0624 4e3e 8d3f 403e
000000a0: f922 d23e f924 8f3e 27ac 323e d267 bd3e
000000b0: 06bd 663d 240f e83e f782 c43e 41d4 253e
000000c0: 1dc9 c53e c1d9 423e

layers.2.running_var f4 [50]
0.22418144 0.083041556 0.26711214 0.21986929 0.10861607 0.115765646 0.06867205 0.03685051
0.15566996 0.045389157 0.15323314 0.17828907 0.040274933 0.16205987 0.13966927 0.07483345
0.15349483 0.060091857 0.10117957 0.11092243 0.22626396 0.11378767 0.08967825 0.0039440426
0.16399558 0.0825893 0.07679663 0.14270657 0.17454223 0.17180343 0.100247994 0.056516726
0.20630409 0.30526635 0.1065759 0.038993493 0.057310212 0.13211748 0.12393723 0.08928325
0.21815605 0.12029933 0.100201346 0.3094451 0.007988277 0.19325206 0.16354501 0.087634206
0.23106028 0.08214276
00000000: d28f 653e b111 aa3d ecc2 883e 6a25 613e
00000010: 1a72 de3d 8a16 ed3d efa3 8c3d 8ff0 163d
00000020: f267 1f3e fbe9 393d 26e9 1c3e 6991 363e
00000030: 54f7 243d 06f3 253e 7605 0f3e 4842 993d
00000040: c02d 1d3e e122 763d 3c37 cf3d 4d2b e33d
00000050: bdb1 673e 8309 e93d 3ba9 b73d 073d 813b
00000060: 75ee 273e 9424 a93d 8d47 9d3d ac21 123e
00000070: 33bb 323e 3ded 2f3e d24e cd3d 157e 673d
00000080: 6141 533e df4b 9c3e 7744 da3d a4b7 1f3d
00000090: 1dbe 6a3d ce49 073e cdd2 fd3d 23da b63d
000000a0: 4d64 5f3e 7f5f f63d 5d36 cd3d 976f 9e3e
000000b0: 43e1 023c dee3 453e 5878 273e 9079 b33d
000000c0: 119b 6c3e 773a a83d

layers.4.weight f4 [2, 50]
-0.016147565 -0.04240312 0.18581119 0.06067549 0.1573299 -0.03772464 0.16568756 0.19980589
0.03536029 0.32446477 0.085901394 0.011287345 -0.1834828 -0.0016428287 0.19511144 0.23566888
-0.09624899 -0.065223195 -0.024847321 -0.26946622 -0.040914126 0.17318606 0.048545763 0.12566967
-0.2283144 0.23530623 0.22195663 0.22913536 -0.13219525 -0.08222741 0.023465138 0.30725217
0.02126637 0.035557944 0.037176687 -0.07764822 0.20141222 0.0410072 0.23980483 -0.11173244
0.043140564 0.08920632 -0.1050184 0.20223986 0.29627684 0.10999309 0.014542759 0.09653957
0.10148082 0.17696758 0.004206421 0.13961916 -0.16610077 -0.080285326 -0.22680284 0.06531332
-0.16930276 -0.17438205 0.19005202 -0.25214365 -0.11895816 -0.20811321 -0.0027019405 0.03331331
-0.2617545 -0.085014366 0.18837921 0.23726095 -0.16661365 0.18839924 -0.06709428 -0.07333722
-0.027166853 -0.29759023 0.16470806 -0.15759128 -0.08139828 -0.11115427 0.22427589 -0.0062393984
0.039808836 -0.2330077 0.018086592 -0.12390659 0.07636259 0.120493926 -0.21067405 -0.24155219
-0.20236468 -0.049965598 -0.008477185 -0.24253672 0.08972082 -0.102850765 -0.17883354 -0.08619447
0.116460286 -0.17318283 -0.33235306 -0.12810099
00000000: e647 84bc e5ae 2dbd 4a45 3e3e dd86 783d
00000010: 171b 213e 2785 1abd 00aa 293e ea99 4c3e
00000020: f4d5 103d 3f20 a63e 12ed af3d 8eee 383c
00000030: eae2 3bbe 2f54 d7ba 4bcb 473e 2f53 713e
00000040: 311e c5bd bd93 85bd 9c8c cbbc 7af7 89be
00000050: 9295 27bd b057 313e ecd7 463d 8daf 003e
00000060: 40cb 69be 1ef4 703e 9948 633e 76a2 6a3e
00000070: 315e 07be d866 a8bd f639 c03c 2850 9d3e
00000080: cf36 ae3c 35a5 113d 9546 183d 0806 9fbd
00000090: 013f 4e3e 2af7 273d 668f 753e fad3 e4bd
000000a0: 29b4 303d ceb1 b63d e313 d7bd f717 4f3e
000000b0: 99b1 973e 0f44 e13d c144 6e3c 8ab6 c53d
000000c0: 2dd5 cf3d fd36 353e 04d6 893b 53f8 0e3e
000000d0: 5216 2abe a26c a4bd 013f 68be fdc2 853d
000000e0: b45d 2dbe 3591 32be ff9c 423e f918 81be
000000f0: 56a0 f3bd a11b 55be 0a13 31bb 8a73 083d
00000100: b004 86be 031c aebd 7be6 403e 89f4 723e
00000110: c59c 2abe bbeb 403e ba68 89bd d331 96bd
00000120: 058d debc bf5d 98be 3ba9 283e 9c5f 21be
00000130: 24b4 a6bd daa4 e3bd 94a8 653e de73 ccbb
00000140: 970e 233d 9299 6ebe 552a 943c bdc2 fdbd
00000150: fd63 9c3d 85c5 f63d f0ba 57be 7559 77be
00000160: b038 4fbe baa8 4cbd e4e3 0abc 8c5b 78be
00000170: 8dbf b73d 6ca3 d2bd 2420 37be ba86 b0bd
00000180: bb82 ee3d d756 31be 2e2a aabe e82c 03be

layers.4.bias f4 [2]
0.24309297 -0.21263461
00000000: 5ded 783e e3bc 59be
