Lectures/04-PyTorch/02-ANN-Artificial-Neural-Networks/TaxiFareClssModel.pt (torch_old, 110038 bytes, 21 tensors)

embeds.0.weight f4 [24, 12]
000000 3d 27 ee 3e df d9 36 3d 0d 0d ec be e4 16 39 3f
       0.4651431 0.04464137 -0.46103707 0.72300553
000010 65 da 21 3f ac d5 d9 be d2 33 af 3f 2d 52 7e 3c
       0.6322387 -0.4254583 1.3687689 0.015522522
000020 01 be 99 bf 44 cf 98 3f 37 2b c2 3e ff 8f be be
       -1.201111 1.1938252 0.37923595 -0.37219235
000030 c7 4c 45 bd 69 09 ba bf 61 95 14 3e 91 e3 01 3f
       -0.048168924 -1.4534122 0.14510109 0.50737864
000040 2e ad ca be 32 c7 c3 bf 12 18 9b 3f f4 c0 35 bf
       -0.3958525 -1.5295165 1.2116721 -0.7099755
000050 c1 97 20 3e b6 cb 9a 3f b3 96 16 bf 17 c3 12 3f
       0.1568289 1.2093418 -0.588237 0.57328933
000060 89 81 97 3e 61 45 a6 bf dd b3 e1 be 1e 7e 9e 3e
       0.29591015 -1.2989923 -0.44082537 0.30955595
000070 f1 5c 86 be e2 0a 45 bf 89 a4 ac bf ec d2 91 bf
       -0.26242784 -0.7696973 -1.3487712 -1.1392493
000080 bc 4c 6a bf 2e 5d cd 3e 6b da 78 bf 9e 17 40 3f
       -0.9152334 0.40110153 -0.9720828 0.75036037
000090 bd 52 a6 bf a3 66 8e be 60 74 94 bf c0 b6 b0 3f
       -1.2994 -0.2781268 -1.1598015 1.3805771
0000a0 41 f9 ae be 3b f9 65 3e 6c 0a fc 3e 8e 12 48 3f
       -0.3417454 0.22458355 0.492267 0.7815331
0000b0 0d ce 06 3f 2f 1f 17 3e da 7e 03 3e fb 61 23 be
       0.5265816 0.1475799 0.12841359 -0.15955345
0000c0 59 0b 84 bf 77 95 70 bf c1 c0 b1 3f ab c9 ac bf
       -1.0315963 -0.93978065 1.3886949 -1.3499044
0000d0 a1 86 76 be 16 c0 c7 bf 8e 54 c9 be bc d7 9b 3f
       -0.24074794 -1.5605495 -0.39322323 1.2175212
0000e0 e3 95 38 3e e4 4d 2b bf 2d 81 5a 3f 74 5a 0c 3f
       0.18025927 -0.66915727 0.85353357 0.5482552
0000f0 3e 45 7e 3e cf 60 9a be 9e 38 33 3f cb ed 27 c0
       0.24831101 -0.30151984 0.70008266 -2.6238887
000100 3f b1 35 be 04 80 15 c0 cf a9 e3 bf ef 2e d5 3d
       -0.17743395 -2.3359385 -1.7786196 0.104093425
000110 7f 1d 8c bf 1f 31 3b 3f 39 44 79 3e dc 3e 58 3f
       -1.0946501 0.7312183 0.24342431 0.84470916
000120 1a aa 74 3e 9b 80 8d 3f 69 35 1b 3f 61 9a 1d bf
       0.23893014 1.1054872 0.6062837 -0.6156369
000130 c3 4b 0d bf 3d 74 09 bf 3e 79 0f 3f a2 d0 e7 bd
       -0.5519373 -0.5369299 0.56044376 -0.113190904
000140 f8 ea c4 3f d8 ff a5 bf 3b 52 12 be f5 53 98 3f
       1.5384207 -1.2968702 -0.14289181 1.1900622
000150 b6 15 e0 3f b6 26 39 be 5d 80 49 3d a5 40 92 bf
       1.7506626 -0.18081173 0.049194682 -1.1425978
000160 00 8d 38 bf 21 d5 5c 3d 1e 4c 20 3f 4f 45 a3 bf
       -0.7209015 0.053914193 0.62616146 -1.2755526
000170 c8 6f 1a bf 84 ac 7c bf e6 5a dc be 22 f0 8c bf
       -0.60326815 -0.9870074 -0.430381 -1.1010783
000180 7c f0 21 bf 1c c2 79 bf 34 2c 2b 40 96 f1 ae 3f
       -0.63257575 -0.9756181 2.674573 1.3667476
000190 79 4c 33 3e 59 c4 21 bf 92 a2 08 bf f1 9c 61 3e
       0.17509641 -0.6319023 -0.5337306 0.22032525
0001a0 89 0a 05 3f d6 f3 a9 3f cc 84 2b 3f fc be 01 bf
       0.519692 1.3277538 0.66999507 -0.50682044
0001b0 a4 3b 88 3f e9 64 cb 3d 92 04 97 3f b9 c5 2d be
       1.0643201 0.099313565 1.179827 -0.16969956
0001c0 80 21 a3 bf 21 40 1e 3f e3 58 59 be ef 83 85 bf
       -1.2744598 0.618166 -0.21225314 -1.0430888
0001d0 3a 54 6c 3f c9 4c c1 3f 40 c1 a5 bf 59 3a 3c 3e
       0.9231602 1.5101558 -1.29496 0.18381633
0001e0 7c 39 a6 be f9 c5 cb 3f e4 da c1 be 51 6a d7 be
       -0.32465732 1.5919791 -0.37862313 -0.420733
0001f0 0e f6 29 3f 32 45 64 bf ce 1c 79 bf 66 7d 3d 3f
       0.66391075 -0.89168084 -0.9730958 0.7401947
000200 53 1a c8 3e fc b1 fe be dd 6a e3 bf ca ec 08 bf
       0.39082584 -0.49745166 -1.7766987 -0.5348631
000210 e9 e1 b9 3e 50 25 61 3f a4 d5 4a bf eb 6f ea 3f
       0.36305168 0.8794756 -0.7923224 1.8315405
000220 f5 6b 60 3f 10 c1 75 3f 59 0e 6e 3f f9 02 7b bf
       0.8766473 0.95997715 0.9299064 -0.9805141
000230 6d b7 a5 bf 73 bd 00 c0 29 0a 7b 3c 1e 19 33 bf
       -1.2946602 -2.011563 0.015322247 -0.699602
000240 60 12 be bf 35 a1 a0 be 41 ab 60 3f c8 ac 53 3f
       -1.4849358 -0.3137299 0.8776131 0.8268552
000250 b5 0e 30 3e c4 d9 89 3f 7d 07 7d bf f8 49 13 40
       0.1719311 1.0769582 -0.9883955 2.3013897
000260 87 71 81 be 23 1b e7 3e 8b 9d b0 3f e8 e1 b3 bf
       -0.25281927 0.4513789 1.3798078 -1.4053316
000270 cc 5a e4 3f af b5 8f 3e f0 32 44 bf cb a4 89 bf
       1.7840209 0.280683 -0.76640224 -1.0753416
000280 28 d0 69 bf 77 f7 4a be 71 48 7d 3e c3 a3 ec 3e
       -0.91333246 -0.19820963 0.24734665 0.4621869
000290 ae 87 3c be 83 4b 70 3d a1 b8 d8 bf e1 7e cf bf
       -0.18411133 0.058665764 -1.6931344 -1.6210595
0002a0 0e 58 80 3e b7 af b8 bf 90 ac 89 3f d7 3a 7d 3f
       0.2506718 -1.4428624 1.0755787 0.9891791
0002b0 c2 79 dd bf 4c 08 76 3d 3d cc b1 3f a8 b2 95 be
       -1.7302783 0.060066506 1.3890454 -0.29237866
0002c0 ad 1c 8a bf b2 53 e0 3e c3 c9 8f 3f 6a de 51 bf
       -1.0790001 0.43813854 1.1233448 -0.8198
0002d0 e4 94 c6 bb 7e a6 4a be 17 ab 40 bd e5 5a 22 3e
       -0.0060602296 -0.19790074 -0.047038164 0.15854986
0002e0 81 61 5c 3f 6e 5f 85 3f 76 0e 05 be 2f c7 f5 bf
       0.8608628 1.0419748 -0.12993798 -1.9201411
0002f0 c4 f3 6d 3e 9e 18 57 bf 23 a2 ce bf 01 17 56 bf
       0.2323752 -0.8402194 -1.614323 -0.8362885
000300 05 b2 b1 bf d5 77 b1 bf 5d 8c 01 bf e5 a2 b6 bf
       -1.3882452 -1.3864695 -0.506048 -1.4268461
000310 5c cc 7e bf 7c 43 26 3d fa 48 98 3f d3 03 e5 3f
       -0.9953058 0.040591702 1.1897271 1.7891792
000320 b5 0f fb bd f0 7e 78 3e 66 5d b9 be 64 5b d3 be
       -0.12258855 0.24267173 -0.3620407 -0.41280663
000330 e1 1d df be 01 51 08 c0 48 ac 72 bf b5 46 9f bf
       -0.43577483 -2.129944 -0.9479413 -1.2443453
000340 ae 09 bd 3d 04 7b d5 3e e7 f8 ca bf 63 3b 2d be
       0.09230362 0.41695416 -1.5857209 -0.16917185
000350 d1 a4 44 bf f4 1c f7 be 9a a7 a7 be a6 90 a3 3f
       -0.7681399 -0.48264277 -0.32745057 1.2778518
000360 fa 06 db bf 35 bc 3a bf 23 2e 06 bf 74 3c 7c bf
       -1.7111504 -0.7294343 -0.5241415 -0.98529744
000370 1d 68 53 3f d1 42 d5 be bd f0 e5 3e 0d 79 80 bd
       0.8258074 -0.4165254 0.4491023 -0.062730886
000380 ed 02 82 bf af c6 ac 3d 51 48 90 bf 68 a3 71 bf
       -1.0157143 0.084363334 -1.1272069 -0.94389963
000390 00 1c c7 bf f4 ee b7 3e 87 56 73 bf 30 c5 96 be
       -1.555542 0.35924494 -0.95053905 -0.29447317
0003a0 42 84 b6 3e a2 46 18 3e 3f a5 00 40 82 82 9d be
       0.3564778 0.14870694 2.0100858 -0.30763632
0003b0 a9 f7 af 3f b6 21 b5 be fb 61 90 bc 63 69 a4 3f
       1.3747455 -0.35377282 -0.017624846 1.2844661
0003c0 b2 2a f1 bf c3 02 23 bf fc bd f8 bc 72 86 12 bf
       -1.8841155 -0.6367609 -0.03036403 -0.572364
0003d0 7e 95 95 be 04 82 95 bd f2 9f 1a bf f6 45 25 c0
       -0.29215616 -0.07300189 -0.6040031 -2.582395
0003e0 26 a5 08 3f 1a b3 1b 3f e5 72 66 bf 0f 4e 85 3f
       0.53376997 0.6082016 -0.90019065 1.0414447
0003f0 40 6c 92 bf bc f6 59 be b3 59 8b bf 19 65 9d be
       -1.1439285 -0.21285528 -1.0886749 -0.30741194

embeds.1.weight f4 [2, 1]
000000 ff 5d 92 bd 6a 26 59 3e
       -0.071468346 0.2120606

embeds.2.weight f4 [7, 4]
000000 ea 21 a0 3e 4c bd b0 3e bc 0c 5a 3f 75 e0 e5 bf
       0.31275874 0.34519422 0.8517568 -1.7959124
000010 f6 6d ee 3e ca 56 38 bf 16 0f 91 3f 02 29 b1 3e
       0.4656827 -0.7200743 1.1332729 0.346016
000020 ff 2f c8 3f 4e 06 b0 bf 1d 0a b9 bf a3 89 ef 3e
       1.5639647 -1.3751924 -1.4456211 0.46784696
000030 5b 2c 30 3f bd f6 92 be 1e 38 01 c0 ae 2d d1 bf
       0.6881768 -0.2870387 -2.0190501 -1.6342065
000040 88 1e 1b bf 97 b3 c3 be 5d 6e cc 3f 56 da 1b 3f
       -0.6059346 -0.38222954 1.597118 0.6088003
000050 5f d7 c9 3f 87 3c 0e bf 33 0c a2 bf 03 38 ca be
       1.5768851 -0.5556111 -1.2659973 -0.3949586
000060 5e 17 49 3f a0 bc 4f bf 9e df 14 bf c2 ed 24 3e
       0.7855128 -0.81147194 -0.5815371 0.16106322

bn_cont.weight f4 [6]
000000 72 43 d8 3e 7d 26 35 3f 3b 4c 16 3f 10 f2 db 3e
       0.42238957 0.70761853 0.5871007 0.42958117
000010 f9 8d cb 3e 72 11 3c 3f
       0.39756754 0.7346412

bn_cont.bias f4 [6]
000000 cd f2 eb 3d 6b 89 af 3d 5b cf a1 bc 16 a3 5f 3d
       0.1152092 0.08571132 -0.019752195 0.05459889
000010 51 68 10 be 9a f6 06 3c
       -0.14102294 0.008237505

bn_cont.running_mean f4 [6]
000000 76 01 23 42 ea f3 93 c2 ef 01 23 42 ed f2 93 c2
       40.751427 -73.976395 40.75189 -73.974464
000010 7d 95 ac 3f ca 00 54 40
       1.348312 3.3125482

bn_cont.running_var f4 [6]
000000 1c f0 2d 3a 90 db 84 3a 54 4f 70 3a ef 51 8a 3a
       0.00066352054 0.0010136236 0.0009167094 0.0010552983
000010 19 a5 13 3f ae 3e 31 41
       0.57673794 11.077803

layers.0.weight f4 [200, 23]
000000 b2 71 45 3d dc 61 c2 bd 7d e2 4b 3d ac f8 16 be
       0.04820413 -0.094913214 0.049776543 -0.14743298
000010 d9 d1 06 be c9 65 64 3d b4 34 47 3e 52 7e 89 bd
       -0.13165988 0.055761132 0.19453698 -0.06713547
000020 cf 68 a1 bc 1f 8d 8a 3d e9 07 09 be 38 d2 0f 3e
       -0.019703297 0.06765198 -0.13381924 0.14045036
000030 4c 24 d0 3c 24 bd 47 bd f1 43 e5 bd 2a a0 95 3d
       0.025407933 -0.048764363 -0.111945994 0.073059395
000040 5c fd b0 bd 77 e4 64 be 66 62 d4 3d ee 4e 16 be
       -0.086420745 -0.22352777 0.103703305 -0.14678547
000050 1e 2a 5c 3e 4f 3f c1 3d c7 a5 09 3e 98 b9 a5 bb
       0.21500441 0.09435903 0.13442145 -0.005057525
000060 d8 22 93 3d d5 66 4f 3d a5 94 27 bc 17 9e 82 bd
       0.0718438 0.050635178 -0.010228311 -0.063778095
000070 90 36 dd bc f0 4c bb bd 52 b1 3d 3b e4 b2 30 bd
       -0.027003556 -0.09145534 0.0028944802 -0.043139353
000080 f5 53 91 3c 73 62 b4 3c 96 99 21 bd eb ed f3 3d
       0.01774023 0.0220196 -0.03945311 0.119106136
000090 0b 83 5e 3d 37 45 c7 bc 3b be 01 bc d3 df 0c 3e
       0.05432419 -0.024324996 -0.00791889 0.13757257
0000a0 33 be 56 be ec 47 44 3d 42 d5 84 bd d9 0a 07 bd
       -0.20970993 0.047920153 -0.06485988 -0.03296933
0000b0 91 93 e3 3c 8f 4d 49 3e 09 14 8c bb 1a bc 11 3d
       0.027780326 0.19658493 -0.0042748493 0.03557978
0000c0 26 f1 27 3c 0e e1 4a bc a0 76 5b 3c d1 47 49 bd
       0.010250365 -0.012382759 0.013394982 -0.049140755
0000d0 2e cf 1c 3d 18 2f a5 3c c8 6a 43 bd 9e ca f2 3b
       0.03828352 0.020164058 -0.047709256 0.0074094078
0000e0 51 44 c2 3c 53 65 d1 bc da ee 20 3c 90 95 08 bc
       0.023714216 -0.02556101 0.009822572 -0.00833644
0000f0 0b 96 5d 3c fb 45 9f bb e4 e8 ad 3a aa 59 d3 bd
       0.013524543 -0.0048606372 0.0013268259 -0.103198364
000100 9b 1c 30 3d 41 58 0b 3d 6c a5 87 3d ad 5a ea 3c
       0.04299603 0.034019712 0.066233486 0.02860769
000110 92 0a a1 be e7 a0 12 be c6 81 66 3d 5c 42 9c bd
       -0.31453377 -0.14319192 0.056276105 -0.076298445
000120 41 40 1a be f3 35 4e 3b 16 2f 0a 3e 82 a7 3b bd
       -0.15063573 0.0031465262 0.13494524 -0.045814045
000130 2f 61 c9 bd 5f 5f 06 3e 0c ef b0 bd 44 3c cd 3d
       -0.098329894 0.13122319 -0.086393446 0.100212604
000140 5e 77 91 3d be 35 9d bd 2c 5f 88 bd 9b 10 5b bd
       0.071028456 -0.07676266 -0.066587776 -0.053482633
000150 32 c7 26 3d 92 df cd bd f5 2e 5f 3d 2a d9 4e 3d
       0.04071731 -0.10052408 0.05448814 0.050500073
000160 32 6a 30 3d bf c7 b8 bd 6d 14 5a be 6c 05 54 be
       0.043070026 -0.090224735 -0.21296854 -0.20705193
000170 7f f1 01 be 09 3c b2 3d 56 94 b6 3d 96 63 ca 3d
       -0.1268978 0.08702857 0.089150116 0.09882276
000180 60 de 1a bd 7c 98 92 3d e1 4e 27 bd c0 0e 3b 3c
       -0.03780973 0.0715799 -0.04084671 0.011417091
000190 68 32 1a be 9f b1 87 3d 88 a8 c9 bd 98 03 e5 3d
       -0.15058291 0.066256754 -0.09846598 0.11182326
0001a0 f9 80 ee bb 3e 82 5f bc 7b 53 01 bd 73 a8 91 3d
       -0.0072785583 -0.013641892 -0.031573754 0.07112207
0001b0 93 2a 6f 3d 9c bf bf ba 7f 95 6b be 03 17 25 3e
       0.05839021 -0.0014629248 -0.23006247 0.1612206
0001c0 00 78 07 be ac ac 1c 3d d7 63 19 be e0 c0 b3 3d
       -0.1322937 0.03825061 -0.14979492 0.08777022
0001d0 af e7 28 3b 3d 43 a8 3d ee 5e 19 be a0 b8 75 bd
       0.002577286 0.0821595 -0.14977619 -0.059990525
0001e0 9a c9 aa bd ce 9c b9 bd cd c9 d2 3c 62 8e 01 bd
       -0.08339234 -0.09063111 0.025730992 -0.031629927
0001f0 23 ed e3 bd d8 6c 02 3e 6c f4 30 be 93 a4 09 be
       -0.111292146 0.12736833 -0.1728074 -0.13441686
000200 ba c4 7c bd 1f c6 1a 3e b2 c6 5f be 50 2e 54 bd
       -0.06171105 0.1511464 -0.2185314 -0.05180198
000210 c6 2c 11 be 76 10 80 3e 9e 84 18 bd a5 2a 9f 3d
       -0.14177236 0.2501256 -0.03723585 0.07771806
000220 91 9b eb 3d 85 c2 2a 3d 4d a7 b5 bd 9d ac 95 3d
       0.11504281 0.041689415 -0.08869801 0.07308314
000230 97 03 cb bc 98 2f aa bc 0a 42 62 3d b0 4a 3a be
       -0.024781985 -0.020774648 0.05523876 -0.18192554
000240 a2 53 44 be 2c 77 67 bd 43 8c 58 be 6b e8 a1 bd
       -0.19172528 -0.056510136 -0.21147256 -0.07905658
000250 2c 4b 81 3d 50 ed c4 3d 97 cd 0d bc 87 0d 0e be
       0.06313166 0.09615576 -0.0086549735 -0.13872348
000260 75 09 e3 3d 60 18 7b be 85 69 03 be ad 8a a5 3d
       0.11085788 -0.24521017 -0.12833221 0.08083091
000270 98 00 07 be eb a5 d1 3d c9 0e 50 be b1 38 1a bd
       -0.1318382 0.102367245 -0.2031814 -0.03765172
000280 91 14 8e bd 05 10 43 3b 88 57 9f bd 55 34 cc 3d
       -0.069375165 0.0029764187 -0.07780367 0.09970919
000290 30 36 ce bd e2 eb 31 3e b6 c8 bb 3d 16 57 d3 bd
       -0.10068929 0.17375138 0.09169142 -0.10319345
0002a0 2a fd 69 3d 50 1b c2 3d ae 9f 32 bc 28 60 0f be
       0.0571262 0.09477866 -0.010902328 -0.14001524
0002b0 7e 1c eb 3d 2f 09 0e be 9c 2b bf bc e1 14 9f bd
       0.11480044 -0.13870691 -0.023336224 -0.07767654
0002c0 18 f3 ba bd c3 28 9b bd 06 1d 47 bd e4 d1 35 3e
       -0.09128398 -0.07576134 -0.048611663 0.17755848
0002d0 9b 5c 85 3c ef d5 50 be 45 87 bd 3d 03 44 41 be
       0.01627951 -0.20394109 0.09254316 -0.188736
0002e0 b6 ab 11 3c a1 43 09 3d d9 37 86 3c 60 aa 0d bd
       0.008891037 0.03351176 0.016384052 -0.03458631
0002f0 43 e9 bb bc b3 e4 17 3d 06 ab 9e 3c 80 e3 ff bb
       -0.022938376 0.03708334 0.01936866 -0.0078091025
000300 a0 3d 00 bd 5b e8 a6 3b e3 1a 8a bc cd 16 48 bc
       -0.03130877 0.005093617 -0.016858524 -0.012212467
000310 59 c0 8f 3d d3 d7 33 bc 11 b7 16 bd 18 8c 94 3c
       0.07019109 -0.0109767495 -0.03679568 0.018133208
000320 f9 94 e6 bc df a4 46 3d b0 64 9c bd 4b 36 21 3d
       -0.028147208 0.048497077 -0.07636392 0.03935842
000330 26 c7 2f be 32 31 92 bc f6 11 a8 3e 0b 5f 11 3c
       -0.17165813 -0.017845724 0.32826203 0.008872758
000340 2d 0f ac bb bb ab be bd a9 c1 f1 bc 01 a1 3e 3c
       -0.0052508325 -0.09310099 -0.02951129 0.011635066
000350 12 64 e9 3c d1 3f 46 3d e6 26 81 bd 79 d1 61 bd
       0.0284901 0.048400704 -0.063062474 -0.05513141
000360 d9 00 b0 3d 15 8e 07 bd 27 b3 55 3d b2 ca 20 be
       0.08593912 -0.033094484 0.052172806 -0.15702322
000370 b1 83 44 3c 15 eb 2e 3d 83 16 27 3c 9b b7 33 3d
       0.011994288 0.04270466 0.010198238 0.04387627
000380 73 d8 42 3e a8 ea 83 bd fe 16 40 3e 8f 8a 61 be
       0.19027881 -0.064412415 0.18758771 -0.22025512
000390 3f ba 01 3e 8b a2 68 be 31 b5 98 3c 8c e4 4e 3c
       0.12668703 -0.22718255 0.018641086 0.012627732
0003a0 84 06 e6 3c 66 20 a0 bc 74 2f 62 3b 3f af 9f bc
       0.028079279 -0.019546699 0.0034513148 -0.019492744
0003b0 92 40 bf 3c 16 12 c6 3c 96 ef be 3c cc 7f 65 bc
       0.02334622 0.024178546 0.023307603 -0.01400752
0003c0 ed 91 07 bc 4a d8 bc bc 69 1f 83 3e 86 b1 b1 3c
       -0.0082745375 -0.023052353 0.25609902 0.021691095
0003d0 30 7d 1d bb 10 d7 02 3c bf b5 34 3c 3f a7 87 3c
       -0.0024030916 0.007985845 0.01102966 0.016559241
0003e0 3e ca 01 bc ba cf 55 3e 0b 6e db 3c 9f ef b8 3d
       -0.007921753 0.20880023 0.026785871 0.09030079
0003f0 45 43 87 be c2 0d 67 bc db d5 09 bc 93 18 9e bc
       -0.2641851 -0.014102401 -0.0084128035 -0.019298827

layers.0.bias f4 [200]
000000 93 42 55 bb 96 bf 13 3e 50 7a 2f 3c ab cd 9e 3d
       -0.0032540902 0.14428553 0.010710314 0.07754072
000010 68 18 52 3e 2a e0 a7 bd 5b 83 0e 3e 43 5d ad bd
       0.20517123 -0.08197053 0.13917296 -0.08465054
000020 99 49 8d bb 44 69 0d 3e 9c a3 df bd 12 71 5b 3e
       -0.004311752 0.13809687 -0.10919878 0.21429852
000030 ba d5 90 3d bb c8 f2 3d 19 98 88 3d 4d ba c6 bc
       0.07072015 0.118546925 0.06669635 -0.024258757
000040 93 c6 ca 3d 8c 42 63 bd 15 db ea bd bc dc 8c 3d
       0.09901156 -0.055483386 -0.11467568 0.06878039
000050 6d 1c f1 3d 96 32 40 be b0 e7 cb bd 74 57 71 3e
       0.11773 -0.18769297 -0.099563 0.23568517
000060 c6 33 32 3e cd 0a 5b 3d 90 ef 2e 3e 74 b1 b5 bd
       0.17402562 0.053477097 0.17083573 -0.08871737
000070 9b f3 9f 3d 56 34 12 3e 67 14 66 3d 3b ed ee bc
       0.07810136 0.14277777 0.0561718 -0.029165855
000080 0e 54 96 3d ba c9 62 bc 7e 9d cf bc 60 d0 05 3e
       0.07340251 -0.013842041 -0.025343653 0.1306777
000090 91 f2 0a be e1 48 e1 3d ef 7f 1e 3e b8 04 cd 3d
       -0.13569094 0.11000229 0.1547849 0.10010666
0000a0 9e a7 60 bc cb a1 c1 bc 24 a4 8b 3e 85 7b 5d 3e
       -0.013711838 -0.02363672 0.27273667 0.2162915
0000b0 53 60 89 bd 3d 7c 23 be 0b 70 72 bd 17 d2 19 3d
       -0.067078255 -0.15965362 -0.059188884 0.037553873
0000c0 89 09 6d 3d e0 e6 07 be 7b 8e a3 be dd 8d 5e 3c
       0.05787042 -0.13271666 -0.3194464 0.0135836275
0000d0 7f 57 37 3e ad d7 cf 3c 32 34 15 3e 4b b9 13 bd
       0.17904471 0.025371397 0.14570692 -0.03606538
0000e0 f1 cd 60 be 09 af d2 3d 3e 25 04 3e 91 ca 92 bd
       -0.2195356 0.102872916 0.12904832 -0.07167543
0000f0 28 11 00 3e 19 54 02 be 2b 2f 46 3e 26 55 aa bd
       0.12506545 -0.12727393 0.1935393 -0.08317022
000100 bb 6f 30 3e 54 e1 71 bd a1 9b 04 3e 5c b1 04 be
       0.17230122 -0.05905278 0.12949993 -0.12958282
000110 b9 a5 b5 bd e6 3a 24 3e 74 06 21 3e 2f bb 8f 3d
       -0.088695 0.16038093 0.15725118 0.07018124
000120 1d 7d 1a 3e 7c cf 5a 3e 0b 83 81 3e 99 38 b0 3d
       0.1508679 0.21368212 0.2529529 0.08604545
000130 c0 62 0c 3d c9 53 b1 bc 94 a7 ac 3d 77 8e bb bd
       0.034273863 -0.021646397 0.084304005 -0.091580324
000140 71 aa e7 bd 1c 4d cd 3c d6 75 ba bd 82 db 8b 3e
       -0.11311806 0.025061183 -0.09104507 0.2731591
000150 d5 86 19 3d d4 3d c3 bb 4d e9 3a 3e d3 e9 ef bd
       0.0374821 -0.005958298 0.1825306 -0.1171452
000160 bf 78 ca 3d 60 14 68 bd 67 7b 14 3e ce 17 a5 3d
       0.09886312 -0.056660056 0.145002 0.08061181
000170 08 a5 26 3e 47 e5 23 be be e8 01 3e 2e 4b c6 3c
       0.16273892 -0.16005431 0.1268644 0.02420577
000180 09 a6 14 3e 61 43 89 3d 14 00 94 3d 63 5c 38 be
       0.14516462 0.06702305 0.072265774 -0.18003993
000190 9e 99 7f 3e a6 1f 1c 3e b3 67 6d bd 0a 89 8f 3b
       0.24960944 0.15246448 -0.057960223 0.00438035
0001a0 ac b1 37 3e 95 c2 28 3e 36 5a 3f bc 48 43 af 3d
       0.1793887 0.16480477 -0.011679223 0.08557755
0001b0 8b 91 12 3e 7d 8f f2 bc 25 36 24 3e 95 05 3c bd
       0.14313333 -0.029609436 0.1603628 -0.04590376
0001c0 88 e6 86 3d ae d6 21 bd a1 3d 02 3e 1e ac 89 bd
       0.06586939 -0.039511375 0.12718822 -0.06722282
0001d0 5e fb 07 be 30 0d e9 3d 87 cf 85 3d a1 14 ca bd
       -0.13279483 0.113794684 0.06533723 -0.09867216
0001e0 3f 02 bd 3d bf 51 f4 3c 68 9a 85 3c 9d 48 d1 3d
       0.09228944 0.029824136 0.016308978 0.10218928
0001f0 04 7c 57 3e f4 68 35 3e 2f 7f 8c 3d 7a 2a e9 3c
       0.21043402 0.17715818 0.06860196 0.028462637
000200 37 78 af be 98 6f 59 3e 1e 27 8b bd bc e4 e8 3c
       -0.34271404 0.21233976 -0.067945704 0.028429382
000210 40 5e 65 3e 20 d1 41 3d 9b 47 6d 3e e4 c4 c5 bc
       0.22399235 0.047318578 0.23171847 -0.024141736
000220 da 7b 68 3d e3 18 55 3e 50 ab af bb 11 6d 07 3e
       0.05675874 0.20810275 -0.005360998 0.132252
000230 ff 81 22 3e 2a df ee 3d 06 6f e7 3b 75 09 a5 3b
       0.15869902 0.11663659 0.0070627956 0.0050365278
000240 e8 52 07 3e da f2 8d 3c ec 3f 11 3b 71 a9 f4 bd
       0.1321522 0.017327715 0.0022163345 -0.11946381
000250 88 52 82 bd b9 45 63 3e 20 6f 28 3e ac 9c 1e 3d
       -0.06363398 0.22194566 0.16448641 0.038723633
000260 03 ed a8 bc 5c 15 2d 3e 6c 23 2f 3e 20 6d 54 3e
       -0.020620828 0.16902679 0.17103356 0.20744753
000270 87 cc 4f bd bc f7 98 3d 92 36 ef bd 46 c5 2a bd
       -0.05073216 0.074691266 -0.1168033 -0.04169204
000280 85 c8 36 3e 0b cd 59 3d c9 3c a7 3d 7a fc 4a be
       0.1784993 0.05317406 0.08165891 -0.19822875
000290 62 35 bb 3c 89 d7 4c 3e ac 29 2a 3e 3c 10 4b be
       0.022852603 0.20004095 0.16617459 -0.19830412
0002a0 d7 77 e8 3c 36 74 e8 bd 6f 73 c0 bd dd 25 23 3e
       0.028377457 -0.113502905 -0.09397017 0.15932412
0002b0 f9 21 25 be c0 6c 44 be bc 77 33 3e 96 ed f8 bd
       -0.16126241 -0.1918211 0.17526144 -0.12154691
0002c0 6c 50 3d 3e ae a1 41 3d a1 6e b2 bd 6c 7a df bd
       0.1848771 0.04727333 -0.08712507 -0.10912022
0002d0 f6 fe ab 3d 7e a0 35 3e ac 4d ce 3d 60 12 32 3d
       0.08398239 0.17737004 0.100734085 0.043474555
0002e0 78 81 43 be 0e cf 05 3e 47 07 06 be f3 3c 35 bd
       -0.19092357 0.13067266 -0.13088714 -0.04424758
0002f0 3d 00 84 3e 57 70 a3 ba b6 ab f3 bd c5 dd 0a 3e
       0.25781432 -0.0012469393 -0.11897986 0.13561161
000300 ea cd 1e 3e 96 2d 3b 3e 54 93 ed 3d 83 77 4e 3e
       0.15508237 0.18279108 0.11600366 0.20162778
000310 db 8a a7 bd bf 41 46 3e 4f 0e 80 3e 94 c4 d1 3d
       -0.081807815 0.19361018 0.25010917 0.102425724

layers.2.weight f4 [200]
000000 0b da 5c 3e 9d cd 30 3f cf 1e 46 3f df 24 4a 3e
       0.21567552 0.6906374 0.7739076 0.19740628
000010 2c ac eb 3e 5b 17 08 3f 4b 9b a4 3d fa b4 2d 3f
       0.46029794 0.5316064 0.08037432 0.67854273
000020 ae c7 9c 3e b4 06 e4 3e 43 17 1f 3e f5 07 b7 3e
       0.30621094 0.44536364 0.15536217 0.35748258
000030 05 e6 a2 3d a5 10 11 3f fa 53 48 3f 65 85 53 3f
       0.07954029 0.5666602 0.7825314 0.8262542
000040 cb f2 08 3f 09 c6 a0 3e 23 79 20 3f 0e ff 41 3e
       0.5349547 0.3140109 0.6268484 0.18944952
000050 cb d1 26 3f cb 9d 2a 3f 7d f7 69 3f 92 94 64 3f
       0.6516387 0.6664702 0.9139326 0.892892
000060 c2 53 6c 3e 21 2c a7 3e 63 33 33 3f 5e 07 0d 3f
       0.23078826 0.32650855 0.70000285 0.55089366
000070 f9 72 1f 3f 6d 51 f0 3e ad 6b dd 3d db 41 67 3f
       0.6228481 0.46937123 0.10811553 0.9033486
000080 01 37 0f 3e bf c3 3f 3f 8f 06 41 3f b0 a6 5f 3f
       0.13985826 0.7490806 0.7540063 0.8736372
000090 37 fe f1 3e 12 12 63 3e eb 6c e1 3e a0 ce 2e 3f
       0.47264263 0.22174862 0.4402841 0.68284035
0000a0 81 61 68 3e 1a 6d 16 3f 68 84 5e 3f ab 5c 5e 3e
       0.22693445 0.58760226 0.86920786 0.21715038
0000b0 38 e3 de 3e e1 f9 18 3f 9b d1 fd 3e 02 62 69 3f
       0.4353273 0.59756285 0.4957398 0.91165173
0000c0 28 a4 34 3f 69 ef fd 3e f8 9e 35 3e ed 38 6e 3f
       0.7056298 0.49596718 0.17736423 0.9305561
0000d0 32 9d 25 3f 88 8b ea 3e ac de 49 3e ca 67 66 3f
       0.64692986 0.4580958 0.19713849 0.9000212
0000e0 26 62 2b 3f 83 7b 63 3f 4f 0e 72 3f 7c 91 36 3f
       0.6694664 0.8886034 0.94553083 0.7131574
0000f0 39 88 3b 3f ff 01 35 3f ab d9 37 3e 2d 2c e9 3e
       0.73254734 0.7070617 0.17954127 0.45541516
000100 0c 32 e5 3e 5e 14 12 3e 5a b1 9c 3e a1 e5 2f 3f
       0.44764745 0.14265582 0.30604059 0.6870976
000110 01 de 34 3f 6f 4f af 3e f0 e8 ff 3e 65 4d 2b 3f
       0.7065125 0.3424029 0.49982405 0.6691497
000120 f7 6f 21 3f f4 cf 36 3f 1c cb 3a 3e f7 e1 00 3f
       0.6306147 0.7141106 0.18241543 0.50344795
000130 7a b6 da 3d 54 f3 ca 3e 9b 0a 10 3f 5f cd c6 3e
       0.10679336 0.3963877 0.5626618 0.3882856
000140 10 3a 58 3f 0d 59 4b 3e 1b af 44 3f 52 20 2f 3e
       0.84463596 0.19858189 0.7682969 0.17102173
000150 b2 86 99 3e 66 c5 de 3e f2 64 a1 3d fd 44 b8 3e
       0.29985577 0.43509978 0.07880582 0.35990134
000160 c1 b0 d0 3e 8a f3 14 3f b5 9b 1f 3f fa d2 eb 3e
       0.40759853 0.5818411 0.62346965 0.460594
000170 ce 81 2c 3e 82 58 c6 3d fa 24 66 3f 81 f7 c4 3e
       0.16846392 0.0968485 0.8990017 0.3847008
000180 0b 11 c7 3e 89 db 81 3e 56 0b 37 3f e8 8c 12 3e
       0.3888019 0.25362805 0.7150167 0.14311564
000190 85 b4 3a 3f 4f 57 eb 3e 3e 58 10 3f af c8 be 3e
       0.729317 0.4596505 0.56384647 0.37262484
0001a0 01 40 c9 3d 48 fc 53 3f af 76 47 3e 86 d5 5a 3f
       0.09826661 0.82806826 0.19478868 0.8548206
0001b0 6c 18 0a 3f 50 51 60 3f 7d 91 78 3f b5 32 1c 3e
       0.53943515 0.87624073 0.97097 0.15253718
0001c0 84 97 c7 3e d0 1a a1 3e b1 43 60 3e 81 64 1c 3f
       0.38982785 0.3146577 0.21900822 0.61090857
0001d0 2e 69 ed 3e b2 79 3e 3f a2 28 29 3f df 6a 00 3f
       0.46369308 0.7440444 0.66077626 0.5016307
0001e0 a4 18 44 3f 30 0f df 3e db a9 04 3e d4 84 07 3f
       0.766001 0.43566275 0.1295542 0.52937055
0001f0 e4 e6 42 3f 2a 9e f6 3e f2 16 a6 3e 42 2a 1b 3f
       0.7613356 0.48167545 0.3243938 0.60611355
000200 9c 34 6c be ba 1e a6 3e 05 4c aa 3d bd 17 b6 3e
       -0.23066944 0.32445318 0.08315281 0.35564986
000210 a6 d4 54 3e 1e eb 47 3f a7 83 4a 3f 4b 81 08 3f
       0.20784244 0.78093135 0.79107136 0.53322285
000220 e3 8a 65 3e 0e 5f cd 3e 54 be 6e 3f b1 b9 3d 3e
       0.22416262 0.40111583 0.9325917 0.18527867
000230 5b ea 72 3f 7c 19 80 3e 3f 54 08 3f 4b c0 4c 3e
       0.9488885 0.25019443 0.5325355 0.19995229
000240 c7 4c 0f 3f b7 39 5a 3f ae 1f 18 3f 27 6d 41 3e
       0.5597653 0.85244316 0.5942334 0.18889295
000250 21 2f 69 3f 7e 15 b6 3e 2f 71 fc 3e 92 a7 13 3f
       0.9108754 0.35563272 0.49305102 0.57677567
000260 db 10 67 3f 8c 92 4d 3f ba 22 0f 3f 2a 39 36 3e
       0.90260094 0.8030174 0.55912364 0.17795244
000270 5b 91 62 3f 03 3e eb 3e 43 be 5a 3e 4c 1a 0f 3f
       0.88503045 0.4594575 0.21361642 0.558995
000280 f5 a8 02 3f bc 0e d3 3e fc 38 d6 3e 72 b1 5c 3f
       0.5103906 0.4122218 0.4184035 0.8620826
000290 67 9d de 3e e7 12 16 3f 49 fa ad 3e a2 1a 00 3f
       0.43479463 0.5862259 0.33980015 0.5004064
0002a0 e0 0c 23 3f 92 22 2b 3e 36 e6 6a 3f f6 3e 25 3f
       0.6369152 0.16712406 0.91757524 0.64549196
0002b0 f1 ea f6 3e e5 4a 55 3f e1 f0 80 3d 42 45 83 3e
       0.4822612 0.83317405 0.06295944 0.25638777
0002c0 df 99 f7 3d 3f c8 77 3e b9 80 72 bd a6 0e 30 3f
       0.120898955 0.24197482 -0.05920479 0.6877235
0002d0 dc c8 47 3f 0d 91 c7 3e 3c bf 4b 3e e4 50 5b 3f
       0.7804086 0.38977852 0.19897169 0.85670304
0002e0 2b 4a df 3e c3 bd 08 3f 3a e0 b8 3e 57 41 64 3f
       0.43611273 0.53414553 0.3610857 0.891622
0002f0 97 49 3f 3f 59 52 dc 3e 35 49 31 3f a1 24 cf 3e
       0.74721664 0.43031576 0.6925233 0.40457633
000300 13 37 b6 3e cd 4a 6f 3f 8b a8 1d 3f 9b 8f 0d 3f
       0.35588893 0.9347351 0.615853 0.5529725
000310 ea df 16 3f aa a4 53 3f 02 1b d5 3e cf c2 1c 3f
       0.58935416 0.8267313 0.41622168 0.61234754

layers.2.bias f4 [200]
000000 88 a2 d8 bd 2e 26 90 ba 0e 30 e8 bc 6d 36 79 3d
       -0.105778754 -0.0010997707 -0.028343227 0.06084292
000010 e7 36 e8 bd f5 5e 18 be 21 d3 a4 3d 33 ae 3d 3b
       -0.11338597 -0.14879973 0.08048082 0.0028942942
000020 db f3 16 3d eb d5 a7 bd 1b 9c 00 3b 13 eb b0 3c
       0.036853652 -0.081950985 0.0019624296 0.021596467
000030 10 14 2f be e1 35 a3 bd 5f 13 bd bd b6 06 4a bd
       -0.17097497 -0.07969261 -0.0923221 -0.049322806
000040 30 87 da 3b 53 e7 8e bd 83 cb ff bd 84 bc 2f 3e
       0.0066689476 -0.06977715 -0.12489989 0.17161757
000050 22 41 11 bd 70 3b e8 bd f6 d2 32 bc f9 40 fe 3c
       -0.035462506 -0.11339462 -0.010914555 0.03103684
000060 38 18 5f 3d 1b 9d 92 bd be b1 a8 3d 34 83 6b bb
       0.054466456 -0.07158872 0.08237027 -0.0035936357
000070 b7 a4 6e 3d aa d9 c9 bc a0 5d 99 bc 6d 5c 3e 3e
       0.058262553 -0.024639923 -0.018721402 0.18589945
000080 52 f2 a6 3c 8f 7d 9c 3d 8e 3a b1 bd 77 17 02 3d
       0.02037922 0.07641136 -0.086537465 0.03176066
000090 cb 22 e1 bd 71 cb 3f bd fb 4f 45 3d 8b ca e1 bd
       -0.10992964 -0.046824876 0.04817198 -0.1102496
0000a0 8b 13 2f 3c 44 cb da 3d 39 a3 d2 3d 0c 7f 43 bd
       0.010685812 0.10683301 0.102850385 -0.047728583
0000b0 16 06 06 3c 03 41 f5 bd 7e cd 53 3c 1e a6 b3 3c
       0.008180162 -0.119752906 0.012927411 0.021929797
0000c0 ba c4 fd bd 40 a2 ab 3d a1 d8 91 3c 92 f1 22 3c
       -0.12391038 0.08380556 0.017803492 0.00994529
0000d0 8f ff 30 be 5e 61 2d bc 91 7c 34 3d a4 38 2f 3d
       -0.17284988 -0.010582296 0.04406411 0.042778626
0000e0 9d f2 20 3d 23 89 9e 3d 1a 36 d7 bc 08 e4 42 bc
       0.039293874 0.077410005 -0.026270915 -0.011895187
0000f0 e8 cd 90 bd 22 90 ec bd 65 0b da bd e5 0d df bc
       -0.070705235 -0.11550929 -0.106467046 -0.027228305
000100 8c f5 48 bc 91 76 1a bc d1 e1 7b 3b 76 25 83 3d
       -0.012265574 -0.0094276825 0.0038434158 0.064036295
000110 6e 78 db 3c 38 3f 24 3d 80 df 5f bc c0 13 54 bd
       0.026790824 0.040099353 -0.013664126 -0.051776648
000120 e4 9f 55 3d e9 56 db 3d 75 b6 81 3c f1 e3 4b 3d
       0.052154437 0.10709936 0.015834073 0.04977793
000130 5c 6c 51 be 09 59 b0 bd 7b d6 93 bb 4f 05 2f 3d
       -0.20451492 -0.08610732 -0.004511652 0.042729672
000140 c1 7a a7 3c 31 dd ae 3c e1 2b 78 3d 44 f1 15 bd
       0.020444276 0.021345707 0.06058872 -0.036607042
000150 dc 53 db 3c 43 44 6a 3d 27 58 f6 bb 97 25 4b bd
       0.026773386 0.057194006 -0.007517833 -0.049596395
000160 9c 10 62 3d 6e 0e 69 3d ec 56 27 bd 92 35 ff 3c
       0.05519162 0.056898527 -0.04085438 0.031153474
000170 bc ca ee 3c 8f cb 61 3c 2c a3 74 bd 55 5c 5d 3d
       0.029149406 0.013781442 -0.059725925 0.054043133
000180 a1 48 6e bc 36 2e 05 3e f6 ad a1 3d 09 58 10 3d
       -0.014543683 0.1300591 0.078945085 0.035240207
000190 58 a3 b3 3d 73 ba 21 3d 1f f3 b8 3c 2d 2b ad bc
       0.0877139 0.039484452 0.022576867 -0.021138752
0001a0 ff 6f 6a 3e a0 03 71 3d b9 92 ab 3c c2 da 04 3e
       0.22894286 0.058841348 0.020943986 0.12974074
0001b0 1e f8 fa bd ba a2 4f 3c ff c3 6f 3d 7d 2d d7 bd
       -0.12254356 0.012673074 0.058536526 -0.10506723
0001c0 ed a1 2a bc 17 8d 3c bc ba 38 05 3c bb 30 4d 3a
       -0.010414583 -0.011508248 0.0081312 0.0007827391
0001d0 26 6e 55 3c 48 9a ed 3d 53 5c 80 3c ca fe 51 bd
       0.01302675 0.116016924 0.015669024 -0.051268376
0001e0 02 50 b1 3c c1 b9 95 bd db 8e ae 3a f7 dc ee bd
       0.021644596 -0.0731082 0.0013317721 -0.116632394
0001f0 74 d9 42 3d c2 9b 6e bd aa 8d 89 bd 12 fc ba bc
       0.04757066 -0.05825401 -0.067164734 -0.022825275
000200 eb be 21 3e fd a4 67 3d ba fc 5d 3e 4b d3 64 bc
       0.15795486 0.05655383 0.21678439 -0.013966392
000210 84 dd cc 3c fc 81 28 3c 80 1a 99 3d d0 63 bf 3d
       0.02500797 0.010284897 0.074757576 0.093452096
000220 a9 08 0f 3d cf fa b7 3d 1b 77 56 bd b1 3c be 3c
       0.03492037 0.08983385 -0.05235968 0.0232223
000230 da a5 1f 3d da a8 07 bd 0d d5 a4 bd 3e df 39 be
       0.038976528 -0.033120014 -0.08048449 -0.18151566
000240 96 00 8b bd 58 36 11 3d 07 f4 b4 bd d4 21 b3 bd
       -0.06787221 0.035452217 -0.08835607 -0.087466866
000250 70 1e eb bd 04 62 bb bd 64 1b 8d 3d 60 6e 44 3d
       -0.11480415 -0.09149554 0.0688999 0.047956824
000260 3d 01 1c 3d 65 43 b8 3d 60 a0 e5 bc 7a fa 04 3d
       0.03808712 0.089972295 -0.028030574 0.032465436
000270 3d 0e bd bc c3 1f 37 3d 7e f2 c1 3b db 62 e8 3d
       -0.023078078 0.044708025 0.0059188 0.1134698
000280 5b d6 28 3d b9 5c 8d bc 88 0c 94 3d b3 4f e6 bc
       0.04122005 -0.017256128 0.07228953 -0.028114175
000290 a2 a8 70 3d 71 af 00 3d 14 c0 27 3d f7 33 05 bd
       0.05875457 0.031417314 0.040954664 -0.03252026
0002a0 44 e5 98 3d 78 97 91 3d 58 8a bc 3d 25 c0 51 bd
       0.07465604 0.071089685 0.092060745 -0.051208634
0002b0 62 2e 3d bc 87 6b b7 bd e0 e4 55 be c3 57 0f bd
       -0.011546703 -0.08956056 -0.2088809 -0.034995805
0002c0 44 ac 58 3d fd 51 5b 3d ce f1 58 be b5 63 f6 bd
       0.05289866 0.053544987 -0.21185991 -0.12030736
0002d0 43 b4 b4 3d f7 21 af 3d a6 a4 27 3c 66 07 bd b8
       0.08823445 0.085514 0.010232126 -9.0136e-05
0002e0 5d 9a 81 bd a3 f1 b3 3c c5 7e 2f bd a7 d4 34 3d
       -0.063282706 0.021965807 -0.042845506 0.044148114
0002f0 d6 ce b9 bd 76 51 34 3d 42 2f 27 bb aa 20 ce 3d
       -0.09072654 0.044023 -0.0025510346 0.10064824
000300 bf 98 72 bd ee 60 80 3d e4 ad 70 3d 4e 96 ac 3b
       -0.0592277 0.06268488 0.058759585 0.005266941
000310 0b 47 a3 bc 3f ba 27 3d 75 0c 24 3d 74 ee 25 bd
       -0.019931337 0.040949102 0.040050942 -0.04051061

layers.2.running_mean f4 [200]
000000 fd db 92 3e 70 3c 53 3e 0e 6b ab 3d 43 d0 76 3e
       0.28683463 0.20628524 0.083700284 0.24102883
000010 4b a6 7d 3e 58 84 39 3e f3 90 9a 3e e6 fd 30 3e
       0.24770467 0.18116891 0.30188712 0.17284355
000020 a1 de b8 3d 3e 60 38 3e 43 9a 4f 3d eb 28 86 3e
       0.09026838 0.18005463 0.050684225 0.26203093
000030 28 e3 28 3e 4c 3b 29 3e 9a a5 5f 3e 74 b1 35 3e
       0.16492903 0.16526526 0.21840516 0.17743474
000040 b8 31 ab 3e b3 84 d5 3d 9f 3a 7e 3e e9 d2 13 3e
       0.3343637 0.10425701 0.2482705 0.14435925
000050 23 fd ea 3e 6f aa e6 3d ff 04 4c 3e 47 aa 92 3e
       0.45896253 0.112629764 0.19923781 0.28645536
000060 db a0 5c 3e 13 6a 9a 3e 4b ce a9 3e 23 5c 4d 3d
       0.21545736 0.30159053 0.33165202 0.050136697
000070 18 f7 11 3f 1f 59 91 3e 8b fc 43 3e 02 04 9a 3d
       0.5701766 0.28388306 0.19139306 0.07520296
000080 35 37 32 3e 3f 10 b1 3e 46 8a 04 3e 59 03 85 3e
       0.17403872 0.34582707 0.12943372 0.25979117
000090 c4 97 14 3e 17 65 b4 3e fc ac 39 3e 48 f7 81 3e
       0.14511019 0.35233375 0.18132395 0.25383973
0000a0 21 44 9b 3d 67 6f a6 3d db ed ca 3e 38 3c b9 3e
       0.07581354 0.08126717 0.39634594 0.36178756
0000b0 46 25 db 3d d6 18 84 3e 69 87 0f 3e 85 c3 d3 3d
       0.10700469 0.25800198 0.14016499 0.10340027
0000c0 2a de 07 3e 1a 8f e4 3d 01 5a 7c 3d ef c5 c9 3d
       0.13268343 0.11160107 0.061609272 0.09852206
0000d0 2d 9d 5d 3e 38 f8 d1 3e e0 bc 39 3e 5f fe 0c 3e
       0.21641989 0.41009688 0.18138456 0.1376891
0000e0 16 7e ee 3d b4 5d e4 3e 28 c3 b6 3e 06 26 81 3e
       0.11645143 0.4460274 0.35695767 0.25224322
0000f0 85 dd a1 3e ae 61 3a 3e 60 54 bd 3e e1 96 b4 3d
       0.31614318 0.18201324 0.36978436 0.0881784
000100 ea a1 cd 3e 5e 7c 21 3e c7 89 55 3e aa d4 23 3e
       0.40162593 0.15770099 0.20853339 0.15999094
000110 3e 6c 1c 3e bc 51 62 3e e7 75 59 3e e6 7c 05 3e
       0.15275666 0.22101492 0.21236382 0.13035926
000120 1a 56 b9 3e 68 f2 72 3e 22 18 6f 3e ef 4c e5 3e
       0.36198503 0.23725283 0.2334905 0.44785258
000130 d6 5e 89 3e b4 41 37 3e 66 30 c2 3e cd a1 59 3d
       0.26830167 0.17896158 0.3792755 0.05313282
000140 83 76 db 3d 7a 63 20 3e 23 e8 f3 3d aa 20 a0 3e
       0.10715964 0.15662947 0.11909511 0.3127492
000150 e7 0f 8a 3e 46 5a 41 3d de 78 9e 3e 47 a9 0d 3e
       0.26965258 0.047205232 0.3095159 0.13834105
000160 e5 e5 f6 3d fa 87 76 3e 8e a4 3f 3e a4 40 29 3e
       0.12055568 0.24075308 0.18715116 0.16528565
000170 a7 b5 4f 3e 8c 2c b3 3d 40 42 e5 3e 04 73 54 3d
       0.20284139 0.08748731 0.44777107 0.0518675
000180 34 d0 4f 3e b6 31 fc 3e b6 56 5f 3e 2b 89 d1 3d
       0.20294267 0.49256676 0.21810421 0.10231241
000190 38 93 7d 3e c8 82 79 3e 62 c8 8f 3d 6a 42 2a 3e
       0.24763191 0.24366295 0.07020642 0.16626897
0001a0 b2 57 af 3e ce a3 a2 3e 47 e4 d0 3d f8 59 19 3e
       0.34246594 0.31765598 0.101997904 0.14975727
0001b0 6e fa 91 3e 61 8d 9d 3e a8 b5 30 3e aa 43 9f 3e
       0.28511375 0.30771926 0.17256796 0.3110631
0001c0 e0 93 4d 3e c1 89 47 3e 1e 2c fa 3d ec 2c 54 3e
       0.20075941 0.19486143 0.12215446 0.20720261
0001d0 78 06 6b 3e c2 b0 04 3e 91 19 27 3e 1e 9d d6 3d
       0.22951686 0.12958053 0.16318347 0.104791865
0001e0 37 03 a5 3e cf 5b 28 3e 47 66 90 3e 97 56 d9 3e
       0.32229015 0.16441272 0.2820303 0.42448875
0001f0 42 e0 ad 3e 42 c0 96 3e 8d 03 52 3e 16 06 69 3e
       0.33960158 0.29443556 0.20509167 0.22756228
000200 49 f3 93 3c 71 6c 81 3e 6a 45 90 3e a3 ea 17 3e
       0.018060343 0.25278047 0.2817796 0.148356
000210 c4 8c 8b 3e c6 57 29 3e 9a ea ca 3e 24 a1 75 3d
       0.27255833 0.16537389 0.39632112 0.05996813
000220 56 86 9e 3d db 04 bf 3e 51 d6 54 3e a8 cb 11 3e
       0.07740466 0.37308392 0.2078488 0.14237845
000230 80 ba 81 3e de db 47 3e 24 96 30 3e bf 96 38 3e
       0.253376 0.19517466 0.17244774 0.18026255
000240 38 36 33 3e 71 50 32 3e 78 cd 01 3e be 17 40 3e
       0.17501152 0.17413498 0.12676036 0.18759057
000250 17 dd 3c 3e 0a 0a a5 3e 50 1a 6b 3e 69 32 8f 3e
       0.18443714 0.32234222 0.22959256 0.27968147
000260 73 a7 0b 3e 02 55 95 3e 23 03 68 3e cf 2f 82 3e
       0.13638096 0.29166418 0.22657447 0.254271
000270 b0 ca 29 3e 94 7f 63 3e 08 80 2a 3e 21 7f 63 3e
       0.16581225 0.22216636 0.16650403 0.22216465
000280 f9 3d 8b 3e a1 1d 90 3e 28 39 d6 3e 84 18 29 3e
       0.2719572 0.28147605 0.41840482 0.16513258
000290 ae 73 24 3e df 4e ad 3e a8 e5 31 3e f3 bf 8b 3d
       0.16059753 0.33849236 0.17372763 0.06823721
0002a0 2b 55 7d 3e d1 8f 5d 3e 3a c4 b4 3d 07 2f 9b 3e
       0.2473952 0.21636893 0.0882649 0.30309317
0002b0 1f df cf 3d 6e 8e 2b 3e 45 96 cd 3e f8 e8 8e 3e
       0.10149979 0.16753551 0.4015371 0.27912116
0002c0 0c 5b dc 3e 83 97 c9 3d 64 17 36 3e 10 f9 e8 3d
       0.43038213 0.09843352 0.1778236 0.1137563
0002d0 87 c4 40 3e de d4 66 3e 3b 30 41 3e 07 cc 98 3e
       0.18824969 0.2254214 0.18866055 0.2984316
0002e0 65 17 1f 3e 7d 6d 16 3e 72 01 1a 3e 41 02 47 3e
       0.15536268 0.14690204 0.15039614 0.19434454
0002f0 10 11 7f 3e 94 45 46 3d 8c 8b 33 3e a9 95 32 3e
       0.24908853 0.0484062 0.17533702 0.17439903
000300 bb 35 73 3e da 2a 80 3e 65 2a 43 3e fa 92 c9 3e
       0.23750965 0.25032693 0.19059141 0.39369947
000310 e2 d5 eb 3d 1e 65 e9 3e e6 b4 81 3e 05 6e 56 3e
       0.11515404 0.4558496 0.25333327 0.20940407

layers.2.running_var f4 [200]
000000 0c 79 0c 3e 08 80 74 3d 3a f3 30 3c 7c 85 c1 3d
       0.1371805 0.059692413 0.010800177 0.09449288
000010 c8 b3 92 3d 1a 24 de 3d 11 01 41 3e 94 d1 7e 3d
       0.07163197 0.108467296 0.18848063 0.062211588
000020 ac 7a dd 3c a6 d7 14 3d 47 e0 e9 3b 70 a6 af 3c
       0.027036034 0.03633847 0.0071373316 0.021441668
000030 d4 6d b0 3d 41 cc f5 3c 2d 34 d2 3d 70 e2 8e 3d
       0.08614698 0.030004622 0.10263858 0.06976783
000040 b9 0c d8 3d 19 f3 1e 3d 28 fb bd 3d b3 06 30 3d
       0.10549302 0.038806055 0.0927642 0.04297514
000050 cc 5e 80 3e 36 34 5b 3d 8f 9e 95 3d de bb a6 3d
       0.25072324 0.05351659 0.07305633 0.081413016
000060 41 83 73 3c 95 9b cc 3d ea b0 37 3e 2d b7 06 3c
       0.014862836 0.099906124 0.17938581 0.008222383
000070 1b a5 6a 3e 24 d3 58 3d 99 b0 09 3d a8 ce 43 3d
       0.22914545 0.052935734 0.033615682 0.047804505
000080 45 9c b3 3d 88 fd 27 3e 81 9d 36 3d 2b 4e a5 3d
       0.087700404 0.16405308 0.0445838 0.0807155
000090 6b 6d 81 3d a4 82 43 3e ab 04 28 3c 7e b5 9f 3d
       0.06319698 0.19092804 0.010255019 0.07798289
0000a0 ff 97 cb 3c 29 0d 36 3d 6b d7 20 3e 1a 7e 28 3e
       0.02485275 0.044446144 0.15707175 0.16454354
0000b0 ce d5 2d 3d b2 23 0e 3e 98 18 50 3d 68 3f da 3c
       0.04244023 0.13880804 0.050804704 0.026641563
0000c0 d9 b5 d9 3c 2d 2f 1d 3d 38 a4 14 3d fa 76 1b 3d
       0.02657597 0.03837507 0.036289424 0.03795526
0000d0 02 59 b1 3d 94 b8 20 3e fc 61 34 3c 52 25 4d 3d
       0.08659555 0.15695411 0.011009689 0.05008442
0000e0 66 40 1f 3d 92 aa 8f 3e 56 46 24 3e 01 e3 af 3d
       0.038879775 0.28059822 0.16042456 0.085882194
0000f0 2c dd ee 3d ed c9 8e 3d 4f 08 59 3e 17 29 5c 3c
       0.11663279 0.06972108 0.21194576 0.013437531
000100 86 0b 1c 3e 67 ad 09 3d 46 b4 a1 3d 2d 79 a3 3d
       0.15238771 0.033612635 0.078957126 0.07982097
000110 fc db 98 3d 73 79 82 3c 02 0b 66 3d 35 10 b9 3c
       0.07463834 0.015927052 0.05616284 0.022590736
000120 a8 50 e3 3d f4 e9 2a 3d c0 2c 59 3d 87 fc 63 3e
       0.11099368 0.04172702 0.053021193 0.222643
000130 bf ff f6 3d 2b 7c 98 3d 6e 4d 56 3e e1 43 1e 3d
       0.120604984 0.07445558 0.20927975 0.038638953
000140 b4 81 4a 3d 72 23 3c 3d 62 ea 41 3d c2 e7 16 3e
       0.0494401 0.04593224 0.047342665 0.14736846
000150 d9 12 e6 3d 3c 8c cf 3c 31 4c 66 3d bd 3d 9e 3d
       0.11234064 0.025335424 0.056225006 0.077266194
000160 2b d6 19 3d ad ee 10 3e f6 47 d7 3d 56 ce 6a 3d
       0.037557762 0.14153548 0.10511772 0.057325684
000170 45 84 76 3c 57 15 06 3d e8 c5 59 3e b7 32 af 3c
       0.015046184 0.032735195 0.21266901 0.021386487
000180 13 db af 3c 58 cd 83 3e 4b 5f 9d 3d 49 4e 1e 3d
       0.021466767 0.25742602 0.07684191 0.038648877
000190 b5 05 56 3d 6d 33 b5 3d d8 e3 d9 3c c1 f2 8e 3d
       0.052251536 0.08847699 0.026597902 0.069798954
0001a0 40 23 3e 3e b5 3c e1 3d a4 77 17 3d 26 a1 35 3c
       0.18568134 0.10997907 0.036979333 0.011085784
0001b0 af c1 a3 3d b9 e2 14 3e d3 8a 54 3d 93 7b 25 3e
       0.079959266 0.14539613 0.051890206 0.16160421
0001c0 45 d2 d9 3d ce 3b 98 3d cb da 9e 3c 09 c6 de 3d
       0.10635809 0.07433282 0.019391438 0.10877616
0001d0 c2 cd ec 3d 1f 17 42 3d 42 49 64 3d 4a a5 ec 3c
       0.11562683 0.04738533 0.055733927 0.02888741
0001e0 e3 d0 05 3e cb f2 3f 3d 8d dd a1 3d 6a 94 2e 3e
       0.13067965 0.046862405 0.079035856 0.17048803
0001f0 46 3f ab 3d 95 34 99 3d 99 b5 40 3d 9f 99 b1 3d
       0.08361678 0.07480732 0.047048185 0.08671879
000200 61 bd 05 3c 44 69 a5 3c 82 6e 54 3e 88 0c 56 3d
       0.008162827 0.020191796 0.2074528 0.052258044
000210 09 df ba 3d a9 94 b7 3d b5 8b d5 3d ad fc 87 3b
       0.09124572 0.089639015 0.104270376 0.0041499943
000220 f1 64 0b 3d 47 68 ca 3d 0e 3b 45 3d 1e 1e 43 3d
       0.034031812 0.098831706 0.048152022 0.047636144
000230 62 d3 1d 3e 57 1d be 3d 67 57 76 3d bd e1 bd 3d
       0.15412667 0.0928294 0.060141947 0.09271572
000240 21 e9 c9 3d 52 43 9f 3d df 18 a5 3c 8d 99 b8 3d
       0.09858919 0.07776512 0.020153461 0.090136625
000250 14 67 a4 3d a9 15 35 3e e1 85 fe 3d 74 f3 e1 3d
       0.08027473 0.17684044 0.12427879 0.11032763
000260 6b 36 6a 3d 98 57 0a 3e b1 c7 0b 3d c6 da a6 3c
       0.057180803 0.13509977 0.034125987 0.020367991
000270 0c 2a 66 3d 5b 64 8e 3d 53 5d 83 3d 7c 10 b9 3d
       0.056192443 0.06952735 0.064142846 0.09036347
000280 aa b5 f3 3d 33 03 27 3e c6 22 16 3e 7f 30 d0 3d
       0.11899884 0.16309814 0.14661703 0.101655
000290 32 7e 86 3d c3 c3 32 3e a4 da 85 3d c9 0f dc 3c
       0.065670386 0.1745749 0.06535843 0.026862996
0002a0 eb 90 15 3e 1d 47 d3 3d 06 11 24 3d b1 53 25 3e
       0.14606063 0.10316298 0.040055297 0.16145207
0002b0 68 a5 03 3d ec 34 b8 3d e0 cc 3e 3e 9a 81 15 3e
       0.032140166 0.08994469 0.18632841 0.1460022
0002c0 bd 70 22 3e c3 d4 81 3d 28 9b f7 3d e3 46 5b 3d
       0.15863319 0.06339409 0.120901406 0.0535344
0002d0 8b 83 70 3d fd 18 8c 3c 1f e0 7c 3d f3 c8 3b 3e
       0.0587192 0.01710176 0.061737176 0.18338375
0002e0 11 22 84 3d 7c a3 62 3d a6 26 75 3d e1 b8 b4 3d
       0.0645181 0.055331692 0.05985131 0.08824325
0002f0 89 31 17 3d 07 cd ed 3c 5a 68 59 3d de 3b 2d 3c
       0.036912475 0.029028429 0.053078033 0.0105733555
000300 29 c4 8a 3d 45 c7 ac 3d 15 3d c7 3d d3 ce 90 3d
       0.06775696 0.08436445 0.09728447 0.070706986
000310 b3 94 67 3d d0 ac e5 3d 0a 1a 39 3d 1b 2b 5b 3d
       0.056538295 0.11214602 0.04519085 0.053507905

layers.4.weight f4 [100, 200]
000000 ff bf 91 3d 3b 03 4d 3d 85 8f 86 3c 53 99 56 bc
       0.071166985 0.05005191 0.016425857 -0.013098079
000010 b8 94 33 3d 66 f1 88 bd d7 a8 28 3d ac cf 3a bd
       0.043843 -0.06686668 0.041176643 -0.045608208
000020 fb e5 b6 3d e4 71 92 bc 28 96 b5 bd 15 7b 1e bc
       0.08930584 -0.017876573 -0.08866531 -0.0096729
000030 51 7c c9 bd 4e 15 9c bd 1f e5 8c bc 34 52 37 3c
       -0.098381646 -0.07621251 -0.017199097 0.011189032
000040 9f c3 65 3d ec a5 a7 bd e3 fa ab bd 76 b6 d1 3c
       0.056094762 -0.08185944 -0.08397462 0.0255997
000050 ef 94 95 bc 0e 12 9a 3c 67 8f 93 bc fb 2c 88 3d
       -0.018259494 0.018807437 -0.018012716 0.06649204
000060 4d 77 e5 bd 10 69 4c bd 7e cc 09 3d ad 74 aa bd
       -0.112043954 -0.049904883 0.033642285 -0.083230354
000070 a2 5f aa bc cd b7 de bc a3 db 59 bd a6 55 88 3d
       -0.020797554 -0.027187252 -0.053187978 0.06656961
000080 fa be 93 3d c0 55 f0 bc 06 dd bd 3c 17 4c c4 3d
       0.0721416 -0.029337764 0.023176681 0.095848255
000090 81 07 46 bd a4 a2 00 bd fc 72 bf bd 39 ac 59 3d
       -0.048347 -0.031405106 -0.093481034 0.05314276
0000a0 db a0 9d 3d cc 3c 09 3d 28 b7 9c 3c 5f f4 6f 3d
       0.07696696 0.033505246 0.019130304 0.05858266
0000b0 12 3e 36 bc 05 11 2a 3c f8 76 bb bc be a8 ca 3c
       -0.011123197 0.010380034 -0.022883877 0.024738666
0000c0 51 1c 3b bb 2c 9f c6 bc b9 f8 84 3d 9f 6e 1d 3d
       -0.0028550813 -0.024245821 0.064927526 0.038435575
0000d0 1e bc 24 bd 15 1e 93 3d 07 93 20 bd b5 c9 79 3d
       -0.040218465 0.07183472 -0.039202716 0.06098338
0000e0 df c0 d2 bc a3 fe 03 3d 55 65 4d bc cd 0a 2e bd
       -0.025726734 0.032225262 -0.0125363665 -0.04249077
0000f0 ca 8b f7 bb 0b 87 d3 bc 89 df 74 bc be 4b b1 bd
       -0.007554506 -0.02582123 -0.014945873 -0.08657025
000100 7c 2f 57 bd e4 e3 27 3b d3 c9 9c 3d 0f e1 02 bb
       -0.05253552 0.002561801 0.076556824 -0.001997057
000110 5a 17 bd bc 86 4b d0 bd 1e 65 7c 3b e1 df e2 3c
       -0.023082424 -0.10170655 0.003851242 0.027694644
000120 b7 f8 6e bc 36 66 bf 3d ab 25 6c 3d 6e 1d ac bb
       -0.014585665 0.09345667 0.05765311 -0.0052525317
000130 e5 bd 62 bd 61 d9 42 bd b6 e1 1f 3d d5 6d 0b 3c
       -0.05535688 -0.04757059 0.039033614 0.008510073
000140 f8 a6 9f 3c 25 70 09 3d 1e 31 96 3d 45 d5 e3 bc
       0.019488797 0.033554215 0.07333587 -0.027811656
000150 4f b3 03 3d 00 cb 16 3d 64 fb 6c bd d0 c5 df bc
       0.032153424 0.03681469 -0.057856932 -0.027316004
000160 ab e3 5e 3d a6 c1 10 3d 80 66 64 3d 7d 76 50 3c
       0.05441634 0.035340928 0.055761814 0.012723562
000170 d5 0a 83 bd 83 6a 14 3d e9 49 92 bc fb 43 37 3d
       -0.063985504 0.03623439 -0.017857509 0.044742566
000180 93 03 57 bd 56 a5 17 3d 18 57 29 3c 77 53 ac 3d
       -0.052493643 0.03702291 0.010335706 0.08414357
000190 e4 e6 85 3d 4f 02 f3 3c 6d 78 b7 3c 85 6f 85 bc
       0.065381795 0.029664187 0.02239629 -0.016288528
0001a0 cd 48 d1 3d 9b 1b 21 bd 07 f0 9c bc ba fa 8b bb
       0.10218964 -0.039332967 -0.019157423 -0.0042718323
0001b0 2d 08 50 bd 18 3f cc bc e2 8e a6 3d b3 ce c7 3c
       -0.050789047 -0.02493243 0.081327215 0.024390554
0001c0 b3 ca 7d 3d 16 b8 56 bd 35 b6 f0 bd 76 d5 49 bd
       0.061960887 -0.05242165 -0.11753503 -0.049275838
0001d0 43 d7 70 bd 01 f2 e2 3c ff 00 2f bd eb dc 16 bd
       -0.05879904 0.027703287 -0.04272556 -0.036831778
0001e0 c8 63 83 bc 3c 9a 30 bb 7c c1 68 bc 94 9a 67 bd
       -0.01603879 -0.00269474 -0.0142062865 -0.0565439
0001f0 ea f9 2f 3d 59 3f 97 bd d9 bc 2e 3d f3 ec 82 bd
       0.042962946 -0.073851295 0.042660568 -0.06392851
000200 82 ab 28 3e 2c af 24 bd 12 e0 84 3d a1 82 d6 bc
       0.16471675 -0.04020612 0.064880505 -0.026185336
000210 19 91 aa bc a3 d1 b1 bc 61 2f 36 3d 7b cd 02 bd
       -0.020821141 -0.021706408 0.044478778 -0.031934243
000220 85 8c 2e 3d 14 3b b1 3d fa e1 83 bd aa 3a 84 3c
       0.04261448 0.086538464 -0.06439586 0.016141254
000230 bc 05 dc bc 59 5a 83 3d 09 b3 46 bd 8a 39 a5 bc
       -0.026858203 0.06413717 -0.048510585 -0.020169038
000240 f7 2d 20 3d 49 73 62 3d eb 8b b5 3b 5b 5b 55 bd
       0.039106335 0.055285726 0.005540361 -0.052089076
000250 5f 5c bd 3c 29 70 8e 3b 10 bc 4f 3d 7d cd 26 3c
       0.023115335 0.0043468666 0.05071646 0.010180828
000260 79 09 69 bb b8 b4 96 bb ba 5f 00 bd 2c bc 02 be
       -0.0035558625 -0.00459918 -0.031341292 -0.12767094
000270 17 e2 97 bb d6 a4 70 bc 6d 30 59 bc 46 b9 81 3d
       -0.0046351063 -0.014687737 -0.0132561745 0.06334166
000280 8f 99 1e 3d dd 61 0c bd cd e8 87 3d bc 73 75 bb
       0.038720664 -0.034273017 0.066362 -0.0037453016
000290 f6 37 16 3d f8 f1 fd 39 de 8e 6a 3d 56 8a c8 3c
       0.036674462 0.000484362 0.057265155 0.024480026
0002a0 4a 21 b4 3b e5 4c a5 3b 22 72 50 3d 92 14 1a bb
       0.0054971324 0.005044567 0.050890096 -0.0023510796
0002b0 e3 d1 06 bd da 3a ce ba 0a 4c 9f bc 8a 32 cb bd
       -0.032915007 -0.0015734092 -0.019445438 -0.09921749
0002c0 07 f8 49 3d 4d 42 94 bc 90 c4 52 be 79 f5 23 3d
       0.049308803 -0.01809802 -0.20582795 0.040029023
0002d0 6d e8 88 3d 63 73 5b bd c4 83 b3 3d 65 45 14 3c
       0.06684957 -0.05357684 0.08765367 0.009049748
0002e0 cb 83 4c 3c 88 e2 35 3d 0a e6 9f 3c 7b 81 83 bc
       0.012482594 0.04440549 0.01951887 -0.016052952
0002f0 92 19 92 bd 28 54 ab 3d 3c 58 04 3d ed 43 05 bd
       -0.071337834 0.08365661 0.03231071 -0.032535482
000300 e4 f8 16 3c 26 e7 85 3d 3d 6e 1f 3d b7 ee ad bc
       0.009214614 0.06538229 0.03892349 -0.021231992
000310 c4 84 8d 3c 2d 4e a9 3b b6 d2 cf 3d 73 eb fb 3c
       0.017275222 0.00516679 0.10147612 0.03075192
000320 e1 cf 24 3d 79 58 3c bc 4b 40 e4 bc 2c 15 21 3d
       0.04023731 -0.011495703 -0.027862689 0.03932683
000330 16 e9 a8 bd 94 d1 bf 3c e4 7d 66 3b 12 80 6f 3c
       -0.082475826 0.023415364 0.0035170252 0.014617937
000340 d7 58 35 3d 2f cb 1d bd 0a cd b8 bd a1 c8 b1 bd
       0.044274177 -0.03852385 -0.09023483 -0.08680845
000350 d7 07 d5 bd ee 6d 64 bd 7a 10 8b bc d0 a1 b2 3b
       -0.10401886 -0.0557689 -0.01697563 0.0054514185
000360 ae c2 b0 3c 6d 56 cd 3b b7 29 47 3c 70 04 e1 3c
       0.021577206 0.0062664063 0.012155942 0.027467936
000370 5a a9 2f bd 0d d7 7e 3c 90 10 d0 3c c8 9e 6a 3d
       -0.042886116 0.015554202 0.025398523 0.05728033
000380 c7 63 0c be 48 7d fe 3c f2 3d 47 3b 93 2f c9 3c
       -0.13709937 0.031065598 0.0030401913 0.024558818
000390 4a 25 05 3d b8 e7 19 3d 4f 74 b3 bd 2e f4 d4 3d
       0.032506265 0.0375745 -0.087624185 0.10398136
0003a0 00 1f f7 3d fa 8a 45 3d d9 d8 16 bd 8a de 20 bd
       0.1206646 0.04822824 -0.036827896 -0.03927473
0003b0 a4 ee b6 bc 4b d8 7b bd 2f ae 01 bd 98 ae 3a 3d
       -0.02233059 -0.06148557 -0.031660255 0.04557666
0003c0 db 90 81 3d 52 60 62 3c dd 67 0c 3d d9 d9 e0 3c
       0.06326457 0.01381691 0.03427874 0.027447628
0003d0 d3 48 f9 3c f4 ab 70 3b 06 56 2d 3c a1 3d 1c bb
       0.030430233 0.0036723586 0.010579592 -0.0023840445
0003e0 77 4d e2 3b 37 78 1b bd 42 c9 45 bd f4 7d 08 3d
       0.006906207 -0.037956443 -0.048287638 0.033323243
0003f0 48 e4 cc 3b a2 67 b2 3c 71 29 4c bd 5f 4b 9d 3c
       0.006252799 0.021777932 -0.04984421 0.019200979
