Lectures/04-DL/04-PyTorch/02-ANN-Artificial-Neural-Networks/TaxiFareRegrModel.pt (torch_old, 109634 bytes, 20 tensors)

embeds.0.weight f4 [24, 12]
0	0xbf531eca	-0.82468855
1	0x3e05b27d	0.13056369
2	0xbf239123	-0.63893336
3	0x3ffc9e66	1.9735839
4	0xbf2f2bfb	-0.68426484
5	0xbee33007	-0.4437258
6	0xbe16d32f	-0.14728998
7	0x3f48fc40	0.785099
8	0x3e4c781c	0.19967693
9	0xbf6e47b5	-0.93078166
10	0x3b0c8187	0.002143951
11	0x3f69e470	0.9136419
12	0xbec1233c	-0.37722194
13	0x3d882f64	0.06649664
14	0xc002ff37	-2.046827
15	0x3f57512a	0.8410822
16	0xbfb2288b	-1.3918623
17	0xbf921175	-1.1411577
18	0x3f5ace73	0.85471267
19	0x3f5be930	0.8590269
20	0x3f644cc1	0.8917962
21	0xbd352eb3	-0.04423399
22	0xbefd6fe0	-0.49499416
23	0x3db9370a	0.09043701
24	0xbed0ccc8	-0.40781236
25	0xbe426f77	-0.18987833
26	0x3f3ddcfe	0.7416533
27	0x3f342994	0.70375943
28	0x3fd2b16f	1.6460398
29	0xbf83c035	-1.0293032
30	0xbcdeb046	-0.027183663
31	0xbf44fb29	-0.7694574
32	0xbf5d95d0	-0.8655672
33	0x3e89d2f5	0.2691876
34	0xbf707e18	-0.93942404
35	0xbe8cd922	-0.2750941
36	0xbf77c62c	-0.9678676
37	0x3f348d56	0.7052816
38	0xbebb8a6b	-0.36629042
39	0xbee061fd	-0.4382476
40	0x3ee649d7	0.4497821
41	0xbf3053dd	-0.68877965
42	0xbed1af6a	-0.40954143
43	0xbf47af83	-0.78002185
44	0x3f1717ae	0.5902051
45	0xbf46d8d3	-0.776746
46	0x3fadf380	1.3589935
47	0xbf080111	-0.5312663
48	0x3fa45482	1.283829
49	0x3f666776	0.9000162
50	0xbdcc295c	-0.09968826
51	0xbdb2cd95	-0.08730618
52	0xbdff2f5c	-0.12460205
53	0xbf090369	-0.5352083
54	0x3ebfd8ed	0.3747019
55	0xbd0020ce	-0.031281285
56	0x3f944e4b	1.1586393
57	0xbdbd7fed	-0.092529155
58	0xbf8de3d6	-1.1085155
59	0x3f1bffb9	0.60937077
60	0xbf17e710	-0.5933695
61	0xbeaa2b46	-0.3323614
62	0xbebb2c7b	-0.36557373
63	0x3d5ff0c5	0.054672975
64	0xbf149a77	-0.58048195
65	0x3f46da30	0.7767668
66	0xbf49d394	-0.7883847
67	0xbe2b1785	-0.1670819
68	0x3e9dfa67	0.30855104
69	0x3f27158b	0.65267247
70	0x3faf49b4	1.3694367
71	0x3f342039	0.7036167
72	0x3e73c833	0.23806839
73	0xbf0c1c12	-0.5473033
74	0xbe2bd8c3	-0.16781907
75	0x3d20262a	0.039098896
76	0xc008dcc3	-2.1384742
77	0xbea973af	-0.33096072
78	0x3ffb935f	1.9654349
79	0xbece3aac	-0.40279138
80	0x3f8191e7	1.0122651
81	0x3d420421	0.04736722
82	0xbf2be55c	-0.6714685
83	0x3fb6374b	1.4235624
84	0x3f4ba7e5	0.7955306
85	0xbec182bc	-0.37795055
86	0x400e8428	2.2268162
87	0xbe9d89c4	-0.3076917
88	0xbfc0d8ba	-1.506614
89	0xbd6ee296	-0.058321558
90	0x3c896678	0.016772494
91	0x3edca1b0	0.43092108
92	0x3f6cef7c	0.92552924
93	0xbf3c655a	-0.7359215
94	0x3f4965b5	0.7867082
95	0x3eabbb8d	0.33541527
96	0x3f518103	0.8183748
97	0x3e3ec1b6	0.18628582
98	0xbf3d9743	-0.7405893
99	0x3d306041	0.043060545
100	0xbe6cf6ab	-0.23140971
101	0x3d9222d0	0.07135546
102	0x3f030360	0.51177025
103	0xbeefa387	-0.4680445
104	0x3f216c87	0.63056225
105	0xbfb8d002	-1.4438479
106	0x3fbf6d94	1.4955316
107	0x3e53d85d	0.20688005
108	0x3f3bdd5c	0.7338464
109	0xbf71dd3a	-0.9447819
110	0xbf6c9479	-0.9241405
111	0xbf77a5c2	-0.967373
112	0xbe5b8137	-0.2143601
113	0x3f5d7e7c	0.86521125
114	0xbe549018	-0.20758092
115	0xbe306123	-0.17224555
116	0x3f809c2c	1.004766
117	0x3e985dc3	0.29759035
118	0xbf8d4053	-1.1035255
119	0x3f508e7a	0.814674
120	0x3f06b9ca	0.5262724
121	0x3f5e065a	0.8672844
122	0xbf2bed4d	-0.6715897
123	0x3f9377ae	1.1520898
124	0xbe0435a6	-0.1291109
125	0x3e7f8f20	0.24956942
126	0x3f64cd63	0.89375895
127	0xbea8b2fb	-0.3294905
128	0x3e7abb21	0.24485447
129	0xbf5d30a7	-0.8640236
130	0x3e15f01c	0.14642376
131	0x3f5d7415	0.8650525
132	0x3f1a071e	0.6016711
133	0xbf9585b8	-1.1681433
134	0xbf0c8883	-0.548958
135	0x3e9cfeb6	0.3066308
136	0xbe2e9fa2	-0.17053083
137	0x3e85f7bb	0.26165566
138	0x3f233234	0.6374848
139	0xbed7484c	-0.42047346
140	0xbdec8d1a	-0.115503505
141	0x3f555fb3	0.8334915
142	0xbdae910b	-0.085237585
143	0x3eda1cf7	0.42600223
144	0x3fd36d54	1.6517739
145	0x3e847f06	0.2587816
146	0xbf86fc15	-1.0545679
147	0xbeb0217b	-0.34400544
148	0xbe840614	-0.25785887
149	0x3eb7879f	0.35845658
150	0x3f8c2817	1.0949734
151	0x3f04cef3	0.5187828
152	0xbf1c447c	-0.61042
153	0xbe6eb0a9	-0.23309578
154	0xbf2d57cb	-0.67712086
155	0xc016f217	-2.358526
156	0xbe4d0fbf	-0.20025538
157	0x3f5d2ac3	0.86393374
158	0xbc023505	-0.007947211
159	0xbf22f40a	-0.63653624
160	0xbf175f36	-0.59129655
161	0x3e467fa8	0.19384634
162	0x3fdb03bf	1.7110518
163	0xbf8f2794	-1.1183953
164	0xc0071aca	-2.11101
165	0xbec8b0bb	-0.39197335
166	0xbe8e395b	-0.27778134
167	0xbe805cd3	-0.2507082
168	0xbfd3ac3b	-1.6536936
169	0x3eb323a5	0.34988132
170	0x3fa56633	1.2921814
171	0xbebbff17	-0.36718056
172	0xbf26133a	-0.6487309
173	0x3eebfa5e	0.46089453
174	0x3f11050c	0.56648326
175	0x3e446f9c	0.191832
176	0xbf3bcff3	-0.7336418
177	0x3f09ab8d	0.5377739
178	0x3c9b9e91	0.018996509
179	0xbdb9ec8f	-0.09078323
180	0xbf635e02	-0.8881532
181	0xbe8a34e9	-0.26993492
182	0xbf2cb90b	-0.67469853
183	0xbef63d4f	-0.4809365
184	0xbb48ee21	-0.0030659514
185	0x3eb0416f	0.34424922
186	0xbf742756	-0.9537252
187	0x3f22af78	0.63548994
188	0x3f314b2b	0.6925532
189	0xbec9af79	-0.39391688
190	0xbf1063f3	-0.5640251
191	0xbf1e8159	-0.6191612
192	0x3e919755	0.2843577
193	0x3d85012e	0.06494366
194	0xbe6f8c17	-0.23393284
195	0x3f29553f	0.661457
196	0xbfe5c107	-1.7949532
197	0x3dbaf4c1	0.09128714
198	0xbfb15949	-1.3855373
199	0x3ee81d1b	0.45334706
200	0xbf856a3a	-1.0423043
201	0x3fa8e651	1.3195287
202	0xbee4c46c	-0.44681108
203	0x3ee171f0	0.4403224
204	0xbf7d41f3	-0.98928756
205	0x3e5a9e83	0.2134953
206	0x3f9b2da0	1.2123299
207	0xbd9422ab	-0.07233175
208	0x3e6543e9	0.22389187
209	0xbf55341e	-0.8328265
210	0x3fe71c72	1.8055556
211	0x3ec842a4	0.39113343
212	0x3ed6befc	0.41942585
213	0xbefcea20	-0.49397373
214	0x3ee35409	0.4440005
215	0x3fa0ba62	1.255688
216	0xbe898b4b	-0.26864085
217	0xbeacec02	-0.3377381
218	0xbe81f974	-0.2538563
219	0x3ff9ced6	1.9516246
220	0xbfb108bd	-1.3830792
221	0xbfa4daca	-1.2879269
222	0xbdcf89d7	-0.10133713
223	0xbf554401	-0.8330689
224	0x3f7aa182	0.9790269
225	0xbf5d6e03	-0.8649599
226	0x3f3836f8	0.71958876
227	0x3eb8ed85	0.36118713
228	0xbe1644b1	-0.14674641
229	0xbfafab3b	-1.372413
230	0x3f893ee3	1.0722317
231	0xbf85447f	-1.0411528
232	0x3eae9320	0.34096622
233	0xbec1682e	-0.37774795
234	0xbf1c5f24	-0.61082673
235	0xbf3941f0	-0.7236624
236	0xbf10d9ea	-0.5658251
237	0xbfed2709	-1.8527538
238	0x3e9d6dd8	0.30747867
239	0x3f3ac95e	0.7296351
240	0x3e8a5d28	0.27024198
241	0x3f8b6632	1.0890563
242	0xbe3f6e5b	-0.18694441
243	0x3f50c032	0.81543267
244	0xbf1180e2	-0.56837285
245	0x3fec97da	1.8483841
246	0xbef791ad	-0.4835333
247	0x3f01724e	0.5056504
248	0xbecfe763	-0.40606222
249	0x3fac25c6	1.3449028
250	0x3f67f0ad	0.9060162
251	0xbe38a78e	-0.18032667
252	0x3ec5e747	0.38653013
253	0xbf255d97	-0.6459593
254	0x3f6fa3cd	0.93609315
255	0xbf3eb308	-0.7449193

embeds.1.weight f4 [2, 1]
0	0x3e7fa8a5	0.24966677
1	0xbe83fb06	-0.25777453

embeds.2.weight f4 [7, 4]
0	0x40113791	2.2690165
1	0xbf5e21e9	-0.8677049
2	0x3e7b8a86	0.24564561
3	0xbfae189c	-1.360126
4	0xbeb72564	-0.35770714
5	0xbfb10e03	-1.3832401
6	0xbf00f6c2	-0.5037652
7	0x3e048af2	0.12943628
8	0x3ef3a786	0.47588748
9	0xbfefa5e2	-1.8722498
10	0xbf6b57d6	-0.919309
11	0xbe5f57d1	-0.21810843
12	0xbeb23044	-0.3480245
13	0xbf5176c4	-0.81821847
14	0xbec21909	-0.37909725
15	0x3f5d70ba	0.8650013
16	0x3c08adcf	0.00834222
17	0xbece5522	-0.40299326
18	0x3f5bdb12	0.8588115
19	0xbee30bfa	-0.44345075
20	0xbf569620	-0.8382282
21	0xbefa1f9d	-0.48852244
22	0xbd88a412	-0.06671919
23	0xbdd9a07b	-0.10626312
24	0xbda4825d	-0.08032677
25	0x3f20a82d	0.62756616
26	0xbf4398dd	-0.76405126
27	0xbf78d3c3	-0.9719812

bn_cont.weight f4 [6]
0	0x3f5b6698	0.8570342
1	0x3ebf2e45	0.37339988
2	0x3eb1af04	0.3470384
3	0x3ec523c2	0.38503844
4	0x3f131253	0.57449836
5	0x3f58e510	0.8472452

bn_cont.bias f4 [6]
0	0x3d3ec892	0.046577998
1	0xbe006db6	-0.12541851
2	0x3d7ba7a7	0.061439183
3	0xbe28b988	-0.16477025
4	0x3dc902d3	0.09814992
5	0xbe0a6be2	-0.13517717

bn_cont.running_mean f4 [6]
0	0x42230179	40.75144
1	0xc293f400	-73.97656
2	0x422301bd	40.751698
3	0xc293f2ee	-73.97447
4	0x3fac7109	1.3471996
5	0x4054a512	3.322575

bn_cont.running_var f4 [6]
0	0x3a2ed994	0.0006669995
1	0x3a820c16	0.0009921815
2	0x3a705549	0.0009167982
3	0x3a89990b	0.0010497881
4	0x3f1397e5	0.5765365
5	0x41323337	11.137504

layers.0.weight f4 [200, 23]
0	0xbae5fead	-0.0017547213
1	0xbe27a549	-0.16371645
2	0x3c95e8f9	0.018299567
3	0xbcefb831	-0.029262634
4	0x3d1d23e1	0.038364295
5	0x3c6db064	0.014507387
6	0x3e0c0346	0.13673124
7	0x3da21036	0.07913248
8	0x3d878e04	0.06618884
9	0x3e074f96	0.13213953
10	0x3d8134a4	0.063088685
11	0xbdbc8a65	-0.09206084
12	0x3db3b3c1	0.0877452
13	0xbd3230be	-0.043503515
14	0xbdc339c4	-0.09532502
15	0x3dcf8881	0.10133458
16	0xbd1dc5fc	-0.03851889
17	0x3d3eeb82	0.046611317
18	0x3e1a663e	0.15078065
19	0x3c050e08	0.008121021
20	0x3cb54164	0.022125907
21	0x3ccb97e6	0.024852704
22	0x3e2c16e9	0.16805615
23	0xbc1e695c	-0.009668674
24	0xbc906d0c	-0.017630123
25	0xbcac40ca	-0.021026988
26	0xbb8bed7c	-0.0042702537
27	0x3d00afaa	0.031417526
28	0xbd0d56e6	-0.0345067
29	0x3d2b9870	0.041893423
30	0xbb20c01d	-0.002452857
31	0x3c437626	0.011930024
32	0xbd3938b9	-0.04522011
33	0x3872f028	5.792096e-05
34	0xbbabcd15	-0.0052429535
35	0xbb11035e	-0.002212725
36	0x3c9304ce	0.017946627
37	0xbd03d559	-0.032185886
38	0xbd2667ac	-0.040626213
39	0x3c1dfffe	0.009643553
40	0xbd901e01	-0.07036973
41	0xbe634cdc	-0.22197288
42	0xbe9cca05	-0.3062288
43	0x3e8069d3	0.25080737
44	0x3cf62391	0.030046256
45	0x3e2e64de	0.17030665
46	0xbbddf6e2	-0.0067738155
47	0xbd88a4bd	-0.06672046
48	0xbe1a0eff	-0.15044783
49	0x3dadd66e	0.08488165
50	0xbcd620d7	-0.026138706
51	0xbde39c2a	-0.1111377
52	0xbd7b2717	-0.061316576
53	0xbba97fd0	-0.005172707
54	0xbd0c4326	-0.034243725
55	0x3d2f356f	0.042775568
56	0x3db1efbb	0.08688303
57	0xbe05eb5f	-0.13078068
58	0x3eae6249	0.3405936
59	0xbe3b8307	-0.18311702
60	0xbc808a33	-0.015690899
61	0xbd636d96	-0.05552443
62	0xbca13005	-0.019676218
63	0x3e27aa0c	0.16373461
64	0x3e0ed13d	0.13947006
65	0x3eb24a08	0.34822106
66	0x3df86b7f	0.12129878
67	0xbd8881a6	-0.066653535
68	0xbb1deb0e	-0.0024096402
69	0xbcc75cc7	-0.024336232
70	0x3d815d67	0.06316643
71	0xbd98c2bf	-0.0745902
72	0x3d91a1bd	0.07110927
73	0xbe0ed575	-0.13948615
74	0x3dce782f	0.10081517
75	0x3b34ef0b	0.00276083
76	0x3da51275	0.08060161
77	0x3c844f3f	0.016151069
78	0x3d9f3da0	0.07775426
79	0xbc0769d4	-0.0082649775
80	0xbcc10cbb	-0.02356564
81	0xbde1020f	-0.10986721
82	0x3ca479c7	0.0200776
83	0x3d81973a	0.06327672
84	0x3c3155ae	0.01082365
85	0xb9cddcae	-0.00039265066
86	0xbdf22932	-0.11824264
87	0xbe4ffd8d	-0.20311566
88	0x3da764fe	0.081735596
89	0x3d9dbd63	0.07702138
90	0xbdb7a655	-0.08967272
91	0xbe625331	-0.22102048
92	0xbb134fb8	-0.0022477936
93	0xbcdf4c7b	-0.027258148
94	0x3c7d1e3f	0.015449106
95	0xbbf4c1d6	-0.007469396
96	0x3ad302d4	0.0016098865
97	0xbd05410a	-0.03253273
98	0x3b8933dd	0.004187091
99	0xbc8a4127	-0.01687677
100	0x3bb9f1ea	0.0056745904
101	0xbcb0ddae	-0.02159008
102	0x3b80d298	0.0039313547
103	0xbc2e368e	-0.010633124
104	0xbc749322	-0.014927657
105	0x3bc8cc95	0.0061279037
106	0xbc88c1b9	-0.016693937
107	0xbc1b3a60	-0.009474367
108	0xbb87d364	-0.004145073
109	0xbd67cc88	-0.05659154
110	0x3e8dbbdb	0.27682385
111	0xbe863be8	-0.2621758
112	0x3e751975	0.23935492
113	0xbd5ddb2a	-0.05416409
114	0xbe805a63	-0.2506896
115	0xbcc61803	-0.024181372
116	0x3ddf3fa0	0.109008074
117	0xbcd318c2	-0.025768641
118	0x3d2bc333	0.041934203
119	0xbdc9d84a	-0.09855707
120	0xbc327dab	-0.010894219
121	0x3db8f404	0.09030917
122	0x3e505d5a	0.20348111
123	0x3c867ca1	0.01641685
124	0x3d648b60	0.05579698
125	0x3d92f55b	0.07175704
126	0x3d2dd89d	0.042442907
127	0x3deef7ce	0.11668359
128	0xbce1994f	-0.027538924
129	0xbd09c089	-0.03363088
130	0xbd0221d9	-0.03177056
131	0xbd038b2e	-0.032115154
132	0xbbf3a66c	-0.0074356105
133	0xbe5fe257	-0.21863686
134	0x3dc5ffbb	0.09667917
135	0x3d756352	0.059909172
136	0xbd24a5bd	-0.040197123
137	0xbdef0e5d	-0.116726615
138	0x3dceb7d3	0.100936554
139	0x3ccf53cc	0.025308512
140	0xbcbf59ab	-0.023358187
141	0xba091bdb	-0.0005230286
142	0xbd1a2a48	-0.03763798
143	0xbcb3c70a	-0.021945495
144	0xbc5f4d6d	-0.0136293
145	0x3cc4844d	0.023988867
146	0x3aa4c4da	0.0012570873
147	0x3c8911c4	0.016732104
148	0xbe0dd81c	-0.1385197
149	0x3bb99e6a	0.0056646364
150	0x3e97bf32	0.29638058
151	0x3d0ff5bd	0.035146464
152	0x3ca320f5	0.019913176
153	0x3ce4df7d	0.027938599
154	0xbd0aa7ba	-0.033851363
155	0x3ddee66c	0.10883793
156	0xbe37b9e2	-0.17942002
157	0xbde2cc33	-0.11074104
158	0x3e8f229f	0.279561
159	0xbc7fc2a9	-0.015610375
160	0x3d936ff9	0.071990915
161	0xbd47487e	-0.04865312
162	0x3c079f39	0.008277708
163	0xbce56031	-0.02799997
164	0xbd9681b0	-0.07348955
165	0x3bf33ca2	0.0074229995
166	0xbdecc7ea	-0.11561568
167	0x3dbea1b1	0.09308184
168	0x3db964e7	0.09052449
169	0x3c890753	0.016727125
170	0xbd59995c	-0.05312477
171	0x3b85ff83	0.0040892973
172	0x3cbcc325	0.02304227
173	0x3e1a8126	0.15088329
174	0x3c29f565	0.010373448
175	0xbd2d8d2d	-0.042370964
176	0x3d0c5ea9	0.034269962
177	0xba94f66c	-0.0011364943
178	0xbdeeee4f	-0.116665475
179	0xbe1495a5	-0.1451021
180	0xbdcfc3d0	-0.1014477
181	0xbcf01c7b	-0.029310456
182	0x3d0e6880	0.034767628
183	0xbe2fa36d	-0.17152186
184	0x3a2131c7	0.000614908
185	0x3a596df1	0.00082942756
186	0x39594114	0.00020718976
187	0xba13bbd2	-0.00056355924
188	0xb8217e82	-3.850321e-05
189	0x3a74e966	0.00093426404
190	0x391ca596	0.00014939005
191	0xb9c53f02	-0.00037621713
192	0xb940bc22	-0.00018380632
193	0xba4ff24a	-0.0007932527
194	0xba10be31	-0.0005521505
195	0x38b5d904	8.671175e-05
196	0xbad65e18	-0.0016354946
197	0xb849e1d0	-4.813244e-05
198	0x39ee63c1	0.0004546922
199	0x39f4d07e	0.00046694645
200	0xb91b52ed	-0.00014812844
201	0xbe1b8cea	-0.15190473
202	0xbe2b798a	-0.16745582
203	0x3ee40be8	0.44540334
204	0x3e2a222b	0.16614597
205	0xb9dc3562	-0.00042001443
206	0xbe4d2b40	-0.2003603
207	0x3d086a0d	0.033304263
208	0x3c70e444	0.01470286
209	0x3bf86758	0.007580679
210	0xbdfa4b40	-0.12221384
211	0xbc8a875b	-0.016910246
212	0x3e28e4c5	0.16493519
213	0x3da86796	0.082228824
214	0xbddc4634	-0.10755578
215	0x3e00c123	0.12573676
216	0x3cbee251	0.023301275
217	0x3d412815	0.047157366
218	0xbd30dbec	-0.043178484
219	0x3ddfea8a	0.10933407
220	0x3ced6034	0.028976537
221	0xbbf9c64e	-0.0076225167
222	0xbd4d4c7a	-0.05012176
223	0x3d345ddc	0.044034824
224	0x38ce26f8	9.830104e-05
225	0x3ca95e0a	0.020674724
226	0xbe403fb9	-0.18774308
227	0xbb6de15c	-0.0036297655
228	0xbe29c315	-0.16578324
229	0xbe41d181	-0.18927576
230	0xbad67098	-0.001636046
231	0x3d0b2bf9	0.033977482
232	0x3b1bf91e	0.0023799608
233	0xbd30b6f3	-0.043143224
234	0xbc8fa40c	-0.017534278
235	0x3c231433	0.009953546
236	0xbbf99712	-0.007616886
237	0xbd3dd037	-0.046341147
238	0x3d111073	0.035416078
239	0x3cb00d91	0.021490844
240	0x3c53c45e	0.012925236
241	0x3c2d0691	0.010560648
242	0xbcef39da	-0.02920239
243	0x3bb365f7	0.0054748016
244	0xbb7f9be1	-0.0039002823
245	0xbc54fd23	-0.012999806
246	0xbb964c0d	-0.0045867027
247	0x3c8d5c5f	0.01725596
248	0x3d24de37	0.040250983
249	0xbd3670c3	-0.04454113
250	0xbc5cf83d	-0.013486919
251	0x3c41a81e	0.011819867
252	0xbe4cbc32	-0.19993666
253	0xbc88c1e4	-0.016694017
254	0x3cb3cb36	0.021947484
255	0xbb505245	-0.0031787318

layers.0.bias f4 [200]
0	0x3e2268dd	0.15860315
1	0xbe0ab69d	-0.13546224
2	0x3e51cb16	0.20487627
3	0x3a0bc88c	0.0005332313
4	0x3e3a7c95	0.18211587
5	0xbd0a7571	-0.033803407
6	0xbe955ff0	-0.29174757
7	0x3ea7fbf5	0.32809415
8	0xbe48d513	-0.19612531
9	0x3d23928b	0.039934676
10	0x3dd48588	0.103770316
11	0x3dee64c6	0.11640315
12	0x3e4fe05e	0.20300433
13	0xbe55923e	-0.20856568
14	0xbb7bfed2	-0.0038451445
15	0x3e042ece	0.1290848
16	0x3e0f47a5	0.13992174
17	0x3ca1fed7	0.019774837
18	0x3e386e13	0.1801074
19	0x3abfbed3	0.0014629014
20	0x3de96ce5	0.11397723
21	0x3e4865ba	0.19570056
22	0x3c543796	0.012952706
23	0x3d77efb8	0.060531348
24	0x3c8c87c0	0.017154574
25	0xbdca907b	-0.09890839
26	0xbdee58ce	-0.11638032
27	0x3e3de86f	0.18545698
28	0x3de77d35	0.11303178
29	0x3cd969d0	0.026539713
30	0x3dd2e7cc	0.10298118
31	0x3e04af44	0.12957484
32	0x3e514066	0.20434722
33	0x3e147adc	0.14499992
34	0x3dfb5656	0.12272327
35	0x3ebec7ca	0.37261802
36	0x3ea4b4ff	0.3216934
37	0x3c965bff	0.018354414
38	0x3df6c1c2	0.12048675
39	0x3e35c918	0.17752492
40	0xbd655d10	-0.055996954
41	0xbdc36c13	-0.09542098
42	0x3e191eb7	0.14953123
43	0xbc1047ec	-0.00880621
44	0x3e806cdd	0.25083056
45	0x3e725cae	0.23668167
46	0x3df594a7	0.11991244
47	0x3e3c58e2	0.18393281
48	0x3e3f5066	0.18683013
49	0xbe104a35	-0.14090808
50	0xbd09b06d	-0.03361552
51	0xbe15645f	-0.1458907
52	0x3dd5528c	0.10416135
53	0x3e3ec62d	0.18630286
54	0xbe58bf99	-0.21166839
55	0x3d9cc757	0.076552086
56	0x3e4f1027	0.20221005
57	0xbe1535dc	-0.14571327
58	0xbdde9845	-0.10868887
59	0x3aa935ea	0.0012909744
60	0x3d2bba12	0.041925497
61	0xbdd118f0	-0.102098346
62	0x3d956262	0.07294156
63	0x3d491852	0.04909546
64	0xbe022c74	-0.1271227
65	0x3e66f587	0.22554599
66	0x3e157cdf	0.14598416
67	0x3e4fbf15	0.20287736
68	0x3e5c7f4a	0.21532932
69	0x3e353ae2	0.17698243
70	0x3eba8ebd	0.36437026
71	0x3e5f4ef0	0.21807456
72	0x3e3c2546	0.18373594
73	0x3e479e07	0.19493876
74	0xbe5630af	-0.20917009
75	0xba5f9c8e	-0.00085301034
76	0xbe073fea	-0.13207975
77	0x3df5169c	0.11967203
78	0x3e493c89	0.19651999
79	0x3ead0bbc	0.33798015
80	0xbda4d7f1	-0.08049
81	0x3c8f2e66	0.01747818
82	0x3d799418	0.06093225
83	0x3e862d7a	0.2620657
84	0x3d9c4457	0.07630222
85	0xbe4279b7	-0.18991743
86	0x3d68127b	0.05665825
87	0x3ec646d0	0.387259
88	0x3d98cd8e	0.074610814
89	0xbbe3bfc2	-0.0069503495
90	0x3d96f6f4	0.07371321
91	0x3e695382	0.22785762
92	0xbeaf11e1	-0.34193328
93	0x3e8a87a7	0.2705662
94	0x3e8689c4	0.26276982
95	0xbe1c7be5	-0.15281637
96	0x3dd71460	0.10501933
97	0x3e508cfc	0.20366281
98	0x3e31cc33	0.17363052
99	0xbe37f3dd	-0.1796412
100	0xbd84d727	-0.064863496
101	0xbe1328ab	-0.14370982
102	0x3dc28aac	0.09499106
103	0xbde3fbfd	-0.11132047
104	0x3df28902	0.118425384
105	0x3e3f8eb2	0.18706778
106	0x3c4317b8	0.01190751
107	0xbdbeabad	-0.09310088
108	0x3e93e84b	0.28888163
109	0x3ddcd122	0.107820764
110	0xbeb4daa9	-0.35323074
111	0xbe25ac75	-0.16179068
112	0x3b5bcaee	0.0033537704
113	0x3e80730b	0.2508777
114	0x3de1fe5d	0.11034844
115	0x3e80f116	0.25183934
116	0x3d936a22	0.071979776
117	0x3e6bd018	0.230286
118	0xbe520a77	-0.20511805
119	0x3e6098ae	0.21933243
120	0xbe153a5d	-0.14573045
121	0x3e973312	0.2953115
122	0xbe281d90	-0.16417527
123	0xbe841f62	-0.25805193
124	0xbe025962	-0.1272941
125	0x3d745188	0.059648067
126	0x3d4226dd	0.047400344
127	0x3da80032	0.08203162
128	0x3dda031d	0.10645125
129	0x3e7fc4a5	0.24977358
130	0x3e87685f	0.26446816
131	0xbda995e5	-0.08280543
132	0xbc2056d0	-0.009786323
133	0x3c08e7f4	0.008356083
134	0xbe824d86	-0.2544977
135	0x3e76f704	0.24117666
136	0x3dd88215	0.10571686
137	0xbce264aa	-0.027635891
138	0xbc39e0f7	-0.01134514
139	0xbde1082b	-0.10987886
140	0xbc255630	-0.0100913495
141	0x3e42c122	0.19018987
142	0xbe5156f3	-0.20443325
143	0x3df8a4ba	0.12140794
144	0xbca72782	-0.020404581
145	0x3dc5aee4	0.09652498
146	0x3da74631	0.08167685
147	0x3cbe04ab	0.023195585
148	0xbd80264f	-0.06257307
149	0xbddedd79	-0.10882086
150	0x3bc8d1b3	0.0061285137
151	0xbcd399d8	-0.025830194
152	0x3df955d3	0.12174573
153	0xbc84b4d8	-0.016199514
154	0xbd34699b	-0.044046026
155	0x3dee289c	0.116288394
156	0xbd197516	-0.037465177
157	0x3af19677	0.0018431683
158	0x3dca5b97	0.098807506
159	0xbcc855ae	-0.024454918
160	0xbd6ee976	-0.058328114
161	0xbd9e1936	-0.07719652
162	0xbe12d187	-0.14337741
163	0x3dff7b2f	0.12474667
164	0xbd4df40b	-0.050281566
165	0x3e7aee51	0.24504973
166	0x3e880fe7	0.26574633
167	0xbd9d382c	-0.076767296
168	0xbc7abec0	-0.015304267
169	0x3e482290	0.19544435
170	0xbdc74eeb	-0.09731849
171	0xbccd0e0b	-0.02503111
172	0xbdd74cc5	-0.105126895
173	0x3e9296fb	0.28630814
174	0xbe9e2548	-0.30887818
175	0xbe3482f2	-0.17628077
176	0x3dfaf0d2	0.12252964
177	0xbe112501	-0.14174272
178	0x3db1c567	0.0868023
179	0x3b80a346	0.0039257137
180	0x3e1625d7	0.14662872
181	0x3e2df4d6	0.16987929
182	0x3d72eba4	0.059306756
183	0x3eadd825	0.33953968
184	0x3e8bd571	0.2731128
185	0x3e193d83	0.14964871
186	0x3e1f5d62	0.15562966
187	0x3ca5528c	0.020180963
188	0xbe484235	-0.19556506
189	0x3d3a5dcc	0.045499608
190	0x3e70e0fc	0.23523325
191	0xbde30e83	-0.11086752
192	0x3e71d25f	0.23615406
193	0x3e270d71	0.16313721
194	0x3e2c56a5	0.16829927
195	0xbdaf81e4	-0.085696965
196	0xbde1c519	-0.110239215
197	0x3e8a5a9e	0.2702226
198	0x3e92a18e	0.2863888
199	0xbe74563f	-0.23861025

layers.2.weight f4 [200]
0	0x3f0b984c	0.5452926
1	0x3e3a3f54	0.1818822
2	0x3f666863	0.9000303
3	0x3e5eda80	0.21763039
4	0x3e3d2082	0.18469432
5	0x3f5fdd67	0.8744721
6	0x3f006660	0.5015621
7	0x3f6becf8	0.9215846
8	0x3e80f927	0.25190088
9	0x3f205480	0.62628937
10	0x3f374951	0.71596247
11	0x3e287032	0.16449049
12	0x3e53b39d	0.20673986
13	0x3f68719b	0.9079835
14	0x3ebf9bfb	0.3742369
15	0x3e978979	0.2959707
16	0x3e8df9f2	0.27729756
17	0x3f53708b	0.825936
18	0x3ec34f67	0.38146517
19	0x3ee2d346	0.44301814
20	0x3e5b2044	0.21399027
21	0x3eb26904	0.34845746
22	0xbc136153	-0.008995372
23	0x3eb8dae3	0.36104497
24	0x3f2cab8f	0.6744928
25	0x3f0cb3fb	0.5496213
26	0x3e0fad83	0.14031033
27	0x3eaf861f	0.34282014
28	0x3dd795e2	0.10526635
29	0x3e9e96d3	0.30974445
30	0x3ec359e5	0.38154522
31	0x3f4ebe11	0.8075877
32	0x3f028b9c	0.50994277
33	0x3e381613	0.1797717
34	0x3e9fb010	0.31189013
35	0x3f03fdc9	0.5155912
36	0x3f4526a5	0.7701209
37	0x3eebae42	0.46031386
38	0x3f0d2e51	0.551488
39	0x3e6947a7	0.2278124
40	0x3ebc2a68	0.36751103
41	0x3e8f4fa9	0.27990463
42	0x3f074219	0.5283523
43	0x3ec550d6	0.38538235
44	0x3f08af80	0.5339279
45	0x3f5ed6ed	0.870467
46	0x3f1ab73b	0.6043584
47	0x3e454d8e	0.19267866
48	0x3e84d51a	0.25943834
49	0x3ec77b61	0.38961318
50	0x3f107fb0	0.56444836
51	0x3f4613d9	0.77374035
52	0x3f1a1329	0.60185486
53	0x3e96c0ea	0.29444057
54	0x3f0c86fd	0.54893476
55	0x3f4cb9fb	0.79971284
56	0x3e162c10	0.14665246
57	0x3f1d759e	0.61507595
58	0x3ee4b1a2	0.44666773
59	0x3f5bcb1c	0.85856795
60	0x3f0eab29	0.5572992
61	0xbe2f57de	-0.17123362
62	0x3f4f9f02	0.81102
63	0xbd5bc77a	-0.053657033
64	0x3e8df212	0.27723747
65	0x3f2bf2c8	0.6716733
66	0x3f3e73b5	0.74395305
67	0x3e540626	0.2070547
68	0x3f71999e	0.94375026
69	0x3f3b551c	0.7317674
70	0x3f0b177d	0.54332715
71	0x3e8e1cc3	0.27756318
72	0x3e86dfb2	0.2634254
73	0x3ee6144a	0.44937354
74	0x3e43ff1f	0.1914029
75	0x3f653351	0.8953143
76	0x3f461524	0.7737601
77	0x3f68cc48	0.9093671
78	0x3f61f9c5	0.88271743
79	0x3de4d13a	0.11172719
80	0x3e864456	0.2622401
81	0x3f4c061f	0.7969684
82	0x3f13e555	0.5777181
83	0x3ecdb05a	0.40173608
84	0x3f208635	0.62704784
85	0x3e1910cb	0.14947812
86	0x3e27c6e4	0.16384465
87	0x3f1484cc	0.5801513
88	0x3f545b77	0.82952064
89	0x3f3c8fff	0.7365722
90	0x3ef9050f	0.48636672
91	0x3ea0b770	0.31389952
92	0x3eb05551	0.3444009
93	0x3e4d1b5e	0.20029971
94	0x3f328f0c	0.6974952
95	0x3f65afc0	0.897213
96	0x3ecd7a50	0.4013238
97	0x3f4e3d2e	0.805621
98	0x3f3c8ff2	0.73657143
99	0x3eebba5b	0.46040615
100	0x3f5f4760	0.87218285
101	0x3f1e4561	0.61824614
102	0x3ed6d1d7	0.4195697
103	0x3ef7bdee	0.48387092
104	0x3e493117	0.19647633
105	0x3e9a5b64	0.3014785
106	0x3f5c5f12	0.86082566
107	0x3f33d8f4	0.7025292
108	0x3dd779e0	0.10521293
109	0x3e90eed4	0.2830721
110	0x3e753149	0.23944582
111	0x3f364c1c	0.71209884
112	0x3ee34fc9	0.4439681
113	0x3e800fe0	0.25012112
114	0x3f0e95f7	0.5569758
115	0x3f2402a9	0.6406656
116	0x3f5b1a10	0.85586643
117	0x3f35fec5	0.7109187
118	0x3f4c967b	0.79917115
119	0x3e8667ca	0.2625106
120	0x3f0f9b1c	0.56096053
121	0x3f4c6739	0.79845005
122	0x3f145937	0.5794863
123	0x3eb0c68b	0.34526476
124	0x3f3e4385	0.74321777
125	0x3f5cbacf	0.8622255
126	0x3e21d58e	0.15804121
127	0x3df54ffa	0.11978145
128	0x3f5aeda4	0.8551886
129	0x3e9ef047	0.31042692
130	0x3f0feea2	0.562235
131	0x3f46c194	0.77639127
132	0x3ee94c48	0.4556601
133	0x3f55bff8	0.83496046
134	0xbe27710c	-0.16351718
135	0x3e7bda69	0.24595036
136	0x3e3253e4	0.17414814
137	0x3e77f753	0.2421544
138	0x3ed2cc16	0.4117133
139	0x3ee2f0e0	0.44324398
140	0x3ee9e6e2	0.45683962
141	0x3f1db361	0.61601835
142	0x3f342143	0.70363253
143	0x3f20048f	0.62506956
144	0x3f1eb97d	0.6200178
145	0x3e40bd48	0.18822205
146	0x3f3144ea	0.6924578
147	0x3f43b436	0.76446855
148	0x3f3d39a2	0.73916066
149	0x3f03f6bd	0.5154837
150	0x3f49443a	0.7861973
151	0x3f6d48a2	0.92688954
152	0x3ef2dd8c	0.47434652
153	0x3e91d39d	0.2848176
154	0x3f2a4e8e	0.66526115
155	0x3ec23b6b	0.37935957
156	0x3ede3752	0.4340158
157	0x3f25ce8b	0.64768285
158	0x3f121930	0.57069683
159	0x3f581a5d	0.8441523
160	0x3db7bc1b	0.08971425
161	0x3e2fc9ec	0.17166871
162	0x3f1ebe23	0.62008876
163	0x3f60db31	0.8783446
164	0x3f1613ec	0.5862415
165	0x3f67bee7	0.9052567
166	0x3e933e3e	0.28758425
167	0x3f546f7f	0.8298263
168	0x3f3c1407	0.7346806
169	0x3f3f33e4	0.74688554
170	0x3f0a23a9	0.53960663
171	0x3f6fc8b1	0.93665606
172	0x3d99dd70	0.07512939
173	0x3e21564c	0.15755576
174	0x3db08449	0.086189814
175	0x3f1f7f8d	0.62304
176	0x3f68c54a	0.9092604
177	0x3e89daa8	0.26924634
178	0x3ea572ce	0.32314152
179	0x3f178c5e	0.5919856
180	0x3e1b4362	0.15162423
181	0x3e84544e	0.2584557
182	0x3f5fd0a7	0.87427753
183	0x3f604960	0.8761196
184	0x3e3b6a95	0.18302377
185	0x3f34dc4e	0.7064866
186	0x3ebfa698	0.37431788
187	0x3ea8af5e	0.32946295
188	0x3e9027ca	0.28155357
189	0x3f014551	0.50496393
190	0x3ec5c8d3	0.3862978
191	0x3f3f335f	0.7468776
192	0x3e54ed77	0.2079371
193	0x3e6b7481	0.22993661
194	0x3e7797a7	0.24178945
195	0x3ee3208b	0.44360766
196	0x3f671e09	0.90280205
197	0x3f07a49c	0.5298555
198	0x3f47d45b	0.78058404
199	0x3f23dade	0.6400584

layers.2.bias f4 [200]
0	0xbdd053ce	-0.101722345
1	0xbceeafaf	-0.029136507
2	0xbd925edd	-0.07147
3	0x3dc53b2e	0.09630428
4	0x3dd0ddf4	0.10198584
5	0x3dca5323	0.09879138
6	0xbdd712ed	-0.10501657
7	0x3e09ce81	0.13457681
8	0x3c866a98	0.01640825
9	0x3ddc4974	0.107561976
10	0x3ddc4bb7	0.10756629
11	0x3df4647c	0.119332284
12	0xbd9ac24f	-0.07556593
13	0xbde04800	-0.10951233
14	0x3d86371d	0.06553481
15	0xbd3129bb	-0.043252688
16	0x3db66d04	0.08907512
17	0x3da4c359	0.08045072
18	0xba72cfb9	-0.00092625205
19	0xbdaf8ea4	-0.085721284
20	0xbc42e4e1	-0.011895389
21	0x3e2825d3	0.16420679
22	0x3d917ad3	0.07103505
23	0x3e2cd398	0.16877592
24	0xbdd41994	-0.10356441
25	0xbd71380d	-0.058891345
26	0xbda7c146	-0.08191161
27	0xbde4ba4f	-0.11168348
28	0x3dd36ff3	0.10324087
29	0xbd4f7468	-0.050648123
30	0x3de1e678	0.110302866
31	0x3e02058a	0.12697425
32	0x3e068809	0.13137831
33	0x3dbe3087	0.092865996
34	0xbdd8c8d2	-0.105851784
35	0x3d863283	0.06552603
36	0x3da268d9	0.07930154
37	0x3e30eb4f	0.17277263
38	0x3e0222fd	0.1270866
39	0x3ddb4f46	0.107084796
40	0x3db24d71	0.08706177
41	0x3df0a9dd	0.11751149
42	0x3cfea6c6	0.031085383
43	0x3e145600	0.14485931
44	0x3dde4083	0.108521484
45	0xbdce823b	-0.10083433
46	0xbdca452d	-0.098764755
47	0xbd0b6dd8	-0.034040302
48	0x3d86a67e	0.065747246
49	0xbd25fce0	-0.040524364
50	0x3dc4d2f3	0.09610548
51	0x3df5a898	0.11995047
52	0xbdaa393d	-0.083116986
53	0x3dfe3281	0.124119766
54	0xbdc7bbc2	-0.09752609
55	0xbdc48433	-0.095955275
56	0x3e0a7a58	0.13523233
57	0xbdba00e1	-0.09082199
58	0x3df693fa	0.12039943
59	0xbd91bc04	-0.07115939
60	0x3e13b02f	0.14422677
61	0xbd47b658	-0.04875788
62	0xbdad2dc7	-0.08455997
63	0xbd7c3021	-0.061569337
64	0x3dcfe8b0	0.101518035
65	0xbdf94200	-0.121707916
66	0x3df6baf5	0.12047378
67	0x3d100fde	0.035171382
68	0xbdd08fe5	-0.10183696
69	0xbd868003	-0.06567385
70	0x3dfefef5	0.12450973
71	0x3d7dcae0	0.061961055
72	0x3cce55f5	0.025187472
73	0x3cc4f253	0.02404133
74	0xbdcfa68f	-0.101391904
75	0xbdde948a	-0.10868175
76	0xbd7de5d4	-0.06198676
77	0x3dc9d584	0.09855178
78	0x3dd96ef5	0.106168665
79	0x3d7d7cb1	0.061886493
80	0x3b30ee7b	0.0026997614
81	0x3e18c4db	0.14918844
82	0xbdf33c6b	-0.11876758
83	0xbda860c7	-0.08221584
84	0xbdd47f05	-0.103757896
85	0xbcb44287	-0.022004379
86	0x3dc4bf01	0.096067436
87	0x3d4c81c7	0.049928453
88	0x3da90f4f	0.08254873
89	0xbe076913	-0.13223676
90	0x3e02b95d	0.12766023
91	0x3d418fcd	0.04725628
92	0xbdc5cc4c	-0.09658107
93	0x3dec2b61	0.11531711
94	0x3dd6af7c	0.1048269
95	0xbdee6b8f	-0.11641609
96	0x3e088173	0.13330631
97	0x3dae29d9	0.085040756
98	0x3e069dfe	0.13146207
99	0xbd1cdfe6	-0.038299464
100	0x3e01387f	0.12619208
101	0xbda3811c	-0.0798361
102	0x3e0b8fea	0.13629118
103	0xbd9efc0f	-0.0776292
104	0x3de4e922	0.11177279
105	0x3e3938e3	0.18088107
106	0xbd99a697	-0.075024776
107	0x3dc0281c	0.0938265
108	0xbd59389a	-0.053032495
109	0x3e36d6dc	0.178554
110	0xbd718eac	-0.058973953
111	0xbda16c98	-0.07882041
112	0xbddfe74d	-0.10932789
113	0xbc82de78	-0.015975222
114	0x3e227fa3	0.15869002
115	0x3e0d5eef	0.13805746
116	0xbd841bf8	-0.06450647
117	0x3de0532f	0.10953366
118	0xbd9f856b	-0.07789119
119	0x3e29a817	0.16568027
120	0xbdc9cff1	-0.09854115
121	0x3df16b94	0.11788097
122	0xbdd0cf3d	-0.101957776
123	0xbdc1acdf	-0.09456801
124	0xbdb83400	-0.08994293
125	0xbda83caa	-0.08214696
126	0x3db10295	0.086430706
127	0x3d9a128d	0.075230695
128	0xbddbd5d2	-0.10734142
129	0x3ddcf023	0.1078799
130	0xbd94f2c0	-0.072728634
131	0xbdf66f32	-0.120329276
132	0x3e42c0c3	0.19018845
133	0xbdb792cc	-0.08963546
134	0x3b9bcc42	0.004754574
135	0x3e568dfd	0.20952602
136	0x3dfbe0f0	0.12298763
137	0x3c771516	0.015080711
138	0x3e039203	0.12848668
139	0x3e13ae5f	0.14421986
140	0x3de6aaf3	0.11263075
141	0xbda05929	-0.07829506
142	0xbdd9b130	-0.10629499
143	0xbdd5818a	-0.10425098
144	0xbd09378c	-0.03350024
145	0x3d8ad237	0.067783765
146	0x3e0f0f38	0.13970649
147	0xbddde15f	-0.10834002
148	0xbd24d440	-0.04024148
149	0xbdd39df5	-0.10332862
150	0xbddc527d	-0.10757921
151	0xbdbc638c	-0.091986746
152	0xbdaf4673	-0.08558359
153	0x3dfd53f4	0.123695284
154	0xbd47e2e7	-0.048800375
155	0x3dc89986	0.09794907
156	0x3de9e8e3	0.11421373
157	0x3db8d539	0.09025044
158	0xbde24c25	-0.1104968
159	0x3ddb9b97	0.10723036
160	0xbdc4f790	-0.09617531
161	0x3cc79ea9	0.024367647
162	0xbda06782	-0.078322425
163	0xbd5085a7	-0.05090871
164	0x3e1a1266	0.15046081
165	0xbdd4c09c	-0.103883
166	0x3e57229e	0.21009299
167	0x3dd36c7a	0.10323425
168	0x3db58e70	0.088650584
169	0x3df0beb6	0.11755125
170	0xbdb436e7	-0.08799534
171	0xbdba87c3	-0.09107926
172	0xbdad0555	-0.08448283
173	0xbc18f66f	-0.009336098
174	0xbd4ce570	-0.050023496
175	0xbd98093b	-0.074236356
176	0x3dbbacd5	0.091638245
177	0x3bef6742	0.0073060105
178	0x3e096047	0.13415633
179	0xbda4494b	-0.08021792
180	0xbd0f5457	-0.034992542
181	0x3cc0b762	0.023524944
182	0xbdebd28c	-0.11514768
183	0x3e0d0fb2	0.13775519
184	0xbd42fcb8	-0.047604293
185	0x3e3bdf04	0.18346792
186	0x3e047aff	0.12937544
187	0x3e167457	0.14692818
188	0x3dd15881	0.10221959
189	0x3de865e5	0.1134756
190	0xbd293e54	-0.041319206
191	0x3d81b4c0	0.063333035
192	0x3d1eef6f	0.03880256
193	0xbcb30719	-0.02185397
194	0x3d39113a	0.045182444
195	0x3df66c09	0.12032325
196	0x3dc9ec91	0.098595746
197	0x3e1f2eb9	0.15545167
198	0x3e02f1de	0.12787578
199	0xbdbb2fac	-0.09139952

layers.2.running_mean f4 [200]
0	0x3e6121b8	0.21985519
1	0x3d4d04b8	0.05005333
2	0x3e8817ae	0.26580566
3	0x3e27bb53	0.16380052
4	0x3e270432	0.16310194
5	0x3e3d2015	0.1846927
6	0x3cbbeafa	0.022939194
7	0x3edabeba	0.42723638
8	0x3b0497d3	0.0020232096
9	0x3e3571af	0.17719148
10	0x3e35860c	0.17726916
11	0x3e95e54b	0.292765
12	0x3e2034ea	0.15645185
13	0x3cd32ecf	0.025779156
14	0x3d90cd60	0.07070422
15	0x3e1248bb	0.14285557
16	0x3df639e8	0.120227635
17	0x3e2f461c	0.17116588
18	0x3e1cc9f5	0.15311415
19	0x3e341172	0.1758478
20	0x3e70c3be	0.2351217
21	0x3e845f3f	0.25853917
22	0x3e81ea8a	0.25374252
23	0x3e7da693	0.24770574
24	0x3e23e3ca	0.16004863
25	0x3e28f5d0	0.1650002
26	0x3d905463	0.070473455
27	0x3e12e8ef	0.1434667
28	0x3e7ceb51	0.24699141
29	0x3dc93426	0.098244
30	0x3e2d5c80	0.16929817
31	0x3ebb2608	0.36552453
32	0x3ea916da	0.33025247
33	0x3df74fba	0.120757535
34	0x3e4db049	0.20086779
35	0x3ee0a2f3	0.4387432
36	0x3ec04260	0.3755064
37	0x3e39eebe	0.18157479
38	0x3e25ba45	0.16184337
39	0x3e9d3270	0.30702543
40	0x3e2f5602	0.17122653
41	0x3e3c89cb	0.18411939
42	0x3e738817	0.23782383
43	0x3dfe2f63	0.12411382
44	0x3e921a60	0.28535748
45	0x3e517dec	0.20458192
46	0x3ea855df	0.32878014
47	0x3e8f6d29	0.2801297
48	0x3e2c3bd8	0.16819704
49	0x3d944769	0.07240183
50	0x3e12bc10	0.14329553
51	0x3dde9fec	0.108703464
52	0x3e165a4b	0.14682882
53	0x3ea2d4fd	0.31803122
54	0x3d0e8a33	0.034799766
55	0x3e0949c6	0.13407049
56	0x3eacdb09	0.3376086
57	0x3dd60253	0.10449662
58	0x3e1749dc	0.14774269
59	0x3e2fba5b	0.17160933
60	0x3e0fa0dd	0.14026208
61	0x3d15bf23	0.036559235
62	0x3dd5713c	0.10421988
63	0x3e14a5bb	0.14516346
64	0x3dfdb965	0.12388877
65	0x3e51483c	0.20437711
66	0x3e66dfb7	0.22546278
67	0x3e47e069	0.195192
68	0x3e34b87b	0.17648499
69	0x3e29948a	0.1656057
70	0x3efcb9c2	0.49360472
71	0x3e543947	0.20724975
72	0x3e87cab5	0.2652184
73	0x3e2046e6	0.15652046
74	0x3d3035cb	0.04302005
75	0x3df5cb4d	0.12001667
76	0x3d25f988	0.040521175
77	0x3e79db6f	0.24400114
78	0x3ea69548	0.32535768
79	0x3f03a1cc	0.5141876
80	0x3cc27093	0.02373532
81	0x3d166406	0.036716484
82	0x3e12c881	0.14334299
83	0x3e4f9c77	0.2027453
84	0x3da05f2a	0.07830651
85	0x3d233a37	0.03985044
86	0x3e8ab75c	0.27093017
87	0x3ef3a200	0.47584534
88	0x3e640131	0.2226608
89	0x3dbea95b	0.09309646
90	0x3df1e780	0.11811733
91	0x3e3f24d8	0.18666399
92	0x3c982ca0	0.018575966
93	0x3e9bf624	0.30461228
94	0x3ec7b4b7	0.39005062
95	0x3cfe432e	0.031037893
96	0x3e80c147	0.2514746
97	0x3e8344d5	0.25638452
98	0x3e71fd77	0.23631845
99	0x3d20da4b	0.03927068
100	0x3e8b4d77	0.27207538
101	0x3ce6c928	0.02817209
102	0x3ea4bb4b	0.32174143
103	0x3d316ba0	0.04331553
104	0x3e73e4d5	0.23817761
105	0x3e18eae0	0.14933348
106	0x3e393579	0.18086804
107	0x3e10ed8b	0.14153115
108	0x3e76e645	0.24111278
109	0x3e502959	0.20328273
110	0x3cc04e1f	0.023474751
111	0x3cfd59f4	0.030926682
112	0x3d83ab9d	0.06429217
113	0x3eb1a05d	0.3469266
114	0x3e162915	0.14664109
115	0x3ea8516c	0.3287462
116	0x3dfcfa45	0.123524226
117	0x3eac260f	0.33622786
118	0x3d82b239	0.063816495
119	0x3e9cded8	0.30638766
120	0x3e775206	0.24152383
121	0x3ec00b1e	0.37508482
122	0x3d51e4cc	0.05124359
123	0x3d346850	0.044044793
124	0x3d89705e	0.067108855
125	0x3ec3fa9e	0.38277143
126	0x3e408321	0.18800022
127	0x3e58c5cf	0.21169208
128	0x3e2b0d81	0.1670437
129	0x3ea30d94	0.31846297
130	0x3e408431	0.18800427
131	0x3dbf0a73	0.09328165
132	0x3e0ceae7	0.13761483
133	0x3d9c586c	0.07634053
134	0x3d0fb081	0.035080437
135	0x3e7aa553	0.24477129
136	0x3e366a35	0.17813952
137	0x3d072c20	0.033001065
138	0x3e125fe2	0.14294389
139	0x3ddc828a	0.10767086
140	0x3e44c4c8	0.19215691
141	0x3e3e0e65	0.18560179
142	0x3d12bcaa	0.035824455
143	0x3e412297	0.18860851
144	0x3e00cf24	0.12579018
145	0x3df42fbd	0.11923168
146	0x3e0a7818	0.13522375
147	0x3d998bb1	0.07497347
148	0x3d956304	0.07294276
149	0x3d951c14	0.07280746
150	0x3db1a044	0.08673146
151	0x3d890ffd	0.06692503
152	0x3e05d763	0.13070445
153	0x3e4255f4	0.18978101
154	0x3d9992c6	0.07498698
155	0x3e74ee99	0.23919143
156	0x3e368e4c	0.1782772
157	0x3d09c50a	0.033635177
158	0x3dcb3a9f	0.099232905
159	0x3e1bb308	0.15205014
160	0x3d92c5f7	0.07166665
161	0x3ddf97d0	0.10917628
162	0x3d12a18e	0.0357986
163	0x3ea56cc2	0.32309538
164	0x3d8d359a	0.06894989
165	0x3e48e535	0.19618686
166	0x3e751e38	0.23937309
167	0x3e3955dd	0.1809916
168	0x3e2783cb	0.16358869
169	0x3ee41b8f	0.44552276
170	0x3d748d0b	0.05970482
171	0x3d984bdc	0.07436344
172	0x3d667a76	0.05626913
173	0x3ec0faf7	0.3769147
174	0x3c8d501f	0.017250119
175	0x3d5f4669	0.054510508
176	0x3e5a0449	0.21290697
177	0x3b0ddd37	0.0021646747
178	0x3e90c6aa	0.2827657
179	0x3dee6d72	0.11641969
180	0x3e83b908	0.25727105
181	0x3e1b9add	0.15195794
182	0x3e2fb739	0.17159738
183	0x3ee18330	0.440454
184	0x3e5929bb	0.21207325
185	0x3e68add2	0.22722557
186	0x3ec62440	0.38699532
187	0x3e5923b0	0.2120502
188	0x3d782ecd	0.060591508
189	0x3d5d0dd4	0.053968266
190	0x3e37b2ca	0.17939296
191	0x3c565e9a	0.013084078
192	0x3e5086df	0.20363949
193	0x3e142668	0.14467776
194	0x3e193cde	0.14964625
195	0x3e18a63e	0.14907166
196	0x3dba2eb8	0.09090942
197	0x3ea515ec	0.32243288
198	0x3eba74f5	0.36417356
199	0x3cd0583c	0.025432698

layers.2.running_var f4 [200]
0	0x3d862ba7	0.06551295
1	0x3ce89097	0.028389258
2	0x3db9fc8a	0.09081371
3	0x3d3fab10	0.046793997
4	0x3cbf3df7	0.023344977
5	0x3d2cc6b1	0.042181674
6	0x3c15009e	0.009094385
7	0x3d8ff7b0	0.070296645
8	0x378ee226	1.7033028e-05
9	0x3d244921	0.040108804
10	0x3c575e5c	0.013145056
11	0x3d1ae81c	0.037819013
12	0x3d43192d	0.04763143
13	0x3c848751	0.016177805
14	0x3cc05fb2	0.023483131
15	0x3d5cb0ff	0.053879734
16	0x3cdc4964	0.026890464
17	0x3d87d0b3	0.06631603
18	0x3d9ffb7a	0.07811637
19	0x3d6da7b0	0.058021247
20	0x3cb781db	0.022400787
21	0x3d89cc2f	0.06728398
22	0x3e2f091e	0.17093322
23	0x3d133f7c	0.035949215
24	0x3d95b767	0.07310372
25	0x3d97b600	0.074077606
26	0x3d3fe4ec	0.046849176
27	0x3d53d615	0.051717836
28	0x3da8b2a0	0.08237195
29	0x3d4c7e06	0.049924873
30	0x3d452ddd	0.04813944
31	0x3e0fadf0	0.14031196
32	0x3dd98e9b	0.10622903
33	0x3cb9d6bb	0.0226854
34	0x3d5aedb7	0.05344936
35	0x3cc766c5	0.024340997
36	0x3cc95e87	0.024581207
37	0x3ca6f69a	0.02038126
38	0x3d03677f	0.032081123
39	0x3d091b47	0.03347328
40	0x3d8a8f89	0.067656584
41	0x3dac8667	0.08424073
42	0x3c9242d6	0.017854135
43	0x3ca4f7ec	0.02013775
44	0x3d73fd90	0.059567988
45	0x3d502476	0.05081602
46	0x3e166443	0.14686684
47	0x3cc6123c	0.024178617
48	0x3d49d966	0.049279593
49	0x3d7f545d	0.062336314
50	0x3d6c74f5	0.057728726
51	0x3d104057	0.03521761
52	0x3d8c9e27	0.06866103
53	0x3db09d5c	0.08623764
54	0x3ca189cc	0.019719027
55	0x3d9143b7	0.07092994
56	0x3ce03d99	0.027373122
57	0x3cfea29d	0.0310834
58	0x3d174673	0.03693242
59	0x3d9ad50a	0.07560165
60	0x3cb40902	0.021976952
61	0x3b41d78c	0.002957794
62	0x3d4bdb75	0.049769837
63	0x3d3cc526	0.046086453
64	0x3cc66d2c	0.02422198
65	0x3d9910a7	0.07473879
66	0x3d43824d	0.047731686
67	0x3c5c8b50	0.013460949
68	0x3d70b104	0.058762565
69	0x3d3e186d	0.046410013
70	0x3d1f53e0	0.03889835
71	0x3d98cbcc	0.07460746
72	0x3cb900fc	0.022583477
73	0x3d5b366c	0.053518698
74	0x3cdca5d6	0.026934545
75	0x3d286cd8	0.041119426
76	0x3ccd5c5d	0.025068456
77	0x3d9882a0	0.0744679
78	0x3dd32b1c	0.10310957
79	0x3d6da4b6	0.05801841
80	0x3b871d41	0.0041233604
81	0x3c2217cd	0.00989337
82	0x3d9ff85e	0.07811044
83	0x3d9c3f3e	0.0762925
84	0x3d359b48	0.04433754
85	0x3c774fd2	0.015094714
86	0x3d84c724	0.064832956
87	0x3d01643d	0.031589735
88	0x3d8af2ae	0.06784569
89	0x3d2b2e7a	0.04179237
90	0x3cd5e3a1	0.026109518
91	0x3d99c664	0.07508543
92	0x3c2bec62	0.01049337
93	0x3ce1a4d4	0.027544416
94	0x3d57b91c	0.05266677
95	0x3c885bfc	0.016645424
96	0x3d6edf32	0.058318324
97	0x3dc6d697	0.097088985
98	0x3c982fe6	0.018577527
99	0x3cb31fd7	0.021865768
100	0x3dc44802	0.09584047
101	0x3c857b2e	0.016294088
102	0x3df2c297	0.11853521
103	0x3c812dcc	0.015768908
104	0x3d01f537	0.031727996
105	0x3cc9f4ed	0.024652923
106	0x3d82cfaf	0.06387269
107	0x3d3a8338	0.045535296
108	0x3dda191c	0.106493205
109	0x3d2cefa2	0.04222072
110	0x3c0b1aa3	0.008490237
111	0x3c829de2	0.015944425
112	0x3cec2157	0.028824491
113	0x3d06a159	0.032868717
114	0x3d157c4a	0.036495484
115	0x3dac1257	0.084019355
116	0x3dc80232	0.09766044
117	0x3dcbc845	0.09950308
118	0x3cf0980a	0.029369373
119	0x3d84409b	0.06457635
120	0x3e42a523	0.19008307
121	0x3cfda97d	0.030964607
122	0x3cb80d8e	0.0224674
123	0x3d0145b5	0.03156062
124	0x3d0aef84	0.033919826
125	0x3e25b40f	0.16181968
126	0x3cf3384c	0.02968993
127	0x3d087660	0.033316016
128	0x3da57e36	0.080807135
129	0x3ceb5025	0.02872474
130	0x3d96a1ac	0.07355055
131	0x3d1aab4e	0.037761025
132	0x3c5aa5d5	0.0133452015
133	0x3d5f170d	0.054465342
134	0x3cce084e	0.025150444
135	0x3d150d4d	0.036389638
136	0x3c84dcac	0.016218506
137	0x3be8ca88	0.0071042217
138	0x3d6460c9	0.055756364
139	0x3ca658e1	0.020306053
140	0x3d60a281	0.054842476
141	0x3d5c6e6c	0.053816244
142	0x3c94a529	0.01814516
143	0x3d92770a	0.07151611
144	0x3c8327cd	0.01601019
145	0x3c979b39	0.018506633
146	0x3c58f242	0.0132413525
147	0x3cf5993b	0.029980293
148	0x3d841951	0.06450141
149	0x3d30927d	0.043108452
150	0x3cc13765	0.023585984
151	0x3ce656fc	0.02811765
152	0x3d66bf42	0.05633474
153	0x3d259665	0.04042663
154	0x3d5f76fd	0.054556835
155	0x3c9f0060	0.019409359
156	0x3d685ea1	0.05673087
157	0x3c6ab8d7	0.014326296
158	0x3d355ca9	0.04427782
159	0x3d42e51a	0.04758177
160	0x3d617ce5	0.05505075
161	0x3c0ca248	0.008583613
162	0x3c9cb5fd	0.019129748
163	0x3dda87e1	0.10670448
164	0x3bab96b3	0.0052364706
165	0x3d901eaa	0.07037099
166	0x3cdf197a	0.027233828
167	0x3d8bb0d7	0.06820839
168	0x3d232b9a	0.039836504
169	0x3de5580d	0.11198435
170	0x3d290777	0.041266885
171	0x3d403d59	0.046933506
172	0x3d2a8532	0.04163093
173	0x3d044a6b	0.032297533
174	0x3c157fab	0.009124677
175	0x3c907505	0.017633924
176	0x3d2514fe	0.040303223
177	0x37d554e4	2.5431109e-05
178	0x3d1e76dc	0.038687572
179	0x3d4613a9	0.048358593
180	0x3cc701cb	0.024292847
181	0x3d1de15a	0.03854499
182	0x3d930676	0.07178967
183	0x3d5c5a67	0.053797152
184	0x3dacf64d	0.08445416
185	0x3cc29941	0.023754718
186	0x3dd1a03b	0.1023564
187	0x3d27c8bf	0.04096293
188	0x3c9744e9	0.018465476
189	0x3c844877	0.016147835
190	0x3d858a64	0.065205365
191	0x3b5252a2	0.003209271
192	0x3da0cfef	0.0785216
193	0x3d85772b	0.0651687
194	0x3d221efb	0.039580327
195	0x3d400048	0.04687527
196	0x3cf8c193	0.03036574
197	0x3d3f2eb6	0.046675406
198	0x3dac4313	0.08411231
199	0x3c413466	0.011792278

layers.4.weight f4 [100, 200]
0	0xbc838ed0	-0.01605931
1	0xbd901ccd	-0.07036743
2	0x3d008b70	0.031382978
3	0xbe544a4a	-0.20731464
4	0xbe4ba2c2	-0.19886306
5	0xbc25d208	-0.010120876
6	0x3d3ae94e	0.045632653
7	0x3b0628ad	0.0020471022
8	0xbeba194f	-0.36347434
9	0x3c131082	0.008976104
10	0x3c0fc9fe	0.008776186
11	0xbe1e0846	-0.15432844
12	0x3c28bccc	0.010298919
13	0x3c9bc546	0.019014966
14	0xbbfd9b76	-0.0077394797
15	0xbd0cc532	-0.034367748
16	0xbd8061aa	-0.06268628
17	0xbc3b5fca	-0.011436412
18	0xbc8e64bd	-0.01738202
19	0x3d325336	0.043536387
20	0xbc8bd7d2	-0.017070685
21	0x3c9ec7fe	0.019382473
22	0x3da7d3a0	0.08194661
23	0xbd49e1c3	-0.04928757
24	0xbd914b5d	-0.070944525
25	0xbe3fdc6e	-0.18736431
26	0x3dd56d7d	0.10421274
27	0x3d6d401c	0.057922468
28	0x3d9552a8	0.07291156
29	0x3ca6eff0	0.020378083
30	0x3c126705	0.008935695
31	0xbc635574	-0.013875354
32	0xbc12a0fe	-0.008949516
33	0xbeb94c7a	-0.3619116
34	0xbe11291d	-0.1417584
35	0xbd3863de	-0.045017116
36	0xbb617c49	-0.0034406355
37	0xbdd0e1c9	-0.10199315
38	0xbcded742	-0.027202252
39	0xbda47ad9	-0.08031244
40	0xbb0fb140	-0.0021925718
41	0x3d899c84	0.06719306
42	0xbc748db3	-0.014926362
43	0xbdc894c7	-0.09794002
44	0xbacd088a	-0.0015642804
45	0xbce33140	-0.027733445
46	0xbcba37e5	-0.02273173
47	0x3c86e66c	0.016467296
48	0xbdbc1cfc	-0.09185216
49	0xbda145da	-0.07874651
50	0xbcba6914	-0.022755183
51	0xbc85eb95	-0.016347686
52	0xbd4e5817	-0.050376978
53	0xbd40e4cc	-0.047093198
54	0xbd8870d8	-0.06662148
55	0xbd65006e	-0.055908613
56	0xbe18c438	-0.14918602
57	0xbd6a8181	-0.05725241
58	0xbd92ae5a	-0.07162161
59	0xbdd8cf44	-0.10586408
60	0xbde59c6a	-0.11211474
61	0x3e9d9ae1	0.30782226
62	0xbd188aec	-0.03724186
63	0x3d218a75	0.039438684
64	0xbdc00964	-0.09376791
65	0x3d0c2291	0.034212653
66	0xbc8a15d0	-0.016856104
67	0xbe0e5587	-0.13899814
68	0x3c99a304	0.01875449
69	0xbd2c3b9b	-0.04204903
70	0x3d087078	0.033310384
71	0xbe1aafdb	-0.15106146
72	0xbceb313e	-0.028710004
73	0x3be14a2b	0.0068752966
74	0x3e426717	0.18984638
75	0xbc489806	-0.012243276
76	0x3c2b888f	0.01046957
77	0xbc9c8f9a	-0.019111443
78	0x3cb1f68d	0.02172401
79	0xbe1fa223	-0.15589194
80	0x3e6467ca	0.22305217
81	0xbe4ffd3c	-0.20311445
82	0x3cb28cfe	0.021795746
83	0x3bf337a9	0.0074224067
84	0xbc51c388	-0.012802966
85	0xbdd63dcb	-0.10461005
86	0xbca28207	-0.019837392
87	0xbcbb025d	-0.022828275
88	0x3b0f9536	0.0021909005
89	0xbc0c9f5b	-0.008582915
90	0x3bea5103	0.0071507706
91	0xbc35edb0	-0.011104032
92	0xbe203e67	-0.15648805
93	0xbe0dc6ec	-0.13845414
94	0xbc5cb8c5	-0.013471787
95	0x3ce663d9	0.028123783
96	0xbcb916b1	-0.022593828
97	0x3d837e48	0.064205706
98	0xbcd50fe8	-0.026008561
99	0x3c128749	0.008943387
100	0xbce2e248	-0.02769579
101	0x3d82d735	0.06388704
102	0xbde580dd	-0.11206219
103	0xbd86f5f2	-0.06589879
104	0xbe17faa8	-0.14841712
105	0xbe326bb6	-0.17423901
106	0xbcd4f8d6	-0.02599756
107	0x3c129710	0.008947149
108	0x3dc0fcd7	0.094232254
109	0xbe293144	-0.165227
110	0xbe7822bc	-0.24232
111	0x3cbba874	0.022907473
112	0xbb90b468	-0.0044160374
113	0x3bfac547	0.007652912
114	0xbd55f385	-0.05223419
115	0xbd8ffc22	-0.070305124
116	0xbd610a44	-0.05494143
117	0x3d132cc1	0.035931353
118	0x3cda8c8a	0.026678342
119	0x3b96f009	0.004606251
120	0xbdb562e2	-0.08856751
121	0xbc50e4ce	-0.012749864
122	0xbdb71664	-0.089398175
123	0x3ca5202d	0.020156944
124	0xbd5dadf4	-0.054120973
125	0xbc8d5250	-0.017251164
126	0xbe0d351f	-0.13789795
127	0x3ba1a8ef	0.0049334685
128	0xbd287c08	-0.04113391
129	0xbd81326e	-0.06308447
130	0x3d068edf	0.032851096
131	0xbc14a6ae	-0.009072943
132	0xbe52522a	-0.20539156
133	0xbc7d664d	-0.015466285
134	0x3d2ac667	0.041693117
135	0xbe10adfe	-0.14128873
136	0xbe0f671c	-0.14004177
137	0x3e01986c	0.126558
138	0xbc098f41	-0.008395971
139	0x3ca66ea4	0.02031643
140	0x3c2bc890	0.01048483
141	0xbc733103	-0.014843228
142	0x3c084a83	0.008318546
143	0xbc962d2d	-0.018332088
144	0xbdfc1b39	-0.1230988
145	0xbe3a0de1	-0.18169357
146	0xbd2b7566	-0.041860007
147	0xbba01f69	-0.004886557
148	0x3d009df5	0.03140064
149	0xbd876597	-0.066111736
150	0x3c6b3cc9	0.014357754
151	0xbdcefa9e	-0.10106395
152	0xbd83564e	-0.06412946
153	0xbd77f186	-0.06053307
154	0xbdad74d0	-0.08469546
155	0xbcccd400	-0.025003433
156	0x3b46370e	0.0030245217
157	0xbe4deeeb	-0.20110671
158	0xbcca9cfe	-0.024733063
159	0xbcafd924	-0.021465845
160	0x3e66de1d	0.22545667
161	0xbe84dc12	-0.2594915
162	0x3d01fe4e	0.031736664
163	0x3b673cc8	0.0035284031
164	0xbdc8cbd3	-0.098045014
165	0xbd129b2c	-0.035792515
166	0xbdd65705	-0.104658164
167	0x3d0a1a1e	0.033716314
168	0x3c230020	0.00994876
169	0xbbaef3eb	-0.005339136
170	0x3b1a6d55	0.0023563702
171	0xbc0fedb3	-0.008784699
172	0x3e34c84e	0.17654535
173	0x3cc8387b	0.024440994
174	0x3dca1a3a	0.098682836
175	0x3d4aafc7	0.04948404
176	0x3d01751e	0.031605832
177	0xbe9afab7	-0.30269405
178	0xbcade918	-0.021229312
179	0xbc37202d	-0.011177105
180	0x3d740d67	0.059583094
181	0x3d3ae080	0.045624256
182	0x3add2534	0.0016872049
183	0xbd3fb253	-0.046800923
184	0x3d8675b8	0.06565422
185	0xbdb01032	-0.08596839
186	0xbd17b4d6	-0.037037693
187	0xbda0f4ee	-0.07859217
188	0x3d29a89e	0.04142057
189	0xbd3596c5	-0.04433324
190	0x3cf6e464	0.030138202
191	0x3d059bcb	0.03261928
192	0xbd96e557	-0.07367962
193	0xbd26f221	-0.040758256
194	0x3d175e11	0.036954943
195	0xbd5de796	-0.054175936
196	0xbbd6264b	-0.0065353266
197	0xbd428f10	-0.047499716
198	0x3ce97a48	0.028500691
199	0xbbcd1da8	-0.006259639
200	0xbc19f532	-0.009396838
201	0x3c69f034	0.01427846
202	0xbba7aaff	-0.00511682
203	0x3c215e06	0.009849077
204	0xbe1916b8	-0.14950073
205	0xbbacdaba	-0.0052750977
206	0x3d1e7894	0.03868921
207	0x3c20f07e	0.009822963
208	0xbe2ed623	-0.17073874
209	0xbcecf3c9	-0.02892484
210	0xbddd51da	-0.108066276
211	0x3ae0254e	0.0017100961
212	0x3c003120	0.007824212
213	0x3cd9fc58	0.026609585
214	0xbd5d3514	-0.054005697
215	0x3d95cf3e	0.07314919
216	0x3dfb4f34	0.12270966
217	0xbc72a994	-0.014810938
218	0x3d59c8cf	0.05317002
219	0xbc6bbd1d	-0.01438835
220	0xbe198f07	-0.14995967
221	0xbb95de04	-0.0045735855
222	0xbbac4457	-0.00525717
223	0xbd6a8657	-0.057257023
224	0x3ced7673	0.028987145
225	0x3c01135e	0.007878153
226	0x3e067e18	0.13134038
227	0x3cb7550a	0.022379417
228	0x3d260c92	0.04053933
229	0xbc043898	-0.008070134
230	0x3cc758b0	0.024334282
231	0x3d2ae019	0.041717622
232	0xbc0df022	-0.008663209
233	0xbe1a7a92	-0.1508582
234	0x3da031e6	0.07822017
235	0xbbe606b5	-0.0070198425
236	0xbd9491aa	-0.07254346
237	0xbc590fd7	-0.013248405
238	0xbd71f493	-0.059071135
239	0xbc4e57a5	-0.012594138
240	0x3d3cbbcb	0.04607753
241	0x3d5d1f36	0.053984843
242	0xbdcce4b3	-0.100045584
243	0x3c16546b	0.0091754
244	0xbd8373da	-0.06418581
245	0x3d22dec6	0.039763235
246	0x3bcc0126	0.006225723
247	0xbdc5980f	-0.096481435
248	0x3d8d58a9	0.06901676
249	0xbadfdbd1	-0.001707906
250	0xba9210c7	-0.0011143916
251	0xbcc03534	-0.02346287
252	0xbc9e45cb	-0.01932039
253	0xbcef20ec	-0.029190503
254	0x3a33dec7	0.00068615045
255	0xbcb5d7fe	-0.02219772

layers.4.bias f4 [100]
0	0xbe27a838	-0.16372764
1	0x3deaeed2	0.114713326
2	0x3e7a0ded	0.24419375
3	0x3e0861d6	0.13318571
4	0x3c66f6c3	0.0140969185
5	0xbe5928b4	-0.21206933
6	0xbd64cee4	-0.05586137
7	0xbda34d17	-0.07973688
8	0x3d8b2069	0.06793291
9	0xbd149cbb	-0.036282282
10	0x3d3ef0e6	0.046616457
11	0x3d49ec54	0.049297646
12	0x3d3c8c36	0.046032153
13	0x3d35e75c	0.044410095
14	0x3d5c98db	0.05385671
15	0x3e50e352	0.20399216
16	0xbe18a1da	-0.14905491
17	0x3e3699be	0.17832085
18	0x3c88e82d	0.016712273
19	0x3d429065	0.047500987
20	0xbcf88b4c	-0.03033986
21	0x3aaccdd5	0.0013183901
22	0x3e5db166	0.21649703
23	0x3e05915b	0.1304373
24	0x3ccc04e7	0.024904681
25	0x3e7b8a22	0.24564412
26	0xbc722004	-0.014778141
27	0x3e01e357	0.1268438
28	0x3ba7d6cb	0.005122041
29	0x3e0e8480	0.13917732
30	0x3bf64109	0.007515077
31	0x3e20f4c3	0.15718369
32	0xbdab2261	-0.08356167
33	0xbdabfc29	-0.08397705
34	0xbdd97807	-0.106185965
35	0xbd754302	-0.059878357
36	0x3dc88a20	0.0979197
37	0x3e3d1a83	0.18467145
38	0x3d924880	0.071427345
39	0xbdb10669	-0.08643801
40	0x3dfb1015	0.12258927
41	0x3e2d86d8	0.1694597
42	0x3e352407	0.17689525
43	0x3e3ea19c	0.18616337
44	0x3c00acec	0.007853728
45	0x3cbf97b7	0.023387773
46	0x3e00d8f0	0.12582755
47	0xbbb869bb	-0.0056278384
48	0xbdce0e4c	-0.10061321
49	0xbe3c9e2a	-0.1841971
50	0x3e40b718	0.18819845
51	0x3e0996ba	0.13436404
52	0x3c911acd	0.017712975
53	0x3d05eab6	0.03269454
54	0x3d3e36c1	0.046438936
55	0x3e0e7257	0.13910805
56	0x3de242a7	0.11047869
57	0xbd017023	-0.031601083
58	0x3d9088a1	0.0705731
59	0x3e14ec24	0.14543205
60	0x3db19fdc	0.08673069
61	0x3dbcf0c4	0.0922561
62	0xbb0a8f0a	-0.0021142387
63	0xbc81b13c	-0.015831582
64	0x3dbe1025	0.09280423
65	0xbdf1e012	-0.11810316
66	0x3dee3490	0.11631119
67	0x3c8a33a2	0.016870324
68	0xbb9b1e0f	-0.004733808
69	0xbce3c0c3	-0.027801877
70	0x3bac7812	0.005263337
71	0x3da5bc8d	0.08092604
72	0xbe3d9f33	-0.18517761
73	0x3de75aa7	0.112965874
74	0x3e17cfb9	0.14825334
75	0xbe902d5c	-0.28159606
76	0xbb6208d4	-0.0034490125
77	0x3d5f62ae	0.054537468
78	0x3e109890	0.14120698
79	0x3de4c301	0.111700065
80	0x3debc94b	0.11513003
81	0xbd261f50	-0.040557206
82	0x3e13b7a4	0.14425522
83	0x3e5b1f2c	0.2139861
84	0x3d8e8c66	0.069603726
85	0x3dee0f50	0.116240144
86	0xb9a0523c	-0.00030578848
87	0x3e80c7f6	0.25152558
88	0x3deaafb0	0.11459291
89	0x3de250af	0.110505454
90	0xbcc35501	-0.023844244
91	0xbd7deadf	-0.06199157
92	0x3b90f34f	0.004423536
93	0x3e7bcc2d	0.24589606
94	0x3daca9b1	0.084308036
95	0xbd53b138	-0.05168268
96	0x3e0ee5e8	0.1395489
97	0x3e43c96e	0.19119808
98	0x3e4aa78a	0.19790474
99	0xbe899e78	-0.26878715
