Lectures/04-DL/04-PyTorch/03-CNN-Convolutional-Neural-Networks/CIFAR10-CNN-Model-master.pt (torch_old, 326728 bytes, 10 tensors)

conv1.weight f4 [6, 3, 3, 3]
00000000: ad22 2f3e b53d a13d 3b3c 7bbe dec0 c03e
00000010: 9871 60bd 985f 0cbf 03b0 423e dd59 87bd
00000020: ff25 89be 51ba aa3e b1a4 7e3c cb88 bdbe
00000030: f76e a93e 6fe1 2e3e d7c3 77be 8e56 823d
00000040: 752f 633e 9c75 0ebe 9b41 803e 298b bcbd
00000050: 371b 1fbe 9efe 803e cb64 54bd 41c9 e0be
00000060: c786 2a3e e8c7 ef3d cc7c a6be b188 9fbe
00000070: 8bd0 29be d1d3 793d 65b1 c8bd f9f2 0b3e
00000080: 0015 00be 16aa 86be a88c a3be 7e93 d2be
00000090: 7525 ec3d c826 4f3e 5ea0 5a3e 4dec af3d
000000a0: ed61 793e 81fe 823e 6d25 4e3d 3808 0dbd
000000b0: 90ff 40be f9a4 293e caab fa3c 1527 953d
000000c0: a320 ad3e c97a 643e bce0 933d 2488 99bd
000000d0: bcc0 7fbe e441 98be e85e 7abe 41af a9be
000000e0: 6756 a4be 7902 8a3c 4e47 be3c 8b6e 67be
000000f0: 132e 3d3e 2aa5 043d 25e3 063e 9373 9ebe
00000100: 9e1d 46be b247 5fbc 57cb 81be 9c4c 4abe
00000110: 78d4 ec3d fcf0 0cbe e799 a23d e75b 39be
00000120: 35a0 553d 4f8a b73e 791a 8e3e 32f6 3d3e
00000130: 2437 be3e 9920 be3e 4900 dd3b 687d 9e3e
00000140: 119c 873e 4f19 97be 3fda aebe fc9d 2a3d
00000150: e8b6 223e f503 b13d 6da0 cf3e 9305 f93d
00000160: 7cff de3e 1935 bd3e 7cbb 11be 6cf9 0bbf
00000170: 3649 9bbe 1288 8d3d cfaf 64be 9142 09bd
00000180: 8030 8e3d 834a 5a3e 6f42 383e 4e46 4cbe
00000190: 4f0c a6be a6e6 abbc 5add 4b3d 482f 273d
000001a0: 0c71 bcbd 6cb7 583e d139 a43d e82b afbb
000001b0: 9c94 04be 603e 853d e279 d53d 89d5 993c
000001c0: 477d 44be 5dee 383d 721f d5bd 0ade 103d
000001d0: ca24 2dbc 7639 45be 9911 503d 0613 52bd
000001e0: f51b fcbd e0bd 0fbe e1d3 743d 36f6 e0bd
000001f0: cb5d 57be 0e69 38be f2ba 7abd 746a 483e
00000200: 50c4 36be eef4 8bbd 45a9 02be 3e5f b63c
00000210: f967 2abe 8320 ae3d 5f13 1fbe ea47 77be
00000220: 0d49 bcbe 3007 85be 6936 aabd ae6c fc3d
00000230: 936d af3d 8bca 1a3d 3542 263e c69e f0bb
00000240: ac77 943e 303f 7039 efaa 243e 5c23 d53e
00000250: 8659 c33c adc3 963d 09b6 0d3e e629 153e
00000260: 31f1 543e 6a4a 503e 5f4b 373e 4b82 633e
00000270: 8339 cd3d 6530 00bd a320 36be 394e da3c
00000280: 43a7 793d 5a6f 9abe
0.17103072 0.07873098 -0.24534695 0.37647146 -0.05479583 -0.54833364 0.19012456 -0.06608937
-0.267868 0.33345273 0.015542195 -0.37018427 0.33092472 0.17078184 -0.241958 0.06364165
0.22186072 -0.13912052 0.25050053 -0.0920623 -0.15537725 0.25194257 -0.051853936 -0.43903545
0.16652976 0.11708051 -0.32517087 -0.31158975 -0.16583459 0.06099302 -0.0979946 0.13666905
-0.12508011 -0.2630164 -0.3194325 -0.41128153 0.11530582 0.20229638 0.21350238 0.08589993
0.24353762 0.25584796 0.05032866 -0.034431666 -0.1884749 0.16566838 0.030599494 0.07282845
0.33813962 0.22312464 0.07220599 -0.0749667 -0.24975866 -0.2973777 -0.24450266 -0.3314152
-0.3209717 0.016846882 0.02322736 -0.22600763 0.18474607 0.032384075 0.13172586 -0.3094755
-0.19347236 -0.013627933 -0.25350448 -0.19755787 0.11563963 -0.13763803 0.07939511 -0.18101464
0.05215474 0.3584771 0.27754572 0.18550947 0.37151444 0.37134245 0.0067444188 0.30955052
0.26486257 -0.29511496 -0.34150884 0.041654572 0.15890086 0.08643333 0.40552083 0.12159266
0.43554294 0.36954573 -0.14231676 -0.5467746 -0.30329293 0.06910719 -0.2233269 -0.03351075
0.069428444 0.21317486 0.17994092 -0.19948694 -0.32431266 -0.020984005 0.049771644 0.040816575
-0.092012495 0.2116372 0.0801884 -0.00534581 -0.12947315 0.06506038 0.10423638 0.01877858
-0.19188415 0.045149196 -0.10406388 0.035368003 -0.010567853 -0.19260201 0.050798032 -0.051287673
-0.1231002 -0.14037275 0.059772376 -0.10984461 -0.21031873 -0.18008825 -0.06121344 0.19571859
-0.17848325 -0.06833826 -0.12759884 0.022262212 -0.16641225 0.08502295 -0.15534733 -0.24148527
-0.36774483 -0.25982046 -0.08311159 0.123254165 0.085658215 0.037790816 0.16236193 -0.007343146
0.28997552 0.00022911723 0.16080831 0.4162854 0.023846399 0.07361541 0.13838972 0.14566764
0.20795132 0.20340887 0.17899846 0.22217672 0.10020735 -0.031296153 -0.17785887 0.026648628
0.06095053 -0.3016308

conv1.bias f4 [6]
00000000: 6bbc 363e 9e3a f23d ac6d c03d 8645 db3b
00000010: 03a5 0cbe 6b23 2dbe
0.17845313 0.118275866 0.09395918 0.0066916374 -0.13734822 -0.16908042

conv2.weight f4 [16, 6, 3, 3]
00000000: 4b01 74bb 2683 9fbd de01 00be 5f53 8fbc
00000010: 6877 d43b 7d68 68bd b58d 5cbd d20f 7bbd
00000020: 4d24 62bd 9925 b9bd d733 2dbd 8e4f b1bd
00000030: eee5 04bc 4b26 c7bd 7f0f e4bc 1016 49bd
00000040: 54aa 4bbc 68ff fcbd e273 483d 9ecf f2bd
00000050: ff31 45bd 0f7a 913c 1300 b33b 3bba 803c
00000060: cd10 d7bb 5702 ef3c a801 bdbd 5188 c2bd
00000070: a3bc 553d 13d6 2dbe b3da e13c 3591 18be
00000080: a0e4 d63c b52b e5bd 4d63 1abc 8acd 11be
00000090: 787e a03c 2c37 9fbd b815 fdbc 3a2d 023e
000000a0: 0537 05be 9061 82bc fc90 ce3d 4424 df3d
000000b0: a414 6c3d 08ff 473c 11ae 23be ff4f 543c
000000c0: 08d2 46bc 2e0d 24bd 0013 853d e93c 0bbe
000000d0: f5be 9d3c ffe4 1fbc 71cc d73d 682e 17bd
000000e0: 1149 0cbe 12a2 1b3d 8870 d3be da29 1dbf
000000f0: ce28 acbe d44c 23bf 5211 7ebe bca5 063f
00000100: d502 3fbe cbc4 a5be ba6e 863e 10ff 38be
00000110: 28d3 fabd 26ad 8a3d 21f5 26be c80d 0dbd
00000120: d74b 2ebe e42e 47be 6808 d13d ae20 c4be
00000130: 26fe cbbd 477a a63e ea12 64bd 6ecc ff3d
00000140: 8f5e bd3e 0670 b8be 68a9 34be 7194 ac3e
00000150: 45dd 32be 47b9 893e 4601 c63d 72a0 d63d
00000160: 8aa2 743e d902 7abe ecb2 19bd 9cb0 fb3d
00000170: b0e0 863d edd4 77bd 8095 4ebd 3ab7 593d
00000180: 509e e73d 059b 57bd ceb9 843d 881d 443d
00000190: a1de 953a 8e33 f8bb 85f1 a5be 3691 93be
000001a0: f86a 923e aa31 03bf 5a76 69bd ce1c e63e
000001b0: 4142 b93d d4df cabc 3afa afbb f3c6 013f
000001c0: f14b 5cbe 3771 c23e 7404 1f3e 60b0 9b3b
000001d0: 22a1 a13e b62c 063d bdae 59be b198 3ebe
000001e0: 2530 143e 0a59 963e b279 5d3e cae3 75be
000001f0: 9886 e33d 0a61 873e c939 923b 551f 203e
00000200: 543a 56be f859 0c3e 4e61 463e 01e0 3bbe
00000210: 4ec5 7cbe 253d 93bc ead5 9abc 860e 27bd
00000220: 2703 a7bd 3657 77bc 2398 233d bd77 a5be
00000230: 31bf b2bc 142c 7e3e 3a20 1d3e 5c7c 1e3e
00000240: 138d c4bd a688 5cbc e3a0 b1bd 4e4b 8a3d
00000250: fc26 1b3e 685d 28bd 65dd a83d f68f c73b
00000260: 9852 47bd 9302 44bd 4d8f cd3c 87f8 123d
00000270: b446 c9be f4a1 edbd 1d52 113d d5f3 afbe
00000280: 5597 17be 7669 b6be 2b52 1dbe 938d 4bbe
00000290: a00a c0bd ef79 89be 6856 a4be d745 40be
000002a0: 4a51 a93b f3f2 5dbe 6101 053c 9376 703c
000002b0: 9ef1 29bd 7b3b 9d3e c862 acbe ea1a cbbe
000002c0: 3ff5 5dbe e8b4 073e 7f06 6a3e 4a80 033e
000002d0: 4ba2 b93e e989 8f3e 364e 823e 88d8 813d
000002e0: adcb 8ebe b18e c1be 2be7 7dbc c90c f4bd
000002f0: 9ae5 d7bd 6535 593e fa0f 083e ef87 543e
00000300: 366b 493e 49ec fc3d 94d7 2b3d 1a45 47be
00000310: e2af f3ba 95f2 1cbe 42af a6bd 6db9 07bd
00000320: 1b42 35bd f530 35bd 0e14 23bd 8fe0 893d
00000330: e6a8 b7bd 6b86 123e 4d48 e3bc ec52 e63e
00000340: e49a 2b3e 39c0 0d3e 9370 c43e 846e 2dbe
00000350: 479e a9be 7325 0c3b 7301 a4be 5638 1ebf
00000360: 4912 03be d007 1b3c e891 8f3d fb68 5a3d
00000370: b1c2 38be 4bbc 00bd 5392 22be a7c9 dbbd
00000380: ac95 57bc 4a13 863c b78b 3e3e fc2e 503e
00000390: d828 8ebe 1df5 99be 2940 12be f18b 943d
000003a0: 4536 ca3e d8ba 183e 32f0 53be 8990 89be
000003b0: 99ef 2cbe 308f 883d d4ea fb3d e5dc 253e
000003c0: b5a6 353e a351 bd3c 05f8 293e 28a8 353d
000003d0: 694d 03be 93d2 44be b462 d73e 60fb bc3e
000003e0: 87f5 e63e 81a7 abbe e007 ecbe bd8f 5dbe
000003f0: 4fe9 adbb ba90 81bb 329e b43c e070 9ebd
-0.0037232216 -0.077886865 -0.12500712 -0.01749581 0.006483961 -0.056740273 -0.05384608 -0.061294384
-0.0552104 -0.09040374 -0.042285766 -0.08657752 -0.00811146 -0.09724101 -0.02783942 -0.049093306
-0.012430746 -0.123534024 0.04893864 -0.11856006 -0.048143383 0.017758397 0.0054626553 0.015713802
-0.006563282 0.02917592 -0.092288315 -0.094986565 0.05218185 -0.16976194 0.027570104 -0.14899142
0.026232064 -0.11189977 -0.009423089 -0.14238563 0.019591555 -0.07774195 -0.030894145 0.12712565
-0.1300927 -0.015915662 0.10086247 0.10895589 0.057636872 0.0122068 -0.1598437 0.012958526
-0.012135036 -0.04005163 0.064977646 -0.13597454 0.019256094 -0.009759187 0.10537041 -0.03690949
-0.13699748 0.03799636 -0.41296792 -0.61391985 -0.33624882 -0.63789105 -0.24811295 0.5259664
-0.18653424 -0.32376704 0.26256353 -0.18066049 -0.12247306 0.06771307 -0.16304447 -0.03443697
-0.17021118 -0.19451481 0.102066815 -0.38306183 -0.09960584 0.32515165 -0.0556821 0.12490164
0.36986205 -0.36022967 -0.17642748 0.33707002 -0.1746722 0.26899168 0.09668212 0.10479821
0.23890129 -0.24415149 -0.03752415 0.12289545 0.065858245 -0.060505796 -0.050435543 0.053153254
0.113094926 -0.052638073 0.06480752 0.047879726 0.0011434146 -0.007574505 -0.32410827 -0.28821725
0.28597236 -0.51247656 -0.056997634 0.4494385 0.0904584 -0.024764933 -0.0053704055 0.506942
-0.21513344 0.37977 0.15529042 0.00475125 0.31568247 0.032757483 -0.21258064 -0.18612935
0.1447149 0.29364806 0.21628454 -0.24012676 0.11109656 0.26441222 0.004462455 0.15636952
-0.20920688 0.13706195 0.19373056 -0.1834717 -0.24684641 -0.017973492 -0.01890083 -0.040785335
-0.08154898 -0.015096476 0.03994001 -0.32317916 -0.021819683 0.24821502 0.15344325 0.15477127
-0.0959722 -0.013460314 -0.08673265 0.067526445 0.1515159 -0.041104704 0.08245353 0.0060901595
-0.048662752 -0.047854017 0.025092745 0.035881545 -0.39311755 -0.11603156 0.0354787 -0.34365717
-0.14803822 -0.35627335 -0.15363376 -0.19878225 -0.093770266 -0.2685084 -0.32097173 -0.18776642
0.005167161 -0.21674709 0.008118005 0.014676708 -0.04149019 0.30709442 -0.33669114 -0.3966897
-0.21675585 0.13252604 0.2285404 0.12841907 0.36256632 0.28034905 0.25450295 0.06340128
-0.27889767 -0.37804177 -0.015497009 -0.11916501 -0.1054184 0.21211775 0.13287345 0.2075498
0.19669804 0.12349755 0.04195364 -0.19459954 -0.0018591846 -0.15326913 -0.081388965 -0.03313582
-0.044252496 -0.044236142 -0.039814048 0.06732284 -0.08967762 0.14309089 -0.027744437 0.4498514
0.16758305 0.13842858 0.38367137 -0.1693669 -0.3312857 0.0021384626 -0.32032356 -0.6180471
-0.12799944 0.009462312 0.07010251 0.053322773 -0.18043019 -0.03142957 -0.15876131 -0.107318215
-0.013158243 0.01636662 0.18607984 0.20330423 -0.27765536 -0.3006982 -0.14282288 0.07253254
0.3949453 0.14915025 -0.20697096 -0.26868084 -0.16888274 0.06667936 0.12300649 0.16197546
0.17739375 0.023110216 0.16598518 0.04434982 -0.12822498 -0.19220953 0.42067492 0.36910534
0.45109197 -0.33526233 -0.46099758 -0.21636863 -0.0053073536 -0.0039540203 0.02204809 -0.07736373

conv2.bias f4 [16]
00000000: 05a1 fbbd e68d 633e 1583 42be 3724 ff3d
00000010: 4319 b8bd 79b2 043e be15 2bbe e625 043c
00000020: 08bd 64bd 4fe5 0abe b0f3 363c 8da9 d83e
00000030: 8736 05be d240 ca3c ea59 8a3e 408b e5bc
-0.122865714 0.22222099 -0.18995316 0.12458079 -0.08989193 0.12958707 -0.16707513 0.008065676
-0.055844337 -0.13564037 0.011166498 0.42316857 -0.13009082 0.024689112 0.27021724 -0.028020501

fc1.weight f4 [120, 576]
00000000: ef79 213d 801c 6c3c a60e e93c 1e0d eebc
00000010: 3092 70bb 9439 0dbc 8004 12bb 003b ddbc
00000020: 10fb 4d3c 88c4 d2bc f60b ac3c b8e0 10bd
00000030: 6205 c63c 9b84 efbc b833 e0bc 16e6 74bc
00000040: 8cf2 14bc ca40 1abd d7c9 093d 20a1 eb3a
00000050: 7c90 333c 20f6 7dbc c0dc 82bb 1e07 a3bc
00000060: 0802 afbc 98b5 e8bc d220 e33c c69c c4bc
00000070: 3608 31bc 0033 a2bb abc5 063d 3227 27bc
00000080: a7b7 1d3d 4267 ec3c fe57 b33c de87 d03c
00000090: d9b0 18bc 9414 803c 64b6 a3bd d458 dcbc
000000a0: 28a7 71bd a3c7 d83b 8b8f 8ebd 762b 2abd
000000b0: d5d7 15bc d376 ae3b bd9b 533a 92be 5dbd
000000c0: b929 a0bd 8248 1fbd 2a53 60bd bed2 da3c
000000d0: 9b85 3abd 405a bfbc b055 5dbc 38f4 66bd
000000e0: 959d 5cbd 0634 1fbd a50e 50bb 08d8 943b
000000f0: e2de 863d ae2f 1ebd e919 d23b 94f5 6cbc
00000100: c519 d5bc 1451 a4bd e88d 0dbd 476c 39bd
00000110: efa5 5c3c 127a ebbc c90d 97bd 1ca2 7b3d
00000120: 5812 84bc 654a ee3b 6a28 c23c 7de4 77bd
00000130: 2574 9039 7b82 30bd 7ff3 893c 7557 8dbc
00000140: 5fff babc e98f b53b 9cae 423c 8982 7dbd
00000150: dfbf 173c 8307 e2bc fd18 83bc 1d34 dfbc
00000160: d777 44bc 9d11 8dbd 407e 9ebd d188 61bc
00000170: 4e91 0a3d 7630 03bd 8c07 f9bc 3398 31bd
00000180: 7ab5 40bd a6db 623c 0072 4a3d 8fa8 543d
00000190: 48ad eb3c 5c7b 733b ad54 d2bc 7ec8 a2bc
000001a0: 7740 dbbc fc33 06bc 50b3 7a3b bea3 3d3d
000001b0: 2954 86bd 4947 80bd 5f60 a5bb 0ace bcbc
000001c0: 076d 93bc a7b8 88bd 85fd 19bd 1d1f 82bb
000001d0: dab9 21bc 61ef 81bd 6db6 35bd a444 2ebd
000001e0: 599b 6dbd cb35 f2bc ae5d 4c3b e060 54bd
000001f0: d5bc 79bd c83c f7bb 1244 33bd ed80 13bd
00000200: 2799 2cbd 59e4 48bd 90db bbbc 7613 7dbd
00000210: 3c0a 94bd 5635 223c 0a3b 97bc e5d3 eeba
00000220: 82b5 86bd 04d9 84bd 19be f8bc 002c 4c3c
00000230: d098 3239 e854 4a3d 513d c53b e1d7 22bd
00000240: be24 3dbd d9f0 9abc f009 b8bc 25d7 3138
00000250: e990 17bd bc40 aabb b6b0 52bd 0506 0abb
00000260: 4480 5bbc 8d14 6cbd d03f 8bbd 6a8f dabb
00000270: bc0c eebc aaff 56bd 2a5d c73b 158a 6ebd
00000280: d6d3 4cbd 0384 dfbc 1433 e0bc 33ff fbbc
00000290: 07f7 743c 50c6 afbc 0a3b d03b cf7d a7bc
000002a0: 40db 073c 8669 c93c 53ed f2bc 4810 663c
000002b0: 6a84 7dbc f0c3 55bb 6ca2 edbc ed08 babb
000002c0: 8211 69bd f4b2 133d 65c0 573d 1130 893c
000002d0: 47de 1a3d b05a 8b3c 729e 3e3c e9c4 7e3c
000002e0: 2f4d cf3c ffb3 a33c d490 2bbd da71 83bd
000002f0: 9acd e7bb 78b2 e33c 0d35 1dbd 6453 6cbd
00000300: ad3e 08bd b5d3 65bd 0ca1 24bc 8773 6ebb
00000310: d008 5dbc c4f5 05bd ef27 943c 26dd 5cbd
00000320: 2df0 11bc 6aee c53c af68 6abd 5203 91bd
00000330: dac5 36bc 80ca 58bb 205b f4ba 8471 2fbd
00000340: 0304 34bd 59d9 ddbc fec9 963c ae28 40bd
00000350: 9fda 27bb 7554 66bd 70e6 6dbd 5fe2 a23c
00000360: 568a 91bc 8a98 81bd cdba 07bd 2b57 1cbc
00000370: 647b 35bd 73ba 03bd 240c 5fbb 4832 08bd
00000380: 7f41 24bc da34 8abd 8be5 9f3d b753 73bd
00000390: 3982 33bd 92ff 97ba ea2e 40bc 906e 30bc
000003a0: 9648 fdbb e95b 4a3b 32e1 313c 5875 68bd
000003b0: 139c 0dbd 9fa8 4cbc 9b75 693c 26d3 95bc
000003c0: c9bc 91bc 614e 19bc ffba 6abd db51 9abc
000003d0: ee0b db3b c966 50bd 3014 d3bb 9cfa 6fbd
000003e0: 03e3 39bd 318d 81bd b4fa 01bc c928 19bc
000003f0: f76f 52bd 6c1a 44bd 0ab5 a73c 1c8e b9bb
0.039422926 0.014411092 0.028449368 -0.02905899 -0.0036708228 -0.008619685 -0.0022280514 -0.027005672
0.012572065 -0.025728479 0.021001797 -0.03537056 0.024172489 -0.029238036 -0.027368411 -0.014947435
-0.009091031 -0.037659444 0.033639755 0.0017977096 0.010959741 -0.015500575 -0.0039936006 -0.019900855
-0.021363273 -0.028406903 0.02772561 -0.024000537 -0.01080518 -0.0049499273 0.032903355 -0.010202216
0.038505223 0.02885783 0.021892544 0.025455412 -0.0093195075 0.015634812 -0.079937726 -0.026897825
-0.058997303 0.0066155954 -0.069609724 -0.041545354 -0.009145697 0.0053242235 0.0008072218 -0.05413682
-0.07820458 -0.03888751 -0.05476681 0.026711818 -0.045537572 -0.023358464 -0.013509199 -0.05638525
-0.05386122 -0.038867973 -0.003174701 0.0045423545 0.0658548 -0.03861969 0.00641178 -0.014462847
-0.026013264 -0.08023277 -0.03455916 -0.045269277 0.013467296 -0.028744731 -0.07375676 0.061433896
-0.016122028 0.007272052 0.023700912 -0.060520638 0.00027552355 -0.043093186 0.01683974 -0.017253617
-0.022826849 0.005540837 0.01188245 -0.061892066 0.009262054 -0.027591472 -0.016003126 -0.02724653
-0.011991463 -0.06888125 -0.07738924 -0.01376553 0.03382998 -0.032028638 -0.030399106 -0.04335804
-0.04704807 0.013846314 0.049425125 0.051918563 0.02876915 0.0037152385 -0.025675142 -0.019870993
-0.026764138 -0.008191105 0.0038253851 0.046298735 -0.06559021 -0.062635966 -0.0050468887 -0.023047466
-0.017996324 -0.06675845 -0.03759529 -0.003970994 -0.009870971 -0.06344486 -0.044363428 -0.04254593
-0.05800948 -0.029566666 0.0031183767 -0.0518502 -0.0609711 -0.0075450875 -0.04376609 -0.036011625
-0.042138245 -0.049045894 -0.022931844 -0.061786138 -0.072285146 0.009900412 -0.01846077 -0.0018221108
-0.065775886 -0.06486705 -0.030364083 0.012461662 0.0001703233 0.04939738 0.0060192724 -0.03975666
-0.04617762 -0.018913673 -0.022465676 4.2400457e-05 -0.03700343 -0.005195705 -0.051438056 -0.0021060717
-0.01339728 -0.057636786 -0.06799281 -0.0066699283 -0.029058807 -0.052489914 0.006084104 -0.058237154
-0.05000671 -0.027284628 -0.027368106 -0.030761337 0.014951474 -0.021456867 0.0063546943 -0.020445732
0.008292019 0.02458645 -0.02965418 0.014041968 -0.0154734645 -0.0032618009 -0.029008113 -0.0056773336
-0.056901462 0.036059335 0.052673716 0.016746553 0.037809636 0.017011017 0.011634456 0.015549877
0.025305359 0.01998329 -0.041886166 -0.064182 -0.00707407 0.027795061 -0.03838067 -0.057696715
-0.033262897 -0.056110103 -0.010048162 -0.0036384778 -0.013490871 -0.032705083 0.018085448 -0.05392184
-0.00890736 0.024161536 -0.05722874 -0.070807114 -0.01115557 -0.0033079684 -0.001864288 -0.042832866
-0.04394914 -0.027081179 0.018406864 -0.046913795 -0.0025612486 -0.05623289 -0.05808109 0.019883333
-0.017766159 -0.06327923 -0.03313713 -0.009542267 -0.044307128 -0.032160234 -0.0034034336 -0.033251077
-0.010025381 -0.06748362 0.07807454 -0.05940601 -0.043825362 -0.0011596552 -0.011729935 -0.010768548
-0.0077296 0.0030877537 0.010856913 -0.056752533 -0.034572672 -0.012491374 0.014249231 -0.01828916
-0.017790215 -0.009357066 -0.05730724 -0.01883786 0.0066847717 -0.050879274 -0.0064416155 -0.05858861
-0.04538251 -0.06325758 -0.007933307 -0.009348103 -0.05137631 -0.04787676 0.020472068 -0.0056626927

fc1.bias f4 [120]
00000000: 4634 94bc e67a b1bc 6333 60bd 676a f53e
00000010: ad4f be3b 56dc c9be 0513 6fbd b4dc 243f
00000020: 5b10 86bd b679 90be 2054 3fbd acf9 473f
00000030: 7b43 383c b6ee 99bc b34c b6bc e1cb 733d
00000040: 0339 c2bd f01e c7bd ec91 003f 160d 27bd
00000050: e938 24bd b630 30bd bb8b 8e3e 30f9 c03d
00000060: aa06 7cbe cdc1 e73e 7625 2b3c 8617 15bd
00000070: 1df1 54bd 4279 be3d d92b 95bd 513f d43b
00000080: c293 2c3e cd89 91bd 8e65 0e3f 65d7 75be
00000090: 5f98 56bd 8753 d83e 5e33 14bd 70b4 97be
000000a0: 32ba 7b3e 00a5 9e3e 3277 993d aa0f c83e
000000b0: 554b 19bc 5740 51bd ad70 92bc 0079 76bd
000000c0: bfca 45bd 5d97 86bd e0c9 30bd c434 5cbd
000000d0: 961e b23e ad17 e0be c227 3dbc 9163 9fbd
000000e0: 9813 7cbe ec7d 22bf b80c 45bd 037e 2f3e
000000f0: 5cf5 b73e e456 bb3b 69d5 afbc 6868 61bd
00000100: 3380 32be d775 c93d eba1 c9bb 2a13 83bd
00000110: be92 60bd 1350 60bd cc2b 323e 919e 8abc
00000120: 700a 8f3e 049a 75ba 6262 bdbc c23d 6fbe
00000130: c216 153f 1674 59be a85c 1d3b ec11 133f
00000140: 4a68 a13e a08a 4e3e bac1 62be 9861 70bd
00000150: 1c74 09bd 2356 29be 7046 da3e 9510 d43e
00000160: 73e8 68bb 36b1 f9bd 5102 8cbd 1bf6 e7bd
00000170: aa4e 3f3e 4a96 6dbc d609 bf3e a0c9 1e3e
00000180: 7b64 d1bc 2d7e 4dbd cea4 dbbc 9ef7 94bd
00000190: 3cb7 94be 28e3 41bd 83f0 f2be c09e fa3e
000001a0: db6b 05bb 4d68 c13d a39a 74be c4fc 95bd
000001b0: 48fd 513d 006f 74bd 1af5 1dbc d28a 2b3f
000001c0: 2c68 7bbe 83db a83e e7ce 2f3f b085 00bd
000001d0: 55fc 913e fdbe d4be 03ba 94bd 0977 173e
-0.018091332 -0.021665048 -0.054736506 0.4793274 0.005807838 -0.39425915 -0.058367748 0.64399266
-0.06546088 -0.28217858 -0.046711087 0.78115344 0.011246557 -0.018790584 -0.02225337 0.059520606
-0.0948353 -0.09722698 0.5022266 -0.040783964 -0.040093336 -0.043015204 0.2784098 0.09422529
-0.24611917 0.45265046 0.010445943 -0.036399387 -0.051987756 0.09300472 -0.07283754 0.0064772745
0.1685324 -0.071063615 0.5562371 -0.24007948 -0.052391406 0.42251226 -0.0361818 -0.2962985
0.24582747 0.3098526 0.07493438 0.3907445 -0.009356339 -0.05108675 -0.017875994 -0.06017399
-0.048289057 -0.06571839 -0.043161273 -0.05376126 0.3478896 -0.43768063 -0.0115451235 -0.07782663
-0.2461685 -0.6347339 -0.048107833 0.17137913 0.35929382 0.0057171453 -0.021464067 -0.05503121
-0.17431717 0.09836929 -0.0061533353 -0.0640014 -0.054827444 -0.054763865 0.1739952 -0.016921313
0.2793765 -0.00093689584 -0.023118202 -0.23363402 0.5823785 -0.2123569 0.0024011526 0.5744922
0.3152488 0.20170069 -0.22144213 -0.058686823 -0.033557996 -0.16536765 0.42631865 0.414189
-0.003553894 -0.121920034 -0.06836379 -0.11326238 0.18682352 -0.014501164 0.37312192 0.15506601
-0.025560608 -0.05016916 -0.026811983 -0.07273792 -0.29046047 -0.047335774 -0.4744912 0.48949242
-0.0020358476 0.09443722 -0.23887114 -0.07323602 0.05126694 -0.05967617 -0.009640956 0.670087
-0.24551457 0.32979974 0.6867508 -0.031377494 0.28512827 -0.41551962 -0.072620414 0.14791502

fc2.weight f4 [84, 120]
00000000: 8e1d 1cbd 98cf 783d ab7f da3d 2170 be3e
00000010: 2be7 1ebd 20f4 69be ea40 1fbc 9b61 f93d
00000020: 0f46 bb3c 70d4 a5bd 351a 533c e4a7 5a3c
00000030: 0d72 bc39 abfd e63e 0a09 a1bd 71e4 c7be
00000040: 8ac0 eebd 5135 92be c4b1 87bc f2c8 953d
00000050: 770a 4fbd 3695 c3bc ba47 323d 0be8 4dbe
00000060: c7b9 c3be 99bc 8b3c 0438 b23c 1954 af3d
00000070: 1436 95bd ac03 923e 5032 21bc 5b60 973d
00000080: ea63 353e a9bd 703d 44dd 0fbe adea e8be
00000090: 4111 b43d 6607 50bd 570f fb3d 7f1e b03d
000000a0: 5572 5f3c 019a 9cbd dbc1 a93e dac8 963a
000000b0: 1f6a b63a a9a8 70bc 3f45 8a3d 116c b0bd
000000c0: 4e17 813e 380a 52bd 7ae5 dcbc b455 5abd
000000d0: a37d d3be 29e4 44bd a210 36bd 582e 023e
000000e0: a2da 21bf 964e 5dbe 076f 5fbd 083a bbbe
000000f0: 9172 053d d743 c33b 3dd0 a6bc 5ae0 88bd
00000100: a1b5 ddbd 4450 dbbd b181 eebc 4f7c efbd
00000110: ab63 843d beed f83d 0088 0c3f 3153 98bd
00000120: be79 f63d 7d34 823a d698 963d 13f9 6abe
00000130: f8e0 813e 8b50 e5bc 4eaa aebc 2b19 23be
00000140: fb74 ea3e c042 78be 50bb ab3d eb9a fd3c
00000150: 9eb5 973e f330 373e d9cc 84be a76c e33e
00000160: 1669 533d 82ad 86be 6a27 0dbf c496 07be
00000170: 590f 033f aaca 7abd 3ebb cd3e e0f3 e33c
00000180: 6e79 093d 1086 f73c 5235 fcbc e5dc 8abe
00000190: f215 edbe ab93 ca3c c2fe 70be 177b 33bd
000001a0: 008e 29be 93f6 6a3e d84c 9e3e dba3 56bd
000001b0: 670d 92bd 596b 05bd fb9d 9f3d bbd2 67be
000001c0: 47e0 17be 2b10 d4bd 6507 883e 58bb c3bd
000001d0: d3f8 f5bd 3a2b 303b 3c48 b43d b6b3 953d
000001e0: 44b0 8d3d 1f8b 93bd 4026 85bd fecb 6abe
000001f0: a9a7 9fbd e422 4e3e e129 99bd 0b14 d03e
00000200: 57f9 39bd 118f 283e 09f7 81bd ad79 ecbd
00000210: 6ed6 8a3d 6080 8f3d 95db 873d 565e 293e
00000220: 8ef8 00be 8c90 b4be 531f 70be d1a0 763c
00000230: 35f5 183d c82b 27bd d89c 22bd 22e4 17bf
00000240: 52a3 823e 56d1 273d a3dd 3dbe 75d9 143d
00000250: 8315 b1bc f814 c4bd d555 6cbe 5adf 633e
00000260: 4858 333e 227e 17bf e169 cd3c d3a4 babd
00000270: 409d 073c 034c af3d eeaa c43d 897c 63be
00000280: 39ea 5e3d 8f5f 873e f532 df3d 8f49 e7bd
00000290: 0e11 0fbd 0cf4 81bb 1d28 c03d a931 8bbb
000002a0: 62fa b8be 9a8a 7d3c cd8e 043c d823 353d
000002b0: 3c1f 2fbf 9cae 853b e02f fd3c d8ca 613d
000002c0: fb76 073e 6069 cd3c f5b2 333e 731b 14be
000002d0: 9eb7 a5be 0860 b8bb 8423 863c 26c0 3ebd
000002e0: f680 50bc 10c4 56be dab8 41bd 2766 f73d
000002f0: 115b 1b3d d754 cfbd 154f f43e 0939 64bd
00000300: d995 4a3e 227f b3bc 92a1 cd3d 3a95 3a3e
00000310: 71e3 953e f2a7 c43d a75d f1bc 2a23 a6bd
00000320: f328 bb3d 5267 31be 7eaf 6bbe c19e 0f3d
00000330: c268 e53c a6dd b0be 7204 35bf e3f6 1b3e
00000340: e5cc a0bd 2372 ea3d 5c41 393e 2da3 c23d
00000350: 6890 373e 18a0 023d 5927 50bd 4170 043c
00000360: 42ba 43bd 4c9c 263d 632f 9abb 7918 e73d
00000370: f0ce 5c3d 0f39 4bbc 9b77 863d bfaa cfbd
00000380: fdba f1bd 9fc1 61be 831a 223e 740e 353d
00000390: 3a39 38bd 104c 2fbd 6afb 00bd 71b5 e53d
000003a0: 2ea8 50bc 1e93 6bbe 8d14 e7be 25b8 ad3d
000003b0: 8415 5fbe df50 d5bd 8d00 c63c 0a80 c33e
000003c0: dc49 d7bd aaef 823b 8860 0d3d a724 233e
000003d0: fa28 81bd ee65 b6bd c07d 21bd 1cd9 683e
000003e0: b041 a2ba 8619 13bf 781c 8bbd 8f8f 913e
000003f0: a866 353d 3d32 cc3e a49c 823c 1a64 43be
-0.038114123 0.06074485 0.10668882 0.37194923 -0.038794678 -0.22847033 -0.009720067 0.1217682
0.022860555 -0.0809716 0.012884666 0.013345692 0.0003594313 0.45115408 -0.07863052 -0.39041474
-0.11657818 -0.28556302 -0.016564257 0.07313718 -0.05054709 -0.02387486 0.043525435 -0.20108049
-0.38227674 0.017057704 0.021755226 0.08560962 -0.07285705 0.28518426 -0.009838656 0.07391425
0.17713895 0.058774624 -0.1404925 -0.45491543 0.087923534 -0.050788306 0.12258785 0.08599567
0.013638099 -0.076465614 0.33155712 0.001150395 0.0013917125 -0.014688649 0.06751489 -0.08614362
0.25213093 -0.051279277 -0.026964892 -0.05330439 -0.4130679 -0.048069153 -0.044449456 0.12712991
-0.6322423 -0.2161201 -0.054549243 -0.36567712 0.032579962 0.005959015 -0.020362968 -0.06683417
-0.108256586 -0.10708669 -0.029114576 -0.11693632 0.06464323 0.12154721 0.5489502 -0.074377425
0.12034939 0.0009933856 0.0735337 -0.22946577 0.2536695 -0.027992507 -0.021321442 -0.1592757
0.45792374 -0.24244213 0.083853364 0.03095766 0.2963075 0.17889766 -0.25937536 0.44418833
0.05161389 -0.2630425 -0.55138266 -0.13241106 0.51195294 -0.06122843 0.40181917 0.02782625
0.03356307 0.030215293 -0.030787144 -0.27121654 -0.46305805 0.024728617 -0.23534682 -0.04381856
-0.16558075 0.22945623 0.30918002 -0.05240236 -0.071314625 -0.032573078 0.07793804 -0.22638981
-0.14831649 -0.10354646 0.26568142 -0.09557217 -0.1201035 0.0026881234 0.0880284 0.07309668
0.069183856 -0.072042696 -0.06501436 -0.2292938 -0.077956505 0.20130497 -0.07478691 0.40640292
-0.045403805 0.16460826 -0.06345946 -0.11546645 0.067791805 0.070069075 0.06633679 0.16539893
-0.12594816 -0.3526653 -0.23449449 0.01505299 0.037343223 -0.040813237 -0.03970036 -0.5933248
0.2551523 0.040971123 -0.18541579 0.036340196 -0.021616703 -0.09574312 -0.23079617 0.2225317
0.17514145 -0.5917684 0.025074901 -0.09113469 0.008277237 0.0855942 0.09602915 -0.22215475
0.05442259 0.26440093 0.10898391 -0.11293327 -0.034928374 -0.00396586 0.09382651 -0.0042478633
-0.36128527 0.01547494 0.008090687 0.044223636 -0.68407035 0.004079653 0.030906618 0.055125087
0.13228981 0.02507466 0.17548735 -0.14463596 -0.3236665 -0.005626682 0.016374357 -0.046569966
-0.012726059 -0.2097323 -0.04729543 0.12080031 0.037928645 -0.10123604 0.47716585 -0.055718455
0.19783725 -0.021911208 0.10040583 0.18220988 0.29275087 0.096023455 -0.029463602 -0.08112176
0.0913867 -0.1732457 -0.23016164 0.03506351 0.028004054 -0.34544104 -0.7070991 0.15230899
-0.078515805 0.11447551 0.18091339 0.095037796 0.1792618 0.03189096 -0.050818775 0.008083404
-0.04778505 0.0406764 -0.004705356 0.11283965 0.05390829 -0.012403741 0.06565782 -0.10139989
-0.11803243 -0.22046517 0.15830426 0.044203237 -0.04497645 -0.04279715 -0.031489767 0.11216248
-0.01273541 -0.2300534 -0.45132867 0.084823884 -0.21785551 -0.104158156 0.024170185 0.38183624
-0.105121344 0.0039958553 0.034515887 0.1593195 -0.06306644 -0.0890616 -0.039426565 0.2273907
-0.0012379196 -0.5746082 -0.06792539 0.2842984 0.044287354 0.3988208 0.015943833 -0.19081154

fc2.bias f4 [84]
00000000: 11bf 473e c655 cebc 9043 f93e 2e15 21bc
00000010: ddad 12bd bbed 803e 1c0c 653e 1025 aebc
00000020: 862a ff3e 0620 b2bd e6f9 d53e ce8c 133f
00000030: 6322 363f d6b0 be3e 7808 16bd 77be 933d
00000040: 0c39 753e 76dd 033e 0d6a 643e 90e0 133f
00000050: 949f 44be 97c9 88be 6eb5 37bd 2f8b 0fbd
00000060: 3b32 233e 8d97 eebc 476a 34be a59e 80bd
00000070: e0dc bb3d d335 ae3e 29a0 72bd a10a 903e
00000080: 868d e33e 08be 0a3f 5ecf 11be 1ffc 1cbe
00000090: dcad 993e 5630 d03b db5a 753e 701e fb3e
000000a0: 83f1 8e3d 9f4b 1c3e d620 893e 6c7e c23e
000000b0: 810f 9cbd b011 20bd 9beb 403f 9a4e ebbd
000000c0: 5623 9b3d 10b0 fd3e ba3a 123e be3b 79bd
000000d0: 09d8 ac3e 0e3d dd3c 5761 e6bd feb2 03bd
000000e0: 8a88 8dbd c13c 843e 8567 3fbe ddce c53d
000000f0: 6e53 553e b1d7 75ba 7f95 763d 4e7d 54be
00000100: e3ff b4bd a235 8e3e 4bac 013f d02e 973e
00000110: 4421 31be b261 99be c742 f53e 8a96 65bc
00000120: 822e df3e 6bfa 853d a15d ce3d a088 c33e
00000130: 2874 ce3b ab07 833d b590 1eba c1f8 f43e
00000140: 430d 283f 4d69 65bd 4a62 69be cd49 97be
0.1950648 -0.025187384 0.4868436 -0.00983171 -0.03581034 0.25181374 0.223679 -0.021257907
0.4983713 -0.08697514 0.4179222 0.57636726 0.7114622 0.3724429 -0.03662917 0.07214063
0.23947543 0.1287745 0.2230608 0.5776453 -0.19201499 -0.267163 -0.04485076 -0.035044845
0.1593713 -0.029125 -0.17618667 -0.06280259 0.09172988 0.3402544 -0.059234772 0.2813311
0.4444391 0.54196215 -0.1423926 -0.15330552 0.30015457 0.0063534183 0.2396044 0.4904666
0.069796585 0.15263222 0.26782864 0.37987077 -0.07620145 -0.039079368 0.75359505 -0.114896014
0.07575099 0.49548388 0.14280215 -0.06084799 0.33758572 0.027006652 -0.11249035 -0.032153122
-0.069108084 0.25827602 -0.18691833 0.09658597 0.20832607 -0.0009378149 0.060201164 -0.20750925
-0.08837869 0.27775294 0.50653523 0.29527903 -0.17297846 -0.29957348 0.4790251 -0.014012942
0.4359017 0.06541904 0.10076452 0.38190174 0.006300468 0.06397947 -0.00060487847 0.47846034
0.65645236 -0.056008626 -0.227914 -0.29548493

fc3.weight f4 [10, 84]
00000000: 586a 0c3e dbaf 1dbe 5a41 d6be 4b7a d8be
00000010: e06d f2bd 1511 09be ffdd 77be 8792 e33e
00000020: ca13 e9be 086e a9be 997c 4cbd f9e5 20be
00000030: b31b 06bf 6e83 f2be 4967 52be 0682 d0be
00000040: 695e 853e 4652 82be f401 19bf 5a42 52be
00000050: 87c1 083e 6f57 2abf e57d d63d 430f 543e
00000060: 6cde 4ebe 582b ea3d 7c5b b0bd 53cc 6ebe
00000070: 9167 193e a203 edbc abfa 4c3e dcca 493d
00000080: 6e31 06be 902f 53ba 283f 81be c5bd 253c
00000090: f762 423e 4ae1 f0bc 4161 863c 975e f9be
000000a0: 9efb a8bd 2a13 7cbe 1331 523c 3652 553e
000000b0: 5e12 f13d 2112 fe3d c368 20bf 9bbe e2be
000000c0: 04ce d63d bf9b ce3d 3475 a53d ea44 5ebe
000000d0: 6236 e8be 7022 f03d 69e0 7cbe 8a28 82bd
000000e0: 77eb 2fbd 2931 13be 21a1 0bbe edbd c23d
000000f0: 2e9a a43d 8033 82be 8ef2 ac3d d942 f0bd
00000100: 429d b03b 0136 7b3d c79e 1ebe 69cc 25be
00000110: 1c8e bc3b 5c35 0c3e f104 753e dbf3 043e
00000120: c393 acbe 385e 1cbe 17cc 1abc 83d2 6e3e
00000130: b799 093e 227a c33b 5bd6 3c3d 8120 0e3e
00000140: 29a3 38be 8991 90be 8f4d 433c 6571 393d
00000150: 737a 92be 2fa6 e7be 801b d23d 21ad b33e
00000160: b0ae b13e a4e2 fdbc 1dfb 003c bc86 3abe
00000170: 4979 333d 18c1 0abe 2d87 07bf 3f4b a9be
00000180: 73b7 82be eb5a 1b3e c41d 19be 7e41 7e3e
00000190: 4d71 e6be de3c c7be 13a5 0cbe 6713 e5be
000001a0: e32f 933e 5966 15bf 35a6 683e 6df0 24be
000001b0: 39d4 53bd 0f8e 70be 7e73 e23c db13 223e
000001c0: b1cd 51bc 7123 c03d 635e 1ebe 056e 0cbd
000001d0: 2c70 b73b 27ef a2bd d37b 5c3e b683 46be
000001e0: e17b 35be b82e 6a3d da22 0a3b 28c9 833b
000001f0: 7657 a43d b901 1b3e e23d 61be 21ee 063d
00000200: 3a38 8a3d a092 4dbe 73b2 40be f6e4 9bbe
00000210: c8a3 0d3b ad1f 71bc bd58 333e 14fc a3bc
00000220: 2871 87bd f635 5dbe 878a 09bf ada5 15bd
00000230: d832 e8bd 42ae 313d a264 8fbd e8ce 5e3c
00000240: bcce 43bf 697d 9e3e 355f c43d 7758 d2be
00000250: 758c 77bd e5be 1cbe e60c 1cbe 257a 9a3d
00000260: 7d36 b7bd 849e 29be 7e3f 01bf 12cb a1be
00000270: 209e 0ebf eca4 0e3e 074f 8cbd 4779 f2be
00000280: 3915 18be c3bc 883e ecdd 9e3d d8a7 243e
00000290: 84e5 2fbf 7bca b9be d02b cdbd 9748 363c
000002a0: 50c4 d03e 747e 173e 0322 3d3e 990a 103e
000002b0: e39d c53d 43c8 94be 9f51 a1be 7e55 4bbe
000002c0: c4cd 143e 857d 79bd 0a4d 483e 2ef3 0ebc
000002d0: b4fa ae3d cbae 093c 1f40 d8bd 9fb9 3e3e
000002e0: c2a4 0f3d 1724 4c3e 7b30 86be 1329 70bd
000002f0: c2f1 0e3b c7a0 3d3e 66e7 e3bd 0cdd a6bc
00000300: 8ef6 88bc 98ed 7a3e d8fd 533b fe25 edbd
00000310: ad0a 98be 3238 d6be 0616 a1bd 7639 30bf
00000320: 8b4a 173e bf5c 95be aa18 2bbf 5ae9 46bd
00000330: 2dfa 0ebe bfcb b8bc 10f6 4b3d 4351 20be
00000340: 0ec6 6d3d cd4c 77be 504c 4cbe d0da 50be
00000350: 4996 1c3e cf4f 843e 6d05 03be 2e04 b7be
00000360: 25d6 06be cfc7 82be 5833 eb3c 4245 f8bd
00000370: 1cdc 6e3d 0775 533d 1716 94be 19b7 eabd
00000380: 3376 9c3c 6321 87be a3ac 85bc e077 d1bb
00000390: 9819 6a3c 5411 a3be a15a 17ba eb6a 74be
000003a0: d85b 9bbe a05a 9f3e dab3 823d e897 38be
000003b0: be6b 593e a777 b4bd 60b9 db3d 0231 6fbb
000003c0: 8313 cc3d 81a7 5a3d 7247 b1be c52d 90bc
000003d0: 7526 763d 44fb abbe d516 0e3c 9e2c d5be
000003e0: 9307 21be 23cb 21be 5f9a 8b3e ddf6 84be
000003f0: 4076 95be 42f5 d13d 6c9b 95be 7094 cdbe
0.13712442 -0.15399115 -0.41846734 -0.42280802 -0.11837363 -0.13385423 -0.24205779 0.4444773
-0.4552291 -0.3309176 -0.049923513 -0.15712728 -0.52386016 -0.47365898 -0.20547213 -0.407242
0.26048592 -0.25453395 -0.59768605 -0.20533124 0.13355075 -0.66539663 0.10473231 0.20708947
-0.20202035 0.114340484 -0.08611199 -0.23320131 0.14980914 -0.028932396 0.20017497 0.049265727
-0.13104793 -0.00080560986 -0.25243497 0.010116045 0.18983065 -0.029404301 0.016403796 -0.4870498
-0.08251117 -0.24616686 0.012829083 0.20832142 0.117710814 0.124058016 -0.62659854 -0.44286045
0.10488513 0.100883 0.08078995 -0.21705976 -0.4535399 0.117253184 -0.2469498 -0.063553885
-0.042949166 -0.14374222 -0.13635685 0.09508882 0.0803722 -0.25429916 0.08444701 -0.117315
0.0053898403 0.0613308 -0.15490256 -0.16191258 0.0057542454 0.1369223 0.23927666 0.12983648
-0.33706483 -0.15270317 -0.009448073 0.23322491 0.13437544 0.005965487 0.046102863 0.13879587
-0.1803099 -0.28236035 0.011920347 0.045274157 -0.28609046 -0.45243976 0.102591515 0.35093024
0.34703588 -0.03099186 0.00787237 -0.1821546 0.04381684 -0.13550222 -0.52940637 -0.3306522
-0.25530586 0.15171401 -0.14952761 0.24829671 -0.45008317 -0.38913625 -0.13734846 -0.44741365
0.28747472 -0.58359295 0.22719653 -0.1610734 -0.051716063 -0.23491691 0.027642962 0.15827887
-0.012805388 0.0938176 -0.15465693 -0.03428461 0.0055980887 -0.07955771 0.2153161 -0.19386181
-0.17723037 0.05717346 0.0021077902 0.0040217824 0.08024494 0.15137376 -0.21996263 0.03294194
0.067490056 -0.20075464 -0.18818073 -0.3044812 0.0021612514 -0.014717025 0.1751432 -0.020017661
-0.0661338 -0.21602616 -0.53727 -0.036534954 -0.11337823 0.043379076 -0.07001616 0.013599135
-0.76487327 0.30955055 0.09588472 -0.41083118 -0.060436685 -0.15307195 -0.15239295 0.075428285
-0.0894594 -0.16564375 -0.50487506 -0.31600243 -0.5571003 0.139301 -0.06851011 -0.47358152
-0.14851846 0.26706514 0.07757172 0.16079652 -0.6870959 -0.36287293 -0.10018122 0.011125705
0.40774775 0.14794332 0.18470006 0.14066543 0.09649255 -0.29059038 -0.31507584 -0.19856831
0.14531618 -0.06091072 0.19560638 -0.008724971 0.085439116 0.00840349 -0.10559105 0.18625496
0.035069235 0.19935642 -0.26208863 -0.05863292 0.002181158 0.18518363 -0.1112812 -0.020369075
-0.016719129 0.24504697 0.0032347348 -0.11579512 -0.29695645 -0.4183975 -0.07865529 -0.6883768
0.1477453 -0.29172322 -0.6683451 -0.048562385 -0.13962622 -0.022558091 0.04979521 -0.15655999
0.058050208 -0.24150391 -0.19950986 -0.2039597 0.15291704 0.2584214 -0.12795039 -0.35745376
-0.13167627 -0.25543067 0.028711006 -0.12122585 0.05831538 0.051625278 -0.28923103 -0.11460704
0.01909933 -0.2639266 -0.016317671 -0.006392464 0.014288329 -0.31849158 -0.00057736976 -0.23868911
-0.3034351 0.3112383 0.0638196 -0.18026698 0.21232507 -0.088118844 0.10728717 -0.0036497717
0.09964659 0.0533824 -0.3462482 -0.01759995 0.06009527 -0.33590138 0.008672436 -0.41635603
-0.15725546 -0.15800147 0.27266213 -0.25969592 -0.2919178 0.10251857 -0.2922014 -0.4015231

fc3.bias f4 [10]
00000000: ec56 b8be aa75 69be 3bb9 46be c27c 5c3e
00000010: 606a a33e 43f2 b9bd e7fb 313d 5ec4 15be
00000020: aa37 403e b94b 4a3c
-0.36003816 -0.22798792 -0.19406597 0.21531966 0.31917095 -0.09079411 0.043453123 -0.1462569
0.18771234 0.012347155
