Code/Appendix - Organization/saved/fc1_normalized_42.pt (torch, 284511 bytes, 4 tensors)

fc1.weight f4 [89, 784]
000000 00 a0 f2 3b aa db 58 bc 98 7d bc bc 95 aa 05 3b
       0.0074043274 -0.013235966 -0.023009107 0.0020395864
000010 0a a3 a4 3c cc 6a d3 3c d6 2f e2 3b 2c e5 0f bd
       0.020097274 0.02580776 0.006902675 -0.035130665
000020 2c dd 12 bd 38 42 8a bb 9c 7b 10 3c 13 86 ad bc
       -0.035855457 -0.0042193197 0.008818533 -0.021182096
000030 b3 3b 43 3c ae 8f 71 bc 9b 1d 9d 3c 0b 01 d6 bc
       0.011916089 -0.014743729 0.019179156 -0.026123544
000040 e0 33 b6 3c fc 88 b0 3c f8 72 60 bc b4 1d a2 3b
       0.022241533 0.021549694 -0.013699286 0.0049473885
000050 04 4d eb 39 3e 2c a0 bb 98 30 0c bd 33 da 9d bc
       0.00044880074 -0.0048880866 -0.03422603 -0.019269085
000060 ea 63 0b bc 9c d2 da bc 14 b2 42 bc 16 f6 1b bd
       -0.008507708 -0.026711755 -0.011883277 -0.038076483
000070 0c 84 92 3c e4 0b a6 3c 70 2a c8 3b f4 f9 e0 3c
       0.01788523 0.020269342 0.0061085746 0.027462937
000080 38 af de bc 99 b5 a7 3b 30 ba 0e bc 9b f5 91 bc
       -0.02718316 0.0051180837 -0.008711383 -0.01781731
000090 90 52 2e bb 48 99 8d bc 4f 4d 87 bc 68 38 f0 38
       -0.0026599504 -0.017285004 -0.016516356 0.00011454598
0000a0 1d 29 86 bc d1 72 98 b8 9c 86 e4 bc 46 d3 b4 3b
       -0.016377026 -7.269311e-05 -0.027896218 0.00551835
0000b0 81 6c 0b bd 5c 5a d3 3c 91 51 01 3d 4d b3 2b 3b
       -0.034039024 0.025799923 0.03157193 0.00261994
0000c0 b9 dc b5 3c 27 cf 7b bb fc 2b 74 bc d2 3a 61 3c
       0.022199975 -0.0038423033 -0.014903065 0.013746934
0000d0 61 7c 55 3b 08 e0 88 3c 3e 5f 80 bc 18 d4 f3 3c
       0.0032575356 0.016708389 -0.015670415 0.02976422
0000e0 64 e2 7b 3c 03 1a 1e bd 91 35 2e bb 14 b2 a2 3c
       0.0153738 -0.038599025 -0.002658222 0.019860305
0000f0 1d 49 63 bc 9a f2 2e 3c 8c 7f 85 ba 65 1c ea bc
       -0.013872412 0.010677958 -0.0010185107 -0.028577993
000100 f8 19 cb bc 99 a3 e3 3b fe 56 25 bd f1 6c b6 3c
       -0.024792656 0.0069469926 -0.040366165 0.022268744
000110 7a e0 91 3c a3 42 69 bc 45 36 1d bd 0c 7c 41 3c
       0.017807234 -0.014237079 -0.038381834 0.01180936
000120 2c 41 84 bc fe 58 53 3b 01 44 f4 bc 20 1b af bc
       -0.016144358 0.0032249088 -0.029817583 -0.021375239
000130 37 38 c8 bc da 8e 1f bc 67 30 8a 3c b8 a8 fa bb
       -0.024440868 -0.009738648 0.016868783 -0.0076495074
000140 d0 c8 95 ba 0f 05 1f bd 0a 86 a0 3c 9a 44 b0 bc
       -0.0011427645 -0.038823184 0.019595165 -0.021517087
000150 8a 24 98 3c 9b bb fe bc 20 ea 8a bb 39 8d a9 3c
       0.01857211 -0.031095317 -0.0042393357 0.020697223
000160 2d f1 eb 3c 2e fc d7 3c ca bf fb bc 1d ad 2d 3c
       0.028801525 0.026365366 -0.0307311 0.010600355
000170 94 00 7c 3b 0a d9 2c 3c c1 6d bc 3b 85 20 ed bc
       0.0038452493 0.010549793 0.0057503884 -0.02894617
000180 10 33 c3 3c 0b 36 c6 3c 18 6d 10 3a 4e da 01 bd
       0.02382806 0.024195692 0.00055094203 -0.031702332
000190 32 c7 8c bc 4f 76 8c bc 7a 11 3b bc 53 ae f0 ba
       -0.017184827 -0.017146258 -0.011417741 -0.00183625
0001a0 c3 3a 35 3c cd ae 36 bc f4 f1 ea bc 8f 2e d4 bc
       0.011061373 -0.011150074 -0.028679825 -0.025901107
0001b0 4b 4a 66 bb a2 ce dc 3c 01 60 f8 bc 54 73 5c bc
       -0.0035139497 0.026953999 -0.030319216 -0.013455231
0001c0 1e bb d3 bc dd e1 10 bd 80 1d 4c bc 25 6f 91 3b
       -0.02584606 -0.03537165 -0.012458205 0.0044382983
0001d0 e2 bf 53 bc 20 8c c8 bc a0 d6 26 3b 05 77 b3 bc
       -0.012924166 -0.02448088 0.0025457516 -0.021907339
0001e0 e1 1d c1 3c 81 1a 8f bb c0 de 96 3c a4 f9 eb bc
       0.023573818 -0.004367173 0.018416762 -0.028805561
0001f0 b3 b9 d8 bb 2f 31 84 bc 3e d3 06 bd b1 db 8e bc
       -0.006613934 -0.016136734 -0.0329163 -0.017438741
000200 ad 2e 43 bd 9f 0a 08 bd 7c 34 19 3b bc c3 3a bd
       -0.047651935 -0.033213254 0.002337723 -0.045596823
000210 ba a9 ac bc f9 f6 e7 bc 91 f3 e6 3c 47 ae 1e bc
       -0.021077026 -0.028316008 0.028192313 -0.009685106
000220 71 cf 13 bc 7c 96 ef bc dd c5 1d 3b ba a9 e8 3c
       -0.009021626 -0.029246561 0.0024074235 0.028401244
000230 0f 1f 42 b9 86 d6 e2 bc c5 a5 8d 3c 90 6d 9f ba
       -0.00018512852 -0.027690183 0.01729096 -0.001216339
000240 1d cf 97 bc da 80 1e bc d2 3f 9f bc ed 4d 32 bd
       -0.018531376 -0.009674275 -0.019439612 -0.043531347
000250 be e4 3c bc 4c 71 6d bc bc 29 f1 3b 68 df 04 bd
       -0.011529146 -0.014492344 0.0073597115 -0.03243962
000260 89 3e 28 bd 7d cf b1 bb b1 d9 94 ba 50 dd 76 bc
       -0.041075263 -0.005426346 -0.0011356381 -0.015067413
000270 e1 f8 87 bd f6 0b 95 bc 61 5a 36 bc 13 19 47 bd
       -0.06639267 -0.01819418 -0.011129946 -0.048607897
000280 7b 74 a3 bc 04 c0 41 3c 66 68 1e bd be 7c 4d bb
       -0.019953003 0.011825565 -0.03867378 -0.003135487
000290 b2 40 8d bb c6 07 02 bc 8e 07 fd bc 84 82 29 bc
       -0.004310691 -0.007936424 -0.030887391 -0.010346059
0002a0 ee bf 0a bd 93 e7 00 bd 24 ea 9c 3b 1b ba 19 bd
       -0.033874445 -0.031470846 0.004788654 -0.037531
0002b0 b9 3f 00 bd 35 86 f3 bc d1 0f 66 3c be d1 74 bb
       -0.03131077 -0.02972708 0.014041857 -0.0037356461
0002c0 60 79 16 3c 8f 9a 45 bd 43 06 14 bd 3a e9 b9 bb
       0.0091842115 -0.0482431 -0.036138784 -0.0056735547
0002d0 5f 0f 26 3d 9a e2 34 3c 3b fe 2f 3d 30 c9 8d bb
       0.040542003 0.011040354 0.042967062 -0.004326962
0002e0 66 f7 b5 3c 22 ec bd bc b6 4e 0b bd c5 e3 99 3c
       0.022212695 -0.023183886 -0.03401061 0.018785367
0002f0 d0 a3 38 bd 07 f1 c6 bb 75 ff 32 3c 17 77 3c bd
       -0.0450781 -0.006071213 0.0109251635 -0.04601201
000300 d1 74 bb 3c 69 3c df bc b2 c9 1b bd f1 20 90 bc
       0.02288285 -0.027250485 -0.03803415 -0.017593833
000310 9e a1 c9 bc dd c4 92 bc fe a0 0e bd c3 7b 29 bc
       -0.024613198 -0.017916137 -0.034821503 -0.0103444485
000320 fd a4 40 3c 75 6e 2a bc 6b 36 26 3c dc ff 8a 3c
       0.011758086 -0.010402312 0.01014481 0.016967706
000330 82 2e ce bb 86 ef b3 3c 17 fc 43 3d df 01 50 3d
       -0.0062921653 0.0219648 0.047847833 0.050783034
000340 ab 4b 81 3d e2 c1 02 3c 41 4b 6b 3c 3c d6 3d 3d
       0.06313261 0.007980796 0.014361204 0.046346888
000350 aa 56 7d 3d 75 95 a2 3c 1d d9 7f 37 bb cd ed 3c
       0.061850227 0.019846657 1.5249735e-05 0.029028764
000360 40 8f 30 3c cb 9d c6 bb 56 b8 a2 bb 90 32 03 bd
       0.010776341 -0.006061291 -0.004965822 -0.032030642
000370 bc d2 5f bb 14 17 d7 bc c0 ba 0c bd d5 30 1f bc
       -0.0034152707 -0.026256122 -0.034357786 -0.009716232
000380 1e 8d f5 3c b9 3a b2 3c f0 c7 38 3c 26 67 07 bd
       0.029974516 0.021756517 0.011278138 -0.033057354
000390 65 d4 8c 3c 94 37 0b bd 3f a5 be bb 2e 07 eb ba
       0.017191121 -0.03398855 -0.0058180387 -0.0017931217
0003a0 ff ff ad 3b 4e fc 87 bc 56 c1 0b 3d 60 fd 19 3d
       0.005310058 -0.0165998 0.034119926 0.037595153
0003b0 9c 58 92 3c 21 b4 79 3d d0 9e 78 3d 9d 6f 2a 3d
       0.017864518 0.0609628 0.06069833 0.04161035
0003c0 a6 42 48 3c 9c 42 cf 3c 78 2f b0 3c 61 a6 0b 3c
       0.0122229215 0.025300317 0.02150701 0.008523555
0003d0 c1 c8 23 3d 87 48 83 3c 8c 95 9e bc 9e b4 30 bd
       0.039986376 0.016025795 -0.019358419 -0.043141
0003e0 bd 0c 2a bb 78 d0 da bc 87 6c 18 bd 33 1b ec 3c
       -0.0025947534 -0.026710734 -0.037212875 0.028821563
0003f0 df 86 e8 bc f1 0a 03 bd 7e 45 d5 3c a1 d4 a5 bc
       -0.028384624 -0.031992856 0.026034113 -0.02024299

fc1.bias f4 [89]
000000 f1 4c dd 3c a4 f4 66 bc de b0 ab 3c 30 5c 5a b9
       0.027014228 -0.014096413 0.02095836 -0.00020824443
000010 7f f2 2a 3d 7d 5d 23 3d fd 15 1d 3c 11 2c 1b 3c
       0.04173517 0.03988408 0.009587762 0.0094709555
000020 36 0d e6 bb 39 ea 5e bb 0f c7 26 3d cc ae 9a ba
       -0.007020618 -0.003401412 0.04071718 -0.0011801361
000030 88 f9 c6 bc a1 c8 da 3c 3c 2d 03 3d ed da 04 3c
       -0.024288908 0.026706995 0.03202556 0.008108837
000040 ce a4 16 3d 9a 0a 94 3c 0f 60 c8 3c d8 4c c2 3b
       0.036778264 0.018071461 0.024459867 0.0059295706
000050 ea 37 c2 3c 9d 11 9e bb 14 e9 9c bc 53 cd ba bc
       0.023708303 -0.004823877 -0.019154109 -0.022802984
000060 3b 61 36 3d c2 63 90 bc 99 48 0f 3d 97 10 54 3b
       0.04452632 -0.017625693 0.034981344 0.003235852
000070 dc a2 64 3b 26 41 2e 3c f4 8c 89 bb fa 17 6c 3c
       0.003488711 0.01063565 -0.004197711 0.014410013
000080 27 9a 8a bc a9 37 7a 3c 4b d0 bb 3a e2 96 0c 3d
       -0.016919209 0.0152720595 0.0014329044 0.03432358
000090 aa f9 2c 3d 60 d8 9e bc 23 bb 33 bc 9a 4b b9 3c
       0.042230286 -0.019390285 -0.01096991 0.022619057
0000a0 29 ff 22 bb a3 df 01 3c ba ff cd bb 42 b3 72 bc
       -0.0024871326 0.007926854 -0.0062865885 -0.014813246
0000b0 a9 a9 f7 3c 84 e8 4a bc b2 f5 fd 3c 40 f5 fc 3c
       0.030232267 -0.012384538 0.031000946 0.030878663
0000c0 78 28 b3 3c 58 25 00 bc 16 5b 07 bd cd c4 56 bc
       0.021869883 -0.007821403 -0.03304585 -0.013108444
0000d0 c3 7c b6 bc 65 f1 87 3c 81 18 ab bc 1d 74 30 3d
       -0.022276288 0.016594598 -0.020885708 0.043079484
0000e0 6e c4 f1 3c f0 34 e9 bc d7 df 4e bc df 1c 40 3c
       0.02951261 -0.028467625 -0.01262661 0.011725633
0000f0 2d c0 65 3c 6a 3d d5 3c 73 59 ec 3c 17 73 7d bc
       0.014022869 0.026030261 0.028851246 -0.015469334
000100 5a d9 19 3d dc a1 04 3d b0 d9 9f bc 64 3c b3 bc
       0.0375608 0.032380924 -0.019512981 -0.021879382
000110 67 45 4c bc 9a eb c9 bc 38 af 82 bb 77 88 e5 3c
       -0.012467719 -0.024648476 -0.003988173 0.028019173
000120 fe 41 3a 3c ce 65 96 bc 55 9d 02 3c 76 00 19 bc
       0.011368273 -0.018359091 0.007972081 -0.009338489
000130 f2 2b b5 3c 98 ff 17 3c 1c 57 4c 3d 5b 57 02 bc
       0.022115681 0.009277247 0.04988776 -0.0079553975
000140 a2 99 00 bd 70 33 02 bc ba 79 e9 ba 92 11 06 3c
       -0.031396516 -0.007946834 -0.0017812767 0.0081829
000150 47 3a 46 3b 22 2e 68 bc 0b 22 ee 3c 08 f0 f5 3c
       0.0030247138 -0.014171155 0.029068967 0.030021682
000160 72 69 3e bb
       -0.002905455

fc2.weight f4 [10, 89]
000000 01 74 33 be 95 d8 2a 3d 57 0a 56 bd b5 41 13 be
       -0.1752472 0.041710455 -0.052255955 -0.14380534
000010 93 8c d7 bd 51 8d 38 be c2 aa 57 be b6 f7 2d bd
       -0.10524859 -0.18022658 -0.21061233 -0.042472564
000020 4b 55 65 bd 15 5a f1 bd 00 c1 6e 3d 32 b4 00 3e
       -0.055989545 -0.1178476 0.058289528 0.12568739
000030 67 ee 57 3d d1 ea b6 bc ed 4d 80 3d 7b 17 21 3e
       0.052717593 -0.022328766 0.06264863 0.15731613
000040 65 f5 82 3d e5 15 7e bc 86 49 cd bc f1 4b 1f be
       0.063944615 -0.01550815 -0.025059473 -0.15556313
000050 49 3f 2c bd 28 95 00 3e c3 01 52 3e 3a 0f 64 3e
       -0.04205254 0.12556899 0.20508485 0.22271433
000060 62 df 1f 3e 27 59 62 3e 01 37 11 bd df 99 55 bd
       0.15612558 0.22104321 -0.035452846 -0.052148696
000070 eb 40 da 3d 5d 3f 27 3d 30 c0 95 bb de 24 6e 3d
       0.10656913 0.040831912 -0.0045700297 0.058140628
000080 3f 50 13 3e fe 21 12 3e c2 92 54 3c 43 b0 5e 3d
       0.1438608 0.1427078 0.012974443 0.054367315
000090 30 8d 1d be 75 5c 44 be b1 99 f2 bb ce 84 6a 3d
       -0.1538589 -0.19175895 -0.0074035753 0.05725556
0000a0 56 09 f5 bc 36 a9 83 be bb 0f 22 3d 0e a1 70 bd
       -0.029911678 -0.25715035 0.039565783 -0.058747344
0000b0 d3 4b 2e 3e dd 32 ae bd 97 72 fb bd 11 e5 a9 3d
       0.17021112 -0.08505795 -0.12277716 0.08295644
0000c0 df ec 16 bd 85 ed aa 3d d9 0c 9a 3d df 14 32 3d
       -0.03684699 0.083460845 0.07521982 0.043476935
0000d0 00 a9 6e bd 77 0d fa 3d 5c 7f 2b 3c c5 1c 8d bd
       -0.05826664 0.122095995 0.010467377 -0.06890253
0000e0 bf 51 29 3e 3f 90 03 bd 12 fc 0c 3d 7c 9f 0f bd
       0.1653509 -0.032119986 0.03442008 -0.035064206
0000f0 3f 63 e0 3d a8 02 50 3d 4c ec a7 3c 14 2a 67 bc
       0.1095643 0.050783783 0.020498417 -0.014109153
000100 48 1d 9a 3d 10 2b 02 3e 38 90 d1 bd 64 4f c0 3d
       0.07525116 0.1271174 -0.10232586 0.093901426
000110 1d 9c 1e bc 9e 0f c3 3d e8 10 de 3d 19 05 22 3e
       -0.009680775 0.09524463 0.10843068 0.15822257
000120 e5 bc 08 3e da e9 c8 3b 5c c3 20 3d e9 99 2c be
       0.13353308 0.006131393 0.03924881 -0.16855587
000130 a6 cd 86 3d 05 9c 03 bc d9 34 81 be a1 3d b4 3c
       0.06582193 -0.008032803 -0.25235632 0.022002043
000140 a2 40 64 3d 5e 18 57 bd d7 06 64 3d fd bd e9 3c
       0.0557257 -0.052513473 0.055670585 0.028532976
000150 97 ad 2b 3d 8b ba b7 3d db e0 b5 3d 00 96 0a 3e
       0.041913595 0.08971127 0.088807784 0.13533783
000160 8b 5f 33 bb 95 0f 95 3c 7f 64 d1 bd e4 26 4d bc
       -0.002737018 0.018195907 -0.10224246 -0.012521479
000170 40 83 c3 bd 47 ff 48 be a0 e1 e3 3d 2b 6a b9 3d
       -0.09546518 -0.1962863 0.11127019 0.09053453
000180 c1 c7 f0 bd 60 a5 7a 3d 83 0f aa bd 53 f5 c2 bd
       -0.1175685 0.06119287 -0.0830374 -0.09519448
000190 03 13 a1 3c a6 8d 2f be ca 95 0c 3e 6e 49 8e 3d
       0.019662386 -0.17143878 0.13729015 0.06947599
0001a0 4c cc 17 bd 80 9e 0e be 7d 72 91 3c f4 9c 64 bd
       -0.037060067 -0.1392765 0.017754788 -0.055813745
0001b0 4f 9d 15 3e eb 48 20 be 5b 8b b6 3c d9 09 e2 bd
       0.1461079 -0.15652816 0.022283247 -0.110370345
0001c0 63 cf b2 bd c9 9e 01 be f4 19 fa bd de 99 bc bd
       -0.08730962 -0.12658228 -0.122119814 -0.09209035
0001d0 b2 b8 33 3d 8a 77 e2 3d 8b cb f2 3c 4c 3a 61 bc
       0.04387731 0.110579565 0.029638072 -0.013746809
0001e0 84 02 0a 3e b5 52 cb bd 64 5f be bc 68 57 43 be
       0.13477522 -0.099278845 -0.023238845 -0.19076312
0001f0 b4 8c 09 bd e6 95 32 be 82 f1 8f 3d 62 80 d7 3d
       -0.03358145 -0.17439994 0.07028486 0.10522534
000200 18 9d 1b 3e 6b 3f 0e 3e 46 c3 85 3e 11 86 16 be
       0.15196645 0.1389138 0.26125544 -0.1469958
000210 4b 7b f4 3c cf 0a 98 3c 83 c4 29 3d 8e a7 e7 bd
       0.029843947 0.018559841 0.041447174 -0.113112554
000220 77 55 30 bd f6 18 b4 bd 0d 0e c5 bd 5c a3 26 3e
       -0.043050256 -0.087938234 -0.096218206 0.16273254
000230 52 2f de 3d 19 1b 9f 3c 8d f4 e6 bd 77 35 fb bd
       0.108488694 0.0194221 -0.11277113 -0.12266057
000240 7f d2 35 be f5 b0 61 bd 5f 0d 8a bd 62 0b 51 bd
       -0.17756079 -0.0551004 -0.067408316 -0.051036246
000250 40 ab 9b bd 5b bc 2c be 82 14 db bd ae f4 ea 3d
       -0.07601023 -0.16868727 -0.10697271 0.1147245
000260 a7 25 0b 3d c2 7b bf bd 23 df 32 3e fd d8 b9 bd
       0.033971455 -0.09349777 0.17467932 -0.0907459
000270 15 a8 1f be 50 c4 e3 bd 09 42 07 be 21 4f b5 3d
       -0.15591462 -0.11121428 -0.13208784 0.08852983
000280 02 5e 18 3d 0e 36 e0 3b 1b 97 56 bc 19 fd bc bd
       0.037199028 0.0068423813 -0.01309755 -0.09227962
000290 e4 7e 81 3e d8 20 a3 bc 08 1d e3 bd 84 83 39 3e
       0.25292122 -0.019913122 -0.11089522 0.18116575
0002a0 4f 57 ad 3d 9d 7e 4d bd b2 39 c7 3c 53 49 ef ba
       0.084639184 -0.050169576 0.024319503 -0.0018256105
0002b0 ac 39 9b 3d fd 48 ca bd 68 a0 34 3c ab 1b 3d be
       0.075793594 -0.09877203 0.011024572 -0.18467586
0002c0 7c aa ed bd c9 6c 97 bd 67 4f 96 bd 6c a7 19 3d
       -0.11604783 -0.07393796 -0.073393635 0.03751318
0002d0 e3 28 ec 3c fe 75 88 3b 20 c7 0c be dc 9a 01 be
       0.02882809 0.0041644564 -0.13747835 -0.1265673
0002e0 98 f5 e6 bd a7 56 2b 3e 0d be 63 3d d2 dd f7 bd
       -0.11277312 0.16732274 0.05560117 -0.12102856
0002f0 e0 af 9f bd a0 fe 08 be 4e 8d 85 bd b1 0e 4c 3e
       -0.07797217 -0.13378382 -0.06521092 0.1992748
000300 93 c1 87 bd 9a 27 13 3e 01 75 c9 bd 2b c6 64 bd
       -0.06628718 0.14370576 -0.0983677 -0.05585305
000310 70 cb 62 3e ef 58 50 3e 6c ba aa bd cc 64 a3 bd
       0.22147918 0.20346425 -0.083363384 -0.0797821
000320 85 c2 f3 3c 23 c1 46 3e c6 15 f7 3c 70 d8 d5 3c
       0.02975584 0.19409613 0.03016175 0.026104182
000330 d0 c3 ab bc d6 7f 8a 3c 8a 62 de bd 97 a9 3b bd
       -0.020967394 0.01690666 -0.108586386 -0.04581603
000340 09 54 d2 bd d2 d9 68 bd ff 9e 05 be d4 29 8f 3d
       -0.10269935 -0.056848355 -0.13048933 0.069904
000350 8e 8d 30 be 27 52 ff bd 84 1f 3b 3d 7d 13 a4 bd
       -0.17241499 -0.12466841 0.045684353 -0.080115296
000360 9e e8 de bd 84 93 43 be 41 46 d0 bd 1a 8b c0 3d
       -0.10884212 -0.19099241 -0.1016965 0.094015315
000370 bc c5 13 3d 46 18 0e 3d 1c ad 97 bd ab 75 1f bd
       0.036077246 0.034691118 -0.07406065 -0.038930576
000380 be 49 28 3d 8d b3 21 3e e1 1c 13 3e 51 b8 a9 bd
       0.04108595 0.1579115 0.14366485 -0.08287109
000390 58 5d 3a be ee 32 38 bd 39 b3 68 3e ac 1e ef 3d
       -0.1819967 -0.044970445 0.22724618 0.11675772
0003a0 6b b2 00 3d 85 a4 a5 3d 75 7a 81 3d 13 e9 ba bd
       0.031420153 0.0808802 0.06322185 -0.09126487
0003b0 53 4f 6d bc 4d a1 88 3e 62 e8 68 bd fa b4 12 be
       -0.014484244 0.26685563 -0.056862243 -0.1432685
0003c0 b3 98 42 3e cc 5e 4b bd 2b c7 f5 bd be f7 d4 bd
       0.19003563 -0.049650952 -0.12000879 -0.103988156
0003d0 ef dd cd 3d a2 db ac bd 96 5d 83 3d 33 b7 08 bd
       0.10052096 -0.08440329 0.064143345 -0.033377837
0003e0 62 6b 8b 3e 69 19 f1 bd 4b ae e9 3b 72 a3 e8 bc
       0.27230364 -0.11772425 0.007131373 -0.02839825
0003f0 d6 fc 9d 3c 7f 26 c5 3d f0 b2 d6 bc 99 d3 af bb
       0.0192856 0.09626483 -0.02620837 -0.0053658006

fc2.bias f4 [10]
000000 4c 2b c3 bd c1 63 93 bd 59 ac f6 3c ee f5 f9 bb
       -0.095297426 -0.07196761 0.030111479 -0.007628194
000010 57 0c 08 bd 37 89 13 3b 91 c5 40 3c 31 73 d7 3d
       -0.033214893 0.0022512206 0.0117658535 0.10520018
000020 e8 b3 ac bc aa eb 87 3d
       -0.02108188 0.06636746
